trained_models/DCGANdiscriminator_epoch100.pth (torch, 698832 bytes, 9 tensors)

image_to_features.0.weight f4 [16, 3, 4, 4]
-0.030004425 0.03236253 0.045650683 -0.046228122 0.093560256 -0.004504305 0.042136226 -0.14719036
-0.15766975 -0.037773903 0.11221332 -0.006859289 0.035717063 0.14041942 0.19902298 -0.15537518
-0.0014149427 0.07149695 -0.20471759 -0.031294197 0.092383005 0.06421515 -0.12987459 0.07960301
0.005975312 -0.030464198 0.0474718 0.14136319 -0.03866244 -0.1630485 -0.06399687 -0.12648483
-0.11127041 0.021633862 0.056841407 0.12462894 0.11048933 0.0015840678 -0.029612625 0.07675836
-0.08944095 -0.1061667 -0.16530219 -0.00026229097 0.025863277 0.10814317 0.02097884 0.07817113
-0.10315964 -0.35322118 -0.35850492 -0.0750363 -0.16953531 -0.40134615 -0.49790293 -0.2676952
0.048478197 -0.20711829 -0.06353446 -0.022274533 -0.040311646 0.044229373 0.06573075 -0.10413695
0.061786577 -0.15553932 0.0077614463 0.04077667 -0.043309815 -0.06770161 -0.15077095 -0.040370084
-0.025969362 -0.014182625 0.023567384 0.052597526 0.08463941 0.014232711 -0.029236553 0.0074319807
0.09681347 0.023401909 -0.09250873 0.022649575 0.0045996704 -0.04846015 -0.059846662 0.002095668
-0.0032024048 0.0746281 0.04046431 0.051650647 0.020933595 0.06496306 0.030332532 0.050064594
-0.02531032 0.110188425 -0.18902068 -0.08410922 -0.13738544 0.0031568012 -0.06521601 0.00942817
0.12188079 0.17571397 0.16688457 -0.009158233 -0.023738015 0.021337166 -0.17412515 0.107575655
0.03191481 -0.0073271827 0.15302634 0.0055369884 0.008922603 -0.112164296 -0.089737475 0.17708072
-0.05571188 -0.2520412 0.04476102 -0.1027746 0.077294596 0.09652764 0.001166416 0.022629907
-0.050783016 0.06919876 -0.013093116 0.094908044 0.02681123 0.15710004 -0.11168697 -0.0621449
0.10388775 -0.12264593 0.1709202 -0.081545666 -0.11902973 -0.012463827 -0.01736467 -0.027642542
0.14999026 0.018732343 -0.02617313 0.016001336 0.14242923 0.06908377 0.010630303 0.03058206
0.08590915 0.1903072 -0.042122953 -0.049417373 0.038769167 0.060866166 0.14172357 -0.059505083
0.068631016 -0.097596854 0.026382742 -0.104226604 -0.034505706 -0.047603052 -0.04820599 -0.14521629
0.044431657 0.10297151 0.03771847 -0.12924467 0.040202282 0.089436315 0.042429116 -0.034407962
-0.103351705 -0.17604671 -0.23080584 -0.028653968 -0.030853394 -0.2809543 -0.31906965 -0.27700526
-0.028136568 -0.12902956 -0.03700675 -0.18187083 -0.07480505 0.0696006 0.102943726 0.09194813
0.015845558 -0.27112687 -0.28714257 -0.17188698 -0.20286313 -0.43498498 -0.27408832 -0.24711138
0.03596511 -0.041974 -0.22192968 -0.078150034 0.011494278 -0.12099193 -0.06756797 -0.025960632
0.043275896 0.012707401 -0.11914217 0.025785858 -0.027926952 -0.062108982 -0.120537765 -0.035718933
0.13271847 0.021495905 0.043410625 -0.084208496 0.019123793 0.15920882 0.19954133 0.036378272
0.11204256 0.088606805 -0.0055961134 0.10339473 0.12538557 -0.0019875662 -0.0399678 -0.036547072
0.22776344 0.02497766 0.16235697 0.11151813 0.26592103 0.20031032 0.056930188 0.20267576
0.057835348 -0.029952023 0.03976117 -0.024616925 -0.08198885 -0.29453823 -0.052267004 -0.049119916
-0.23067743 -0.4636533 -0.30240706 0.022378977 -0.08454646 -0.06998078 0.009298753 0.092862345
00000000: d7cb f5bc 928e 043d 36fc 3a3d b359 3dbd
00000010: 859c bf3d d998 93bb 0997 2c3d 12b9 16be
00000020: 2e74 21be cfb8 1abd 19d0 e53d e3c3 e0bb
00000030: 0e4c 123d 1cca 0f3e aecc 4b3e ac1a 1fbe
00000040: 9975 b9ba fe6c 923d 7da1 51be 582e 00bd
00000050: 4d33 bd3d 3c83 833d d8fd 04be e706 a33d
00000060: 8dcc c33b 0e90 f9bc ca71 423d 83c1 103e
00000070: 825c 1ebd 30f6 26be ca10 83bd 3d85 01be
00000080: bee1 e3bd 7f39 b13c 89d2 683d 753d ff3d
00000090: 3b48 e23d 7fa0 cf3a 2d96 f2bc 7d33 9d3d
000000a0: d12c b7bd ed6d d9bd fa44 29be 1984 89b9
000000b0: 39df d33c 2b7a dd3d d1db ab3c 2f18 a03d
000000c0: 5d45 d3bd 68d9 b4be f58d b7be a2ac 99bd
000000d0: aa9a 2dbe 3e7d cdbe 22ed febe 580f 89be
000000e0: 1391 463d d116 54be 5b1e 82bd 1579 b6bc
000000f0: d31d 25bd dc29 353d d89d 863d c145 d5bd
00000100: ec13 7d3d b345 1fbe bb53 fe3b 7005 273d
00000110: a265 31bd 24a7 8abd b363 1abe 1a5b 25bd
00000120: b3bd d4bc 3e5e 68bc 6310 c13c 8170 573d
00000130: 6d57 ad3d 5130 693c 7f81 efbc f987 f33b
00000140: 2446 c63d 5cb5 bf3c 3875 bdbd 9a8b b93c
00000150: d5b8 963b 267e 46bd c621 75bd 7a57 093b
00000160: 70df 51bb 9ed6 983d e8bd 253d a18f 533d
00000170: ee7c ab3c 5a0b 853d ee7b f83c 8810 4d3d
00000180: 9757 cfbc 78aa e13d a38e 41be 7441 acbd
00000190: c5ae 0cbe 56e2 4e3b f98f 85bd 9c78 1a3c
000001a0: a39c f93d 5dee 333e cae3 2a3e 6a0c 16bc
000001b0: 3a76 c2bc 48cb ae3c dd4d 32be a050 dc3d
000001c0: 1bb9 023d dd18 f0bb f0b2 1c3e a06f b53b
000001d0: 1c30 123c 65b6 e5bd 48c8 b7bd a654 353e
000001e0: 2432 64bd 8b0b 81be 5557 373d 7d7b d2bd
000001f0: a14c 9e3d 49b0 c53d 6de2 983a 5b62 b93c
00000200: da01 50bd 14b8 8d3d 8284 56bc 265f c23d
00000210: 3aa3 db3c d5de 203e 23bc e4bd a78b 7ebd
00000220: 1ac3 d43d ca2d fbbd b405 2f3e 6a01 a7bd
00000230: dcc5 f3bd 1435 4cbc 5a40 8ebc 9d72 e2bc
00000240: 0c97 193e 9274 993c 0869 d6bc 3c15 833c
00000250: f8d8 113e cb7b 8d3d b92a 2e3c 3a87 fa3c
00000260: 23f1 af3d e4df 423e 1e89 2cbd df69 4abd
00000270: 6bcc 1e3d cd4e 793d fc1f 113e 9abb 73bd
00000280: 6b8e 8c3d dce0 c7bd 9f20 d83c c274 d5bd
00000290: db55 0dbd 6bfb 42bd a573 45bd 94b3 14be
000002a0: f8fd 353d bae2 d23d af7e 1a3d b758 04be
000002b0: 26ab 243d 632a b73d 27ca 2d3d 5def 0cbd
000002c0: 0faa d3bd 9745 34be 5e58 6cbe babb eabc
000002d0: 42c0 fcbc 3ed9 8fbe 195d a3be a2d3 8dbe
000002e0: a97e e6bc 5320 04be 6494 17bd 593c 3abe
000002f0: 6433 99bd c28a 8e3d 29d4 d23d 4d4f bc3d
00000300: 8bce 813c 24d1 8abe 5a04 93be 2403 30be
00000310: 5abb 4fbe 5ab6 debe 4e55 8cbe c40a 7dbe
00000320: 2750 133d eeec 2bbd 8941 63be 200d a0bd
00000330: 7f52 3c3c 9eca f7bd 1361 8abd 64ab d4bc
00000340: 1142 313d b432 503c cf00 f4bd dd3c d33c
00000350: 10c7 e4bc fd65 7ebd 81dc f6bd 044e 12bd
00000360: 5ae7 073e 2e18 b03c 57cf 313d 8175 acbd
00000370: 80a9 9c3c a307 233e 9054 4c3e 6201 153d
00000380: 9276 e53d 7c77 b53d 9a5f b7bb 9ec0 d33d
00000390: 1365 003e d441 02bb 47b5 23bd 62b2 15bd
000003a0: d23a 693e f39d cc3c e840 263e 9e63 e43d
000003b0: cd26 883e 261e 4d3e a12f 693d 3c8a 4f3e
000003c0: c2e4 6c3d f25d f5bc 9cdc 223d 6fa9 c9bc
000003d0: c5e9 a7bd b7cd 96be ed15 56bd f731 49bd
000003e0: b436 6cbe f763 edbe 19d5 9abe 1e54 b73c
000003f0: b226 adbd 1552 8fbd cc59 183c 9d2e be3d

image_to_features.0.bias f4 [16]
-0.033087384 0.07484004 -0.050846763 0.06777883 -0.013341355 0.08627816 0.057228986 -0.12801369
0.10347415 0.06652697 0.05614028 0.07931373 -0.022211954 -0.059715357 0.084172405 0.075605236
00000000: a386 07bd bc45 993d b244 50bd a1cf 8a3d
00000010: b395 5abc 9bb2 b03d f168 6a3d 0516 03be
00000020: 41ea d33d 4b3f 883d 5af3 653d 3d6f a23d
00000030: d8f5 b5bc 1798 74bd 9562 ac3d ebd6 9a3d

image_to_features.2.weight f4 [32, 16, 4, 4]
0.03338357 -0.13732766 0.0911612 -0.14514327 0.08000402 0.075283565 0.11890792 -0.07394238
0.01637321 -0.12668365 -0.004621234 0.022838755 0.014328045 -0.04045139 0.09229805 -0.017128306
-0.0028557268 -0.1033832 -0.11963888 -0.04190798 -0.06545021 -0.09385713 -0.052243516 -0.12771484
0.02711972 -0.1422526 -0.1441355 -0.044348508 -0.043461025 -0.05598012 -0.100379415 -0.06676378
-0.04488078 -0.052811448 -0.11376058 -0.14990163 -0.08262725 -0.103328 -0.10692899 -0.13323417
0.089153655 0.009332854 0.006314362 0.040324904 -0.078898884 0.0016523481 0.091631845 0.02819914
0.04702488 -0.04444844 0.03533475 -0.035181794 0.011679789 0.0125755435 0.059391763 0.010716878
0.13005365 0.03914268 0.03436812 -0.029337587 0.1336016 0.09648824 0.07127969 -0.003477104
-0.1774725 -0.26484048 -0.2106092 -0.1322276 -0.14370449 -0.20001195 -0.13403958 -0.14655575
-0.18350928 -0.24259785 -0.22136451 -0.1716249 -0.18765838 -0.23390082 -0.25450978 -0.14129926
-0.08037859 -0.016838914 -0.09910646 -0.08832937 0.00954632 -0.07279599 -0.10319711 -0.14168413
-0.040389422 -0.107300274 -0.15519355 -0.029689526 -0.053868666 -0.09430596 -0.0771139 0.052988872
-0.027521186 -0.022562679 -0.062736936 -0.016036976 0.08942313 -0.024856158 -0.014834875 -0.076073974
0.08324751 0.08766456 -0.005595088 0.0726931 0.090886064 0.02787784 0.067978226 0.09615873
-0.071197055 -0.009058707 -0.03910075 -0.011991637 0.0023869784 -0.033352643 -0.010345463 -0.007519039
0.0007748647 -0.036183137 0.048315622 0.05164878 -0.07879999 -0.021047119 -0.02913076 -0.078233875
0.023135085 0.024923168 0.01443336 0.038897905 0.048109483 0.062368672 0.030569889 -0.041097876
0.15924507 0.115870826 0.102267995 0.09447472 0.07780099 0.04552841 0.05948841 0.12041729
-0.059107285 -0.026762623 0.015999218 0.0070222667 -0.021503888 0.012429572 -0.028295983 -0.055280697
0.08924133 0.072400756 0.02503165 0.017018564 0.043604676 0.028041974 0.07656945 0.03668159
-0.08129918 -0.05407311 -0.034914155 -0.015325581 0.00016103762 -0.12266981 -0.14144762 -0.04210101
-0.10981222 -0.10847904 -0.19841984 -0.041907128 -0.04776774 0.010124177 -0.17027155 0.120938994
-0.095942125 0.0011062237 -0.058059487 -0.05040798 -0.02627881 -0.08941143 -0.12553708 -0.06593499
0.043029528 -0.032064863 -0.021021571 0.020991888 0.041991837 0.013590094 0.10107001 0.06614908
-0.02374581 -0.034406368 0.0047934162 -0.012238919 0.015193581 0.054015007 0.038204554 0.040505044
-0.07246478 0.028251765 0.029224802 0.0054418026 0.0069378484 0.012767427 -0.011483855 -0.050743517
0.05081143 -0.015268645 0.082422726 0.013796235 0.06835409 0.04955822 0.1599458 0.09842835
0.026605831 0.14141409 0.18565406 0.11434171 0.040026985 -0.047043726 0.096847035 -0.054649837
0.103086434 0.03945734 0.076989286 0.03624055 0.1656921 0.09593911 -0.047168076 0.16858365
0.14878812 0.054557726 0.05183299 0.11415361 0.19373724 0.119288 0.20094384 0.20334612
-0.006640374 -0.11913486 -0.08223399 -0.020659281 -0.047442365 -0.12444475 -0.11165625 -0.052336007
0.018213388 -0.08263532 -0.06471962 -0.096067786 -0.013686458 -0.05421454 -0.0061013824 -0.026509795
00000000: 36bd 083d 9f9f 0cbe b9b2 ba3d 70a0 14be
00000010: 26d9 a33d 452e 9a3d ff85 f33d 1a6f 97bd
00000020: 1c21 863c 5cb9 01be b86d 97bb 5718 bb3c
00000030: 2dc0 6a3c 5bb0 25bd c306 bd3d a950 8cbc
00000040: 2527 3bbb 92ba d3bd 3b05 f5bd b4a7 2bbd
00000050: c20a 86bd 2b38 c0bd 4cfd 55bd aec7 02be
00000060: 2d2a de3c aaaa 11be 4298 13be c8a6 35bd
00000070: 3004 32bd 694b 65bd b993 cdbd 73bb 88bd
00000080: e9d4 37bd d150 58bd 4ffb e8bd d07f 19be
00000090: 7a38 a9bd a19d d3bd 96fd dabd 8a6e 08be
000000a0: 3196 b63d d4e8 183c b5e8 ce3b ba2b 253d
000000b0: bd95 a1bd 9a93 d83a 7aa9 bb3d e201 e73c
000000c0: 299d 403d 910f 36bd 2cbb 103d c91a 10bd
000000d0: 965c 3f3c a709 4e3c c744 733d d895 2f3c
000000e0: c92c 053e 1354 203d 96c5 0c3d 6155 f0bc
000000f0: dcce 083e a09b c53d 16fb 913d 20e0 63bb
00000100: 5abb 35be 2c99 87be f0a9 57be ac66 07be
00000110: 4527 13be efcf 4cbe ac41 09be b612 16be
00000120: dbe9 3bbe 926b 78be 61ad 62be 70be 2fbe
00000130: 8529 40be b283 6fbe 1b4f 82be c1b0 10be
00000140: 889d a4bd c3f1 89bc 54f8 cabd 07e6 b4bd
00000150: 2b68 1c3c 1016 95bd 0259 d3bd a515 11be
00000160: 616f 25bd 3fc0 dbbd 0feb 1ebe 7337 f3bc
00000170: 64a5 5cbd 7c23 c1bd e4ed 9dbd dc0a 593d
00000180: 1c74 e1bc 5ed5 b8bc 397c 80bd fa5f 83bc
00000190: 7923 b73d 249f cbbc fa0d 73bc accc 9bbd
000001a0: ac7d aa3d 7a89 b33d 0057 b7bb 1fe0 943d
000001b0: 7922 ba3d 1160 e43c 2b38 8b3d deee c43d
000001c0: c3cf 91bd f96a 14bc 1c28 20bd 9278 44bc
000001d0: da6e 1c3b c89c 08bd 0480 29bc 4562 f6bb
000001e0: 4a20 4b3a c534 14bd 9ae6 453d ac8d 533d
000001f0: e461 a1bd 026b acbc a2a3 eebc 1539 a0bd
00000200: ca85 bd3c ac2b cc3c e679 6c3c 6953 1f3d
00000210: 730e 453d 4b76 7f3d b46d fa3c 3f56 28bd
00000220: 2411 233e af4d ed3d e271 d13d f67b c13d
00000230: 2056 9f3d ff7b 3a3d 1eaa 733d 579d f63d
00000240: 7b1a 72bd 4a3d dbbc cb10 833c 0b1b e63b
00000250: ec28 b0bc 67a5 4b3c facc e7bc 036e 62bd
00000260: 29c4 b63d d946 943d 2d0f cd3c 846a 8b3c
00000270: d19a 323d 48b8 e53c 72d0 9c3d 6f3f 163d
00000280: 2f80 a6bd c47b 5dbd 2502 0fbd 2518 7bbc
00000290: 35dc 2839 4f3a fbbd a5d7 10be 1c72 2cbd
000002a0: 3be5 e0bd 422a debd 922e 4bbe cfa6 2bbd
000002b0: 1ba8 43bd e0df 253c aa5b 2ebe ddae f73d
000002c0: 4e7d c4bd b5fe 903a c9cf 6dbd 9978 4ebd
000002d0: a946 d7bc 571d b7bd cb8c 00be ed08 87bd
000002e0: bb3f 303d 7256 03bd 6e35 acbc 2ef7 ab3c
000002f0: a2ff 2b3d fca8 5e3c cbfd ce3d 2b79 873d
00000300: 9386 c2bc b1ed 0cbd 1712 9d3b bf85 48bc
00000310: 7fee 783c d73e 5d3d 617c 1c3d 9ee8 253d
00000320: 6a68 94bd 3f70 e73c da68 ef3c 2651 b23b
00000330: e456 e33b 782e 513c c726 3cbc 6fd8 4fbd
00000340: a51f 503d 5729 7abc 3fcd a83d 9b09 623c
00000350: 3bfd 8b3d 8ffd 4a3d d5c8 233e ce94 c93d
00000360: 79f4 d93c dbce 103e 191c 3e3e fd2b ea3d
00000370: 56f3 233d ecb0 40bd bd57 c63d 82d8 5fbd
00000380: fb1e d33d 059e 213d 8fac 9d3d f970 143d
00000390: 31ab 293e b97b c43d 5033 41bd 31a1 2c3e
000003a0: ea5b 183e ec77 5f3d d44e 543d 5ec9 e93d
000003b0: 0e63 463e 444d f43d 39c4 4d3e f739 503e
000003c0: 7f97 d9bb fafc f3bd 4b6a a8bd a73d a9bc
000003d0: ed52 42bd e4dc febd 08ac e4bd 485e 56bd
000003e0: 3e34 953c b53c a9bd b88b 84bd 30bf c4bd
000003f0: 2a3d 60bc 1110 5ebd 1bee c7bb 122b d9bc

image_to_features.2.bias f4 [32]
0.14365001 0.13218212 0.009846695 0.124530315 -0.11035067 -0.1820858 0.13708496 -0.005067819
0.02224305 -0.015544885 0.090752624 0.059538048 -0.1153195 0.08307551 -0.05699531 0.11890766
-0.058853414 0.08337715 -0.09048713 0.054798752 0.01190601 -0.05259286 -0.09023803 0.005727295
-0.13575101 0.07975632 -0.021827482 -0.044816934 0.07754828 0.033277813 -0.16152605 0.11836181
00000000: fd18 133e c05a 073e 0854 213c c009 ff3d
00000010: 88ff e1bd b374 3abe 0060 0c3e f20f a6bb
00000020: 0f37 b63c f9af 7ebc 83dc b93d 2bde 733d
00000030: a12c ecbd 7e23 aa3d ea73 69bd dc85 f33d
00000040: 4710 71bd a4c1 aa3d 5151 b9bd a874 603d
00000050: 6d11 433c 9c6b 57bd b7ce b8bd 08ac bb3b
00000060: 5002 0bbe 4857 a33d 8ccf b2bc f691 37bd
00000070: a2d1 9e3d 514e 083d 1667 25be ad67 f23d

image_to_features.4.weight f4 [64, 32, 4, 4]
-0.15854625 -0.04435305 -0.03881105 -0.04429794 0.019697083 0.044936076 -0.031111322 -0.01788255
0.031498354 -0.024128841 -0.049874365 -0.028715197 -0.123130746 0.04535888 0.020748157 -0.043882906
-0.021050217 0.07186979 0.093447536 -0.0808579 -0.044666138 0.18099026 0.023104198 0.029969258
0.024243535 0.020779885 0.06354287 -0.058670692 -0.054362196 -0.065641604 -0.06913353 -0.09566385
0.009936722 0.06368759 0.06500626 0.12080568 -0.009735536 0.1201054 0.10043384 -0.0025080787
0.029110113 0.107700765 0.074837826 0.0772894 0.06492172 0.04771663 -0.029079268 0.12305201
0.064683445 0.02775632 0.07634341 0.020609442 0.056575548 0.17383468 0.14071627 0.1074998
0.01231106 0.105733715 0.11858029 0.112320326 0.023095682 -0.018939704 0.027387997 -0.024839109
0.046200678 -0.0014891209 -0.07005219 -0.010494174 -0.03303199 -0.05913715 0.13489676 0.17445987
-0.08204496 -0.06649774 0.09655989 -0.0017478552 -0.024052715 0.06479742 0.045686938 -0.088504575
0.09521848 -0.032865975 -0.03858549 -0.08871241 -0.12836395 -0.039350368 0.042236928 0.028765311
-0.12131017 -0.047321815 -0.016772151 0.03053025 0.012296986 -0.0282713 -0.12205014 -0.07959996
-0.014002166 -0.006017191 0.018144345 0.014216594 0.0045781755 0.0591757 0.016578091 0.12251334
-0.006678782 -0.04382698 0.15497382 -0.0078350175 -0.080779664 -0.02280476 -0.028440543 -0.044998128
-0.025882512 -0.03882227 -0.027771907 -0.13511117 0.021168584 0.048385836 0.16109337 0.07333745
-0.05242215 0.019530535 0.12697265 0.035378408 -0.10687845 -0.13062339 0.026799256 -0.122376114
-0.03286699 -0.046308827 -0.013517662 -0.067447 -0.032713953 0.14058952 0.0915108 0.078487754
-0.050683897 0.09815817 0.15889442 0.03897781 -0.10240123 -0.066754095 -0.028165568 -0.16033164
0.105867006 -0.084781855 -0.013962482 -0.008161269 -0.06966331 -0.011821708 0.071604416 0.014162955
-0.044075426 0.010960607 0.07197136 0.09111543 0.044975907 0.038581163 0.029419307 0.02961751
-0.023853537 0.065400526 0.11421354 0.06541673 0.05746518 0.085029006 0.09344914 0.06351513
-0.06004254 -0.0075418907 0.057450544 0.020351764 0.05894832 0.021582734 0.061211273 0.015387752
0.010606033 0.029585104 -0.095422074 -0.14434437 0.07696887 0.20984767 0.109698646 0.081623785
-0.06831974 0.10641931 0.14164585 0.015434751 -0.04292462 0.036274858 -0.06627593 -0.16716276
0.023541868 0.0022474849 0.05550483 0.113140486 0.049381763 0.10708763 0.17987223 0.10046227
-0.029540163 0.0015094085 0.038063046 -0.017652567 0.02742347 0.061026074 -0.013691458 -0.09900064
0.05912145 0.07471515 0.07553844 0.019127226 -0.015781358 0.13056885 0.10546116 0.072740585
-0.0022280777 0.092340276 0.102846324 0.042770535 -0.04163521 -0.007431435 -0.020061761 -0.059182163
-0.11246794 -0.081870794 -0.043747723 -0.20680793 0.024385367 0.13992141 0.07448656 -0.05687242
0.032344464 0.14340921 0.13445055 -0.07656189 -0.037060183 -0.072350524 -0.10576619 -0.17806672
0.0073408238 0.02065535 -0.02938309 -0.081771635 -0.0043438543 0.14371064 0.13457409 0.092920855
-0.041167956 0.06530986 0.13358656 -0.020647932 -0.12795833 -0.016775861 -0.06318041 -0.063266665
00000000: f359 22be 8bab 35bd 56f8 1ebd c271 35bd
00000010: c75b a13c e40e 383d 2cdd febc 6d7e 92bc
00000020: 6b04 013d d9a9 c5bc 1049 4cbd 223c ebbc
00000030: f92b fcbd 3cca 393d 0af8 a93c 90be 33bd
00000040: 8171 acbc 7830 933d 6c61 bf3d d498 a5bd
00000050: d7f3 36bd 8355 393e 0445 bd3c 1782 f53c
00000060: 619a c63c 943a aa3c c422 823d ae50 70bd
00000070: e5aa 5ebd 1b6f 86bd e195 8dbd 69eb c3bd
00000080: a2cd 223c a46e 823d 0122 853d f868 f73d
00000090: cc81 1fbc d2f9 f53d 42b0 cd3d 945e 24bb
000000a0: 5578 ee3c 3892 dc3d 9344 993d e849 9e3d
000000b0: aef5 843d 8372 433d a537 eebc b102 fc3d
000000c0: c178 843d 3961 e33c ef59 9c3d 22d5 a83c
000000d0: c3bb 673d b801 323e ed17 103e db28 dc3d
000000e0: 54b4 493c eb8a d83d 39da f23d 3308 e63d
000000f0: 2833 bd3c 7027 9bbc cb5c e03c 637b cbbc
00000100: ec3c 3d3d 9b2e c3ba 8677 8fbd c2ef 2bbc
00000110: 8d4c 07bd cc39 72bd 6022 0a3e 9ca5 323e
00000120: 3007 a8bd f82f 88bd 31c1 c53d 4a18 e5ba
00000130: 330a c5bc 82b4 843d 3a22 3b3d e341 b5bd
00000140: e801 c33d 799e 06bd d20b 1ebd daae b5bd
00000150: d771 03be da2d 21bd a100 2d3d 3ba5 eb3c
00000160: 7771 f8bd 85d4 41bd c065 89bc 931a fa3c
00000170: 4c79 493c 3799 e7bc 6cf5 f9bd 4e05 a3bd
00000180: 5769 65bc db2b c5bb 73a3 943c b8ec 683c
00000190: 8504 963b 3862 723d c7ce 873c 46e8 fa3d
000001a0: afd9 dabb eb83 33bd 75b1 1e3e 725e 00bc
000001b0: cf6f a5bd 0cd1 babc 24fc e8bc f54f 38bd
000001c0: 9007 d4bc 1a04 1fbd e981 e3bc 955a 0abe
000001d0: bd69 ad3c 3a30 463d a9f5 243e f231 963d
000001e0: 9cb8 56bd 80fe 9f3c 1e05 023e f3e8 103d
000001f0: 17e3 dabd 23c2 05be 1d8a db3c 54a0 fabd
00000200: 899f 06bd 53ae 3dbd 2f79 5dbc a721 8abd
00000210: 11ff 05bd b3f6 0f3e 046a bb3d 30be a03d
00000220: eb99 4fbd 2707 c93d 38b5 223e 32a7 1f3d
00000230: bcb7 d1bd 5fb6 88bd 7abb e6bc fa2d 24be
00000240: cdd0 d83d 1ca2 adbd e5c2 64bc d8b6 05bc
00000250: a3ab 8ebd d6af 41bc 56a5 923d bd0b 683c
00000260: 6f88 34bd 1e94 333c b865 933d ba9a ba3d
00000270: a838 383d 4807 1e3d c200 f13c 6ca0 f23c
00000280: 7e68 c3bc b6f0 853d cae8 e93d 35f9 853d
00000290: 9c60 6b3d b023 ae3d 4362 bf3d 3814 823d
000002a0: 2bef 75bd f721 f7bb 4351 6b3d beb8 a63c
000002b0: cb73 713d 46ce b03c acb8 7a3d e91c 7c3c
000002c0: edc4 2d3c 765c f23c a66c c3bd 03cf 13be
000002d0: dba1 9d3d 4fe2 563e afa9 e03d 5f2a a73d
000002e0: 38eb 8bbd 5ef2 d93d 9c0b 113e 0ae2 7c3c
000002f0: bad1 2fbd f294 143d adbb 87bd b72c 2bbe
00000300: e0da c03c 8a4a 133b 0859 633d 33b6 e73d
00000310: 8844 4a3d c250 db3d 6d30 383e 2abf cd3d
00000320: 36fe f1bc 58d7 c53a ffe7 1b3d 1e9c 90bc
00000330: 2fa7 e03c 7af6 793d 2352 60bc d9c0 cabd
00000340: 5529 723d 4204 993d e6b3 9a3d b3b0 9c3c
00000350: e847 81bc d7b3 053e 05fc d73d 04f9 943d
00000360: f104 12bb e61c bd3d 18a1 d23d 2830 2f3d
00000370: af89 2abd 6583 f3bb 9058 a4bc ff68 72bd
00000380: 9755 e6bd e0ab a7bd d030 33bd 75c5 53be
00000390: d2c3 c73c 8f47 0f3e 698c 983d 0ef3 68bd
000003a0: a17b 043d ddd9 123e 68ad 093e 7bcc 9cbd
000003b0: 6bcc 17bd 832c 94bd f29b d8bd 1f57 36be
000003c0: 4b8b f03b 6935 a93c ceb4 f0bc e377 a7bd
000003d0: e456 8ebb e228 133e cacd 093e 4a4d be3d
000003e0: bb9f 28bd 2dc1 853d eaca 083e da25 a9bc
000003f0: 8207 03be 886d 89bc bb64 81bd f491 81bd

image_to_features.4.bias f4 [64]
0.14274631 -0.05424269 0.1394548 0.1543243 0.072414614 0.021759542 0.10471231 -0.018322539
0.01585995 -0.083520226 0.113782614 0.13756411 0.12858847 0.19357333 -0.0040548192 0.21541224
0.18033458 0.13380016 0.2356524 -0.05476872 -0.025616558 0.072833784 0.1023976 0.10093724
0.0803532 0.092986636 0.1646108 -0.0303106 -0.09973943 0.1105171 -0.00015509632 0.16752636
-0.036162615 0.15819225 -0.09677258 0.094593234 -0.033767052 -0.03327842 0.19923715 0.08435158
-0.092476055 -0.0867418 0.051763523 0.09291272 0.092933096 -0.2477304 0.040928908 -0.043824803
0.043176934 0.028808666 0.12815414 -0.0105908 0.14655277 0.062305067 0.089123756 0.1446275
0.07448261 0.13718992 -0.04256936 0.21816394 -0.093527995 0.16756853 0.19725868 0.07880824
00000000: 172c 123e 952d 5ebd 3dcd 0e3e 3007 1e3e
00000010: 1d4e 943d 1141 b23c 6873 d63d 2619 96bc
00000020: baec 813c a70c abbd dc06 e93d 9bdd 0c3e
00000030: b2ac 033e 1638 463e 4ade 84bb 0795 5c3e
00000040: a1a9 383e e902 093e dd4e 713e 2a55 60bd
00000050: d1d9 d1bc e129 953d d5b5 d13d 2fb8 ce3d
00000060: 3890 a43d c76f be3d bc8f 283e ef4d f8bc
00000070: 3044 ccbd ca56 e23d 5aa1 22b9 088c 2b3e
00000080: 401f 14bd 26fd 213e b430 c6bd 19ba c13d
00000090: 524f 0abd f44e 08bd d304 4c3e 85c0 ac3d
000000a0: 1664 bdbd afa5 b1bd fd05 543d 0649 be3d
000000b0: b553 be3d 0aad 7dbe 12a5 273d a381 33bd
000000c0: 4cda 303d 2700 ec3c d73a 033e 0985 2dbc
000000d0: ee11 163e 9933 7f3d 8486 b63d 3b19 143e
000000e0: 578a 983d 847b 0c3e 365d 2ebd 5e66 5f3e
000000f0: 9b8b bfbd 1697 2b3e 2efe 493e 3766 a13d

image_to_features.6.weight f4 [128, 64, 4, 4]
-0.14971593 0.0057471828 0.048175726 -0.005601986 0.20190182 0.04643479 0.098419204 0.063001394
-0.03642673 0.05808681 0.03101499 0.048524544 0.014704865 0.06681454 0.13785554 0.0176963
-0.028543446 -0.07671596 0.019007059 0.0883176 -0.027066158 -0.04654071 -0.058241107 0.038152054
-0.0052765785 -0.058626667 -0.06779061 0.007018979 0.036812402 0.021587972 0.064324856 0.1160711
-0.009937099 0.036341026 0.046099197 -0.046922226 0.03542371 0.08372272 0.063340425 0.009136231
0.04006668 0.08163029 0.0515152 0.12535445 -0.040367946 0.052751504 0.09812109 0.099355556
-0.05095407 0.07098507 0.071947455 -0.02531905 0.18224326 0.27228558 0.2453373 0.13715057
-0.0031721531 0.19171353 0.1906023 0.12601444 -0.04111236 0.059085842 0.1169908 0.009364351
0.045603085 -0.108711705 0.038412835 -0.14748743 0.15962632 0.058936317 0.1035727 -0.021194203
0.07054655 0.1650498 0.20384224 -0.081634 -0.075900234 -0.0578585 -0.024042876 -0.050818704
-0.041588645 -0.039587542 -0.0130058965 0.067441344 -0.02669069 0.013238366 -0.00761378 0.05693654
-0.022151038 -0.06733999 -0.049050063 0.09384788 -0.067747295 0.05819432 -0.03721576 0.10634364
0.17117102 -0.0108436635 0.05665801 -0.0033386718 0.13251324 0.0018141838 0.08576857 -0.015546857
0.051561713 0.079856336 0.15425046 -0.06965722 -0.106670074 0.05798182 -0.005157566 -0.0007235004
-0.022519521 0.070494436 0.016281622 0.08552244 -0.050289843 0.053159215 -0.03185955 0.06961058
-0.009304263 0.01684857 -0.032144092 -0.051414765 -0.049695317 0.015825247 -0.026722718 0.08531103
-0.044320807 0.02226549 -0.010441404 0.09979721 -0.0011145665 0.011074655 0.075022735 0.051890098
-0.043054037 -0.06962433 -0.014383214 0.12105341 -0.024990562 0.028682794 0.025972683 0.12541927
0.022326726 -0.027547723 -0.07829387 -0.05273992 -0.04609857 -0.112596124 -0.10339024 -0.028727006
-0.0344306 -0.03979384 -0.041729294 -0.018691216 0.02054452 -0.028983315 0.004602161 -0.027958112
0.082024775 -0.030746374 0.063078 -0.05602625 0.02976861 0.06556297 0.0011492267 -0.029144771
0.056681953 0.11698546 0.13063712 -0.041823063 -0.19164406 -0.030029953 -0.00707801 -0.05556289
0.05025414 0.017900083 -0.03941473 -0.023390124 -0.077308826 -0.028288413 -0.09321595 -0.0063890624
0.11246922 0.0716916 0.039485514 -0.002572554 -0.035468042 0.0293214 -0.08514249 0.03471968
-0.08562884 0.086679704 0.043867175 0.005659174 0.14643356 0.23766749 0.17135234 0.08281079
-0.027356327 0.101938814 0.20524035 0.019604504 -0.06674063 0.12217169 0.122353286 0.033508416
-0.02894934 -0.07830496 0.01919209 0.012102151 0.031241028 -0.040978994 0.09257544 -0.025388546
-0.02056458 0.03130611 -0.034045726 0.121694915 0.064285174 0.09221746 0.08243109 0.10404584
0.011031135 -0.038046394 0.029864948 0.03633986 0.013043523 -0.17623833 -0.07339059 -0.10019082
-0.07115745 -0.057832666 -0.040535636 0.013381002 0.083638065 -0.028864356 0.120690756 -0.0063832295
0.015488795 0.022815047 0.03216623 0.10886042 0.082743876 0.062549576 0.12116204 0.021545744
-0.03537613 0.073646724 0.11486595 0.05968369 0.08508974 0.06566562 0.08330147 0.12601544
00000000: 224f 19be dd52 bc3b e953 453d dd90 b7bb
00000010: 5abf 4e3e 6832 3e3d 0290 c93d e006 813d
00000020: 3234 15bd 6fec 6d3d 2613 fe3c acc1 463d
00000030: adec 703c 10d6 883d 012a 0d3e d5f7 903c
00000040: f2d3 e9bc 421d 9dbd b1b4 9b3c dcdf b43d
00000050: d9b9 ddbc 79a1 3ebd 3a8e 6ebd 5445 1c3d
00000060: 26e7 acbb 8422 70bd ced5 8abd 77ff e53b
00000070: 9ac8 163d 42d9 b03c c0bc 833d afb6 ed3d
00000080: 37cf 22bc 54da 143d 83d2 3c3d 8531 40bd
00000090: 7418 113d d176 ab3d a0b8 813d 21b0 153c
000000a0: f61c 243d c82d a73d 9a01 533d eb5c 003e
000000b0: dc58 25bd f611 583d b6f3 c83d ed7a cb3d
000000c0: 37b5 50bd 9f60 913d 3059 933d e569 cfbc
000000d0: fa9d 3a3e 0469 8b3e b339 7b3e 3371 0c3e
000000e0: e6e3 4fbb 8d50 443e 402d 433e ee09 013e
000000f0: 6f65 28bd ff03 723d df98 ef3d ef6c 193c
00000100: 4dca 3a3d 3ea4 debd c756 1d3d f206 17be
00000110: 1575 233e 3567 713d ec1d d43d 779f adbc
00000120: b67a 903d d102 293e 05bc 503e ba2f a7bd
00000130: 9571 9bbd 09fd 6cbd 91f5 c4bc 4627 50bd
00000140: db58 2abd 8c26 22bd af16 55bc b01e 8a3d
00000150: 6fa6 dabc bbe5 583c 047d f9bb 4a36 693d
00000160: 1876 b5bc 8ce9 89bd b8e8 48bd 5133 c03d
00000170: 18bf 8abd 2b5d 6e3d 8e6f 18bd b2ca d93d
00000180: 7547 2f3e 9fa9 31bc 3b12 683d 9ecd 5abb
00000190: 8db1 073e e8c9 ed3a 6fa7 af3d 3fb8 7ebc
000001a0: 6032 533d b88b a33d d5f3 1d3e 72a8 8ebd
000001b0: d775 dabd 587e 6d3d cd00 a9bb 4aa9 3dba
000001c0: dc7a b8bc 635f 903d 0961 853c 6426 af3d
000001d0: b9fc 4dbd 7abd 593d 297f 02bd fe8f 8e3d
000001e0: e870 18bc 0306 8a3c 86a9 03bd 4a98 52bd
000001f0: 518d 4bbd f3a3 813c 9ae9 dabc 8db7 ae3d
00000200: bc89 35bd 1e66 b63c 6c12 2bbc 7b62 cc3d
00000210: a516 92ba 7872 353c 85a5 993d b68a 543d
00000220: 6e59 30bd 3397 8ebd 92a7 6bbc daea f73d
00000230: 02b9 ccbc 2ef8 ea3c aac4 d43c e96d 003e
00000240: 8ae6 b63c c3ab e1bc 8958 a0bd d005 58bd
00000250: dbd1 3cbd cc98 e6bd 43be d3bd e654 ebbc
00000260: 1a07 0dbd defe 22bd 56ec 2abd 521e 99bc
00000270: fb4c a83c 6b6e edbc b9cd 963b 6908 e5bc
00000280: 9bfc a73d d2df fbbc 0a2f 813d c87b 65bd
00000290: 4ddd f33c e145 863d a6a1 963a 04c1 eebc
000002a0: 562b 683d 1396 ef3d bdc5 053e a94e 2bbd
000002b0: 573e 44be 6001 f6bc a7ee e7bb ea95 63bd
000002c0: 49d7 4d3d 32a3 923c 5771 21bd a59c bfbc
000002d0: 1754 9ebd 1abd e7bc 01e8 bebd 575b d1bb
000002e0: 4356 e63d 0cd3 923d 90bb 213d 4b98 28bb
000002f0: f046 11bd 6f33 f03c 305f aebd 3936 0e3d
00000300: 2c5e afbd 2185 b13d 11ae 333d 9870 b93b
00000310: aef2 153e 1b5f 733e fd76 2f3e b498 a93d
00000320: 601a e0bc 4cc5 d03d 872a 523e a099 a03c
00000330: 50af 88bd 2735 fa3d 5c94 fa3d 1f40 093d
00000340: 2b27 edbc 5a5e a0bd bb38 9d3c 1a48 463c
00000350: 2fed ff3c 97d9 27bd 3198 bd3d a4fb cfbc
00000360: 0d77 a8bc d63a 003d 8873 0bbd 2f3b f93d
00000370: f2a7 833d 82dc bc3d a2d1 a83d fc15 d53d
00000380: efbb 343c 89d6 1bbd 56a7 f43c 1bd9 143d
00000390: 80b4 553c d277 34be ce4d 96bd d830 cdbd
000003a0: ffba 91bd f2e1 6cbd b208 26bd fd3b 5b3c
000003b0: 6f4a ab3d f174 ecbc b72c f73d 692a d1bb
000003c0: b7c4 7d3c 9fe6 ba3c bdc0 033d 36f2 de3d
000003d0: 9f75 a93d fe19 803d ce23 f83d b380 b03c
000003e0: 90e6 10bd 18d4 963d d73e eb3d e376 743d
000003f0: 8843 ae3d b27b 863d f699 aa3d 310a 013e

image_to_features.6.bias f4 [128]
0.018539282 0.0378401 -0.0050363867 0.07022889 -0.12966214 0.06042344 0.11117128 -0.027922258
0.0597493 0.061678212 0.06138863 0.10366085 0.04436605 0.09217221 0.1145684 0.0041629933
0.09485739 0.061110146 0.10573857 0.041901816 0.07956689 0.025049118 0.058154378 -0.02712408
-0.09601341 -0.010623308 -0.046446875 0.061070926 0.11795909 0.087646805 -0.04425139 0.08891562
0.027046232 0.07410112 0.04131043 0.023318997 0.014661687 -0.070449926 -0.007395853 0.12372847
0.08603409 0.051819775 0.09846313 0.11078374 -0.052019347 0.15050486 0.102883115 0.10444866
0.11502486 -0.007387601 0.13315116 0.058143523 -0.04895447 0.043749962 0.043393902 0.06809164
0.080022186 0.111202866 -0.049165946 0.108701706 0.10745896 -0.0913834 -0.047773853 -0.04996974
0.062265877 0.040794402 -0.058078773 -0.07845644 0.04872748 0.01477254 -0.0036473256 0.04633572
0.022715375 0.04652093 0.05100807 -0.044442784 0.044727854 -0.0027457885 -0.011924018 -0.05862347
0.13812692 0.15051521 0.07652771 -0.06273135 0.16246554 -0.059534214 -0.060969375 0.09812285
0.017220378 -0.08794897 -0.04605844 0.08238512 -0.03908635 -0.039877284 0.08322921 0.05592444
-0.059604872 -0.088924326 0.15133196 -0.016607275 -0.06130844 0.10381589 0.033060472 -0.046991535
0.1276389 -0.013398298 0.14155594 0.12956855 -0.07695792 -0.19429003 0.14651085 0.11996562
0.035643198 0.18038945 0.043512315 0.14619803 -0.05998821 0.029525302 -0.008203269 -0.051951192
0.08190667 -0.09791211 -0.06825224 0.1526388 -0.05501363 0.11196201 -0.040826276 -0.08245111
00000000: b1df 973c 38fe 1a3d 4608 a5bb 2ad4 8f3d
00000010: 27c6 04be 927e 773d c5ad e33d 38bd e4bc
00000020: afbb 743d 4ba2 7c3d a572 7b3d 244c d43d
00000030: 2db9 353d c9c4 bc3d d6a2 ea3d b869 883b
00000040: 9744 c23d a24e 7a3d 778d d83d 3da1 2b3d
00000050: f7f3 a23d cf33 cd3c 4933 6e3d 5233 debc
00000060: aea2 c4bd 620d 2ebc 143f 3ebd 8225 7a3d
00000070: 8994 f13d 2b80 b33d f240 35bd 6519 b63d
00000080: 0f90 dd3c 54c2 973d 2035 293d 7b07 bf3c
00000090: 9337 703c 0d48 90bd e958 f2bb 5a65 fd3d
000000a0: a432 b03d f940 543d 0aa7 c93d 96e2 e23d
000000b0: 3d12 55bd f21d 1a3e 62b4 d23d 2ee9 d53d
000000c0: 2792 eb3d b013 f2bb c758 083e e727 6e3d
000000d0: 7b84 48bd 2933 333d cebd 313d a173 8b3d
000000e0: ace2 a33d 54be e33d 3b62 49bd 009f de3d
000000f0: 7113 dc3d 3827 bbbd 84ae 43bd 12ad 4cbd
00000100: 810a 7f3d 0818 273d 02e4 6dbd c5ad a0bd
00000110: 7796 473d 8608 723c f807 6fbb 86ca 3d3d
00000120: 9815 ba3c bb8c 3e3d d7ed 503d a309 36bd
00000130: 8e34 373d b0f2 33bb f55c 43bc 2a1f 70bd
00000140: 2571 0d3e a920 1a3e 8fba 9c3d 4b79 80bd
00000150: 5e5d 263e 26da 73bd 06bb 79bd a2f4 c83d
00000160: c011 8d3c 971e b4bd c6a7 3cbd 88b9 a83d
00000170: 0219 20bd 5d56 23bd 1374 aa3d 0711 653d
00000180: 3d24 74bd f51d b6bd c4f6 1a3e fb0b 88bc
00000190: 8f1e 7bbd 6d9d d43d 6b6a 073d 327a 40bd
000001a0: c6b3 023e 8984 5bbc 0af4 103e 9ead 043e
000001b0: 1d9c 9dbd f7f3 46be f106 163e 89b0 f53d
000001c0: 9afe 113d 03b8 383e f839 323d f0b4 153e
000001d0: 33b6 75bd 0cdf f13c 0167 06bc c6ca 54bd
000001e0: afbe a73d 2586 c8bd d5c7 8bbd 584d 1c3e
000001f0: f955 61bd 574c e53d 7439 27bd 21dc a8bd

features_to_prob.0.weight f4 [1, 512]
0.36756158 0.28982764 0.32828102 0.34105143 0.38067022 0.283749 0.14979765 -0.45502168
-0.20234488 0.3015103 -0.46417686 0.23910916 0.3808261 0.3368499 0.40758035 0.2640466
0.03467309 -0.29318702 -0.14321485 0.18058705 0.32896045 0.28294542 0.4446761 0.1627112
-0.316725 0.3178126 0.3170351 0.41026202 0.03732264 -0.21255943 -0.18481822 0.13065785
0.35743538 0.34129637 0.37579876 0.31786972 0.3502564 0.32065716 0.39473236 0.27961233
0.41375238 0.35282704 0.3806157 0.32187417 -0.28565067 0.35575077 0.21515514 0.35700408
-0.25392878 -0.16127631 -0.18031058 0.5031049 0.25724608 0.15249166 -0.30082187 -0.23339792
0.37647694 -0.19760942 0.3152541 -0.12588836 -0.20032011 0.34053573 -0.15514639 0.43786198
0.3345887 0.29448223 0.10866872 0.2667811 0.3580076 0.33773535 0.35491562 0.3321251
0.37542367 0.29752487 0.352286 0.357974 0.38775387 0.26842633 0.39296982 0.29383558
0.05535559 0.18174683 0.021217605 0.081330426 0.36512202 0.3313098 0.35512355 0.34697115
0.39263484 0.3129204 0.38084254 0.3422346 0.39052188 -0.34695053 -0.28134942 -0.1891872
-0.23849303 -0.20376602 -0.26395482 0.04223194 -0.1106577 0.1992914 -0.09149402 0.23336315
0.017879834 0.14526653 -0.06643998 -0.31067374 0.44287628 0.35178894 0.38641044 0.31487337
0.42937016 0.28350502 0.13813275 -0.33095118 0.43806508 0.30325916 0.34499478 0.37087944
-0.2025901 -0.0867677 -0.18374774 -0.16865589 0.3990216 0.27752128 0.34020165 0.30570504
0.33028623 0.334372 0.33294895 0.34677237 0.32422516 0.36420384 0.31028506 0.30977994
0.43046722 0.35221145 0.34057537 0.36830002 -0.19945997 -0.25720897 0.3593559 0.32204428
-0.19509122 0.26468915 -0.26679143 0.41656947 -0.2891279 -0.070788085 0.00565756 -0.1607832
0.2913279 -0.31333756 0.41341504 0.3298023 0.26191148 0.39693147 0.25626442 0.20791328
0.40835926 0.087099396 0.34276262 0.19944765 0.36776748 0.3017064 0.36918643 0.35687107
0.46379054 0.25339532 0.35769728 -0.1671168 0.34774163 0.35902697 0.3801147 0.44329935
-0.16317905 -0.17045876 -0.15099688 -0.12080968 0.16246492 -0.20106223 0.468323 -0.08858724
0.3715231 0.3336884 0.3149269 0.31222758 0.3947824 0.3176597 0.35811102 0.31127203
0.3884746 0.33463198 0.38166517 0.25661352 -0.35260707 0.21232498 -0.38000312 0.4187411
0.1925518 -0.2071535 0.4430426 -0.12599733 0.3492396 0.34666744 0.3492 0.29358086
0.34297198 0.33436736 -0.104686156 -0.11995171 -0.3537571 -0.36968207 0.38289857 0.30968782
0.4432365 0.30389267 0.26044616 0.37839225 0.32406285 0.3352213 0.32188103 0.32031935
0.39190033 0.28733206 0.34813634 0.28792974 -0.09054812 -0.211336 -0.114636704 0.3734913
0.4772675 0.3285079 0.20252326 -0.34619507 0.3685908 0.37684152 0.4041713 0.28791043
0.39406657 -0.2538332 0.4520812 -0.2014096 -0.20328425 -0.12582572 -0.11638766 -0.08709851
-0.22968648 -0.17913374 -0.17451635 0.13155869 0.015722137 0.2736207 -0.3222617 0.06536416
00000000: 0831 bc3e 4a64 943e 7314 a83e 4b9e ae3e
00000010: 35e7 c23e 8d47 913e 8e64 193e 9af8 e8be
00000020: 7f33 4fbe 8f5f 9a3e 97a8 edbe 08d9 743e
00000030: a3fb c23e 9777 ac3e 5fae d03e 1e31 873e
00000040: 5f05 0e3d 9c1c 96be eaa6 12be d0eb 383e
00000050: 816d a83e 39de 903e 96ac e33e c49d 263e
00000060: c729 a2be 55b8 a23e 6d52 a23e dd0d d23e
00000070: a0df 183d 2ea9 59be fd40 3dbe 2ccb 053e
00000080: c501 b73e 66be ae3e b268 c03e d2bf a23e
00000090: cf54 b33e 2d2d a43e 5c1a ca3e 5929 8f3e
000000a0: 5ad7 d33e bfa5 b43e 10e0 c23e b1cc a43e
000000b0: ce40 92be f724 b63e a151 5c3e 3dc9 b63e
000000c0: f402 82be 9e25 25be 56a3 38be 7ccb 003f
000000d0: c2b5 833e c626 1c3e 5305 9abe ddff 6ebe
000000e0: 96c1 c03e 205a 4abe fc68 a13e e1e8 00be
000000f0: b720 4dbe b35a ae3e b2de 1ebe 722f e03e
00000100: 364f ab3e 60c6 963e b58d de3d 8897 883e
00000110: c64c b73e a6eb ac3e 80b7 b53e 4d0c aa3e
00000120: 8837 c03e 2e55 983e d55e b43e 5e48 b73e
00000130: ad87 c63e 2d6f 893e 5733 c93e 9e71 963e
00000140: 8bbc 623d d71b 3a3e 8bd0 ad3c 9190 a63d
00000150: 46f1 ba3e 70a1 a93e c1d2 b53e 34a6 b13e
00000160: 6f07 c93e 1a37 a03e cbfd c23e 6039 af3e
00000170: 7cf2 c73e 80a3 b1be 080d 90be 4aba 41be
00000180: 8437 74be 0aa8 50be 1625 87be 66fb 2c3d
00000190: 81a0 e2bd 0b13 4c3e 3761 bbbd c0f6 6e3e
000001a0: bb78 923c c0c0 143e af11 88bd a110 9fbe
000001b0: aec0 e23e ae1d b43e 97d7 c53e 1537 a13e
000001c0: 68d6 db3e 9227 913e ac72 0d3e 6f72 a9be
000001d0: 114a e03e c944 9b3e 28a3 b03e e9e3 bd3e
000001e0: c773 4fbe 44b3 b1bd 5e28 3cbe 21b4 2cbe
000001f0: 8f4c cc3e 4517 8e3e e92e ae3e 5f85 9c3e
00000200: 471b a93e cf32 ab3e 4978 aa3e 268c b13e
00000210: d700 a63e ed78 ba3e afdd 9e3e 7a9b 9e3e
00000220: 3366 dc3e 0f55 b43e e55f ae3e d291 bc3e
00000230: 3c3f 4cbe e5b0 83be 7ffd b73e fde2 a43e
00000240: fec5 47be 5685 873e e398 88be 9848 d53e
00000250: 9208 94be 58f9 90bd 0e63 b93b 5aa4 24be
00000260: ee28 953e c86d a0be 23ab d33e d9db a83e
00000270: 4319 863e 9a3a cb3e 1735 833e 38e7 543e
00000280: 7714 d13e 2b61 b23d 957e af3e 013c 4c3e
00000290: 054c bc3e 4379 9a3e 0106 bd3e ceb7 b63e
000002a0: f475 ed3e 08bd 813e 1924 b73e ab20 2bbe
000002b0: 310b b23e 62d2 b73e 659e c23e 22f8 e23e
000002c0: 6918 27be be8c 2ebe ed9e 1abe 116b f7bd
000002d0: 345d 263e 42e3 4dbe 08c8 ef3e 3a6d b5bd
000002e0: 4738 be3e 35d9 aa3e 193e a13e 4bdc 9f3e
000002f0: eb20 ca3e 4ba4 a23e 545a b73e 0c5f 9f3e
00000300: 25e6 c63e e254 ab3e 9e69 c33e d962 833e
00000310: ea88 b4be b86b 593e c58f c2be 3c65 d63e
00000320: 4d2c 453e 0c20 54be 7bd6 e23e 7205 01be
00000330: 88cf b23e 657e b13e 58ca b23e 3b50 963e
00000340: 069a af3e 3332 ab3e b265 d6bd 3ea9 f5bd
00000350: a71f b5be f846 bdbe 480b c43e 678f 9e3e
00000360: e5ef e23e d297 9b3e 3359 853e a1bc c13e
00000370: 91eb a53e 20a2 ab3e 97cd a43e e600 a43e
00000380: 29a7 c83e 301d 933e ed3e b23e 876b 933e
00000390: 4b71 b9bd 7768 58be a6c6 eabd 403a bf3e
000003a0: 685c f43e 3032 a83e 4262 4f3e 7b40 b1be
000003b0: efb7 bc3e 5ff1 c03e 8aef ce3e ff68 933e
000003c0: 18c3 c93e 6df6 81be 3077 e73e 513e 4ebe
000003d0: bf29 50be 75d8 00be a75c eebd b460 b2bd
000003e0: ef32 6bbe d66e 37be 6ab4 32be 52b7 063e
000003f0: b6cb 803c 0318 8c3e 7cff a4be a5dd 853d
