trained_models/DCGANgenerator_epoch100.pth (torch, 909531 bytes, 22 tensors)

latent_to_features.0.weight f4 [512, 100]
-0.00013513427 0.010561829 -0.013146943 -0.007607226 -0.010950211 0.0025524518 -0.011506715 0.01779635
0.00995793 0.017559238 -0.0077642 0.0043381243 0.008369356 -0.0019866575 0.010258114 -0.0049315463
-0.012928763 0.0054210895 -0.006097749 -0.010691814 0.00441007 -0.008960565 -0.000110062065 -0.0020254047
0.009752671 0.01657325 -0.008075076 -0.007491899 -0.007186848 0.0030239942 -0.0078774365 -0.00014889942
0.010569088 0.014989778 -0.0014206759 -0.002376708 0.002919417 0.005768434 -0.01092288 -0.0016888605
-0.013310359 0.00021385647 0.0016886744 0.002772039 0.0019357724 0.00014402671 0.0069106254 0.0088290945
-0.0073129465 0.0006432868 -0.003646274 -0.0031784757 -0.0016483418 0.008331881 -0.0021217547 0.0067575336
-0.0014719694 -0.009526636 -0.00023775054 -0.008872785 -0.0077258386 -0.010885934 0.0013256167 -0.0019342748
0.0010571888 0.0016999894 0.011043144 0.010363126 0.004825901 -0.00077819376 0.0016022064 -0.010250562
-0.0019312373 0.007807804 -0.0056630797 -0.0024090197 -0.0054597864 0.005486125 -0.0064595984 0.003266708
-0.0044563725 0.00032842148 -0.0136707835 0.0024671396 -0.0037326308 -0.002471721 -0.015899621 0.0080817435
0.0027571255 0.009326789 -0.01919133 0.0044565396 0.0048140674 0.011982512 0.003929917 0.0032291112
0.012432882 -0.007304388 -0.0037640613 0.0030289555 0.0056812703 -0.002932107 0.0044321055 -0.0008788946
0.00532161 -0.0016441426 -0.007931375 -0.00020018217 0.008348507 0.0089527685 0.0017427476 -0.0040469104
-9.6884105e-05 -0.000977453 -0.0036321166 0.0022132117 0.0003961798 -0.001346273 0.0026839806 0.007874043
-0.0029846837 0.0015674612 0.0040404433 0.0013715872 -0.005296876 0.0037771699 -0.0041238787 0.0009323577
0.0042707496 -0.0036684228 -0.0032433767 0.008649283 0.0048148786 -0.009340805 -0.008181472 -0.008282849
-0.0046656877 -0.0033252055 0.0046290383 -0.00037106665 -0.011926963 0.0012453495 0.0016803528 0.0012686837
0.0008982169 0.004157519 2.3337778e-05 0.0067736735 0.0021466524 -0.00186451 -0.00563615 0.007777868
0.0046309847 0.0036822036 -0.007872657 -0.0022447887 0.0045490875 -0.011477842 0.00092715054 0.0083158035
-0.0011582179 0.0016496872 -0.0030280622 -0.002950138 -0.005600891 -0.0065393597 0.0011239245 -0.0021752918
-0.0021425376 0.004977527 0.0044109584 -0.012247893 -0.00060582935 -0.009371915 0.0029537391 -0.002830483
0.007268443 -0.0031259616 -0.0021567207 0.00093107455 -0.0030355218 0.0045664497 0.0077763647 -0.004941276
0.0017032452 -0.009209451 -0.010305673 0.0014066809 0.008639016 -0.004435528 0.0021990696 -0.0007755052
-0.0061166077 -0.0058439174 0.0023039952 0.0011861337 0.0020324988 0.0040542027 -0.00640734 -0.006779176
-0.001021251 0.0047435355 0.0037204423 0.004674863 0.0050289375 0.010830532 -0.0042567905 -0.00092879264
0.0036543023 0.0030686085 0.0027796165 0.0007799269 0.002385907 0.00055682176 0.00041636825 0.00034114724
0.0030427265 0.003532261 0.0010364803 -0.0068575074 -0.0019755522 -0.0009945651 0.0015874577 -0.008257375
0.0006279459 0.0006669872 0.0077134958 0.0021352575 0.0020964975 -0.0014656284 0.00056580466 0.0050447504
-0.004840105 -0.005007356 0.0021278374 -0.0068341033 0.00322895 -0.008291376 0.007950802 -0.0028873729
-0.0024655182 -0.0018315988 1.711755e-05 0.0011905057 -0.0018572289 -0.0026525431 0.000567363 0.003679129
-0.004112956 0.0011918745 -0.0019771757 0.004979146 -0.013917803 0.00032852718 -0.0019461315 0.0029785065
00000000: d4b2 0db9 860b 2d3c 4766 57bc 0946 f9bb
00000010: 8468 33bc 0947 273b a986 3cbc a7c9 913c
00000020: 9626 233c 64d8 8f3c d56a febb d326 8e3b
00000030: a01f 093c 9532 02bb a611 283c cf98 a1bb
00000040: 2ad3 53bc 65a3 b13b a0cf c7bb b82c 2fbc
00000050: 5982 903b 55cf 12bc 1fd1 e6b8 a7bc 04bb
00000060: abc9 1f3c a0c4 873c 534d 04bc 9b7e f5bb
00000070: a77f ebbb 342e 463b 5d10 01bc e221 1cb9
00000080: f829 2d3c b097 753c f935 baba 8bc2 1bbb
00000090: b153 3f3b 2205 bd3b e1f5 32bc c15c ddba
000000a0: b113 5abc a93e 6039 8356 dd3a 19ab 353b
000000b0: beb9 fd3a e005 1739 8772 e23b e8a7 103c
000000c0: 71a1 efbb 3fa2 283a 54f6 6ebb f94d 50bb
000000d0: 2c0d d8ba 7182 083c 230d 0bbb 4d6e dd3b
000000e0: 19ef c0ba 9c15 1cbc ad4c 79b9 285f 11bc
000000f0: 0829 fdbb eb5a 32bc 51c0 ad3a 7e87 fdba
00000100: 5f91 8a3a 2ed2 de3a 4eee 343c 1aca 293c
00000110: 9722 9e3b b3ff 4bba 2001 d23a f9f1 27bc
00000120: 9221 fdba 9bd8 ff3b 5b91 b9bb a5e0 1dbb
00000130: 02e8 b2bb f4c4 b33b 0aab d3bb 4416 563b
00000140: c306 92bb fc2f ac39 6cfb 5fbc bcaf 213b
00000150: 279f 74bb 99fc 21bb ec3f 82bc 4a69 043c
00000160: e4b0 343b 63cf 183c 2337 9dbc 2a08 923b
00000170: 53bf 9d3b 4c52 443c 88c6 803b 7f9f 533b
00000180: 49b3 4b3c a659 efbb 78ae 76bb 7181 463b
00000190: f329 ba3b 9828 40bb 323b 913b 9e65 66ba
000001a0: e660 ae3b 4580 d7ba 99f2 01bc fee7 51b9
000001b0: 2dc8 083c a2ae 123c e86c e43a f29b 84bb
000001c0: 422e cbb8 e11d 80ba ce08 6ebb 880b 113b
000001d0: 5ab6 cf39 6d75 b0ba b9e5 2f3b 2102 013c
000001e0: af9a 43bb 4573 cd3a b265 843b d4c6 b33a
000001f0: 6b91 adbb 658a 773b 9a21 87bb 7769 743a
00000200: a5f1 8b3b ec69 70bb d58e 54bb b9b5 0d3c
00000210: 21c6 9d3b 2d0a 19bc 950b 06bc c9b4 07bc
00000220: a0e2 98bb b1eb 59bb 30af 973b b98b c2b9
00000230: 4f69 43bc ff3a a33a 493f dc3a f649 a63a
00000240: 5176 6b3a cc3b 883b 7fc5 c337 b1f5 dd3b
00000250: daae 0c3b 9362 f4ba 74af b8bb 7cdd fe3b
00000260: 84bf 973b 2051 713b 51fc 00bc 4e1d 13bb
00000270: 8310 953b 8f0d 3cbc 050c 733a 023f 083c
00000280: 58cf 97ba 513a d83a 7472 46bb 1a57 41bb
00000290: ae87 b7bb 2048 d6bb a650 933a 578f 0ebb
000002a0: d169 0cbb 861a a33b cd89 903b 63ab 48bc
000002b0: 85d0 1eba a98c 19bc 8593 413b a07f 39bb
000002c0: 1e2c ee3b efdc 4cbb c557 0dbb 5b13 743a
000002d0: 9bef 46bb 28a2 953b e0d0 fe3b 6dea a1bb
000002e0: 6d3f df3a 3de3 16bc 20d9 28bc 6160 b83a
000002f0: a98a 0d3c e857 91bb 441e 103b 464b 4bba
00000300: d36d c8bb 557e bfbb a0fe 163b 0b78 9b3a
00000310: ac33 053b 1ed9 843b aaf4 d1bb da23 debb
00000320: 7fdb 85ba a96f 9b3b aad2 733b 982f 993b
00000330: c9c9 a43b 8b72 313c 8c7c 8bbb 387a 73ba
00000340: 057d 6f3b b51a 493b 3a2a 363b 0274 4c3a
00000350: e15c 1c3b adf7 113a 004c da39 02dc b239
00000360: 7b68 473b 817d 673b 82da 873a f1b4 e0bb
00000370: 4478 01bb 115c 82ba 3e12 d03a f149 07bc
00000380: bc9c 243a c1d8 2e3a 7ec1 fc3b adef 0b3b
00000390: 6465 093b 541a c0ba 8252 143a 6f4e a53b
000003a0: be99 9ebb bf14 a4bb 3073 0b3b 9df0 dfbb
000003b0: cb9c 533b 8dd8 07bc 1544 023c 143a 3dbb
000003c0: 8894 21bb 4212 f0ba a997 8f37 be0a 9c3a
000003d0: 436e f3ba 4ad6 2dbb 16bb 143a 8b1d 713b
000003e0: fac5 86bb ac38 9c3a 8193 01bb 1b28 a33b
000003f0: 7f07 64bc 2c3e ac39 5615 ffba 0c33 433b

latent_to_features.0.bias f4 [512]
-0.37010026 -0.25653368 0.21979536 0.1534988 -0.2767724 -0.28851128 0.25598148 0.2061707
-0.45586777 0.34922788 0.056546878 -0.26922402 0.28554752 -0.31696168 0.18874724 0.09417807
-0.35017323 0.40733242 0.089510344 -0.27469075 -0.33564392 0.43473864 0.18851669 -0.23734364
-0.284765 0.3201814 0.15188394 -0.37432644 -0.4122543 0.44931355 -0.2347339 -0.26415643
-0.22450456 0.4024487 0.13471282 0.06725682 0.13152198 -0.37460905 0.28274527 0.18964846
0.17207085 -0.4180079 0.24557807 -0.20676468 0.38529402 -0.32146794 -0.23574373 0.18852119
-0.37845826 0.32712585 0.088324435 -0.058205746 0.36216992 -0.2990748 -0.23448662 0.18997449
-0.33395517 -0.37646013 0.295602 0.10765723 -0.31198743 -0.35563278 -0.27030206 0.32569906
-0.2769098 -0.34058747 0.3224619 0.13872163 -0.47608975 -0.29949692 0.2405312 0.17060725
-0.23588715 0.33812195 0.14130825 -0.23988825 0.21378103 -0.18594605 0.2817294 0.16309875
-0.33658487 -0.33480227 0.24985097 0.12950906 -0.25709006 -0.3470157 0.2834594 -0.1800135
-0.2796978 0.2894955 0.18385981 0.12272545 0.21352461 -0.27804524 0.1881432 0.14113112
-0.31936833 0.33521187 0.19239497 -0.09271954 -0.29955947 0.37188634 0.18382898 -0.28495902
-0.32645008 0.39313138 0.0872569 -0.31656578 0.34659106 -0.29336497 -0.18786527 0.10971539
-0.2352368 -0.21552198 0.3242698 0.13810685 0.28362408 -0.30357626 -0.21625307 -0.13831134
0.22246405 -0.33499882 0.2293679 0.14202447 -0.3262391 0.38788342 0.16637228 -0.2824922
-0.22901653 0.32646155 0.23610316 0.14534262 0.416414 -0.35231134 -0.19609822 0.18391803
-0.27148098 -0.36855987 -0.14316025 0.21802339 0.35636985 -0.25693956 -0.25968534 0.23794247
0.29694146 -0.27554026 0.1366947 -0.29029575 -0.3762501 -0.25937077 0.23705144 -0.28365448
-0.28323528 0.2675794 -0.30412915 0.18376438 -0.351864 -0.38513073 0.23244433 -0.318087
-0.35218555 0.31190878 0.15116063 0.269983 -0.28619298 0.41142055 0.18766327 -0.20771217
-0.3156902 0.41418862 0.109907866 -0.348978 -0.31697246 0.43201703 0.13194129 -0.28861758
-0.2618386 0.39875248 0.14550449 -0.2467006 -0.37728003 -0.33114216 0.2287184 0.008201865
-0.29670003 0.42479268 0.12288869 -0.3481674 -0.4055825 0.45379904 -0.22983103 -0.33530834
-0.35878444 0.42217934 0.12812728 -0.02512787 -0.44041523 0.3608066 0.17879112 -0.38161787
-0.32079124 0.3273862 0.17095162 0.08244607 0.15680012 0.2843947 0.22304721 -0.3805733
-0.3522214 -0.3279559 0.27290645 -0.21261069 -0.36997 0.35446393 0.14008968 -0.23286003
-0.35338187 0.35337934 0.19735731 -0.31513214 -0.32145932 0.42011064 0.08047282 -0.33134827
-0.3693098 -0.2796187 -0.2859425 0.26153773 -0.40788135 0.4755387 0.12755038 -0.29804966
-0.23367676 -0.26481256 0.27360636 -0.21511889 -0.36397445 -0.34426108 0.20890309 0.22768328
0.10035713 0.36643472 0.22527269 -0.22128402 0.22124791 -0.25727785 0.29322356 0.10480648
-0.37779954 0.24563716 0.17455775 0.24495204 -0.2736435 -0.3349537 0.29964033 -0.14817344
00000000: c87d bdbe 6258 83be 0912 613e ca2e 1d3e
00000010: 1db5 8dbe c0b7 93be 0110 833e 691e 533e
00000020: 8067 e9be ffcd b23e b39d 673d bbd7 89be
00000030: 4933 923e cd48 a2be f546 413e 6fe0 c03d
00000040: e849 b3be e08d d03e 3351 b73d 44a4 8cbe
00000050: 85d9 abbe 1096 de3e 850a 413e 360a 73be
00000060: b8cc 91be d1ee a33e 7787 1b3e b7a7 bfbe
00000070: ff12 d3be 6d0c e63e 155e 70be 833f 87be
00000080: 86e4 65be c20d ce3e 28f2 093e f2bd 893d
00000090: b3ad 063e c2cc bfbe fdc3 903e 3533 423e
000000a0: 5733 303e 2205 d6be d178 7b3e 1fba 53be
000000b0: 4245 c53e 7297 a4be ce66 71be b30b 413e
000000c0: 48c5 c1be 0a7d a73e 71e3 b43d 2669 6ebd
000000d0: 566e b93e 5520 99be 431d 70be ac88 423e
000000e0: 2cfc aabe 62bf c0be 2559 973e 657b dc3d
000000f0: d1bc 9fbe 8015 b6be 0865 8abe 07c2 a63e
00000100: 1fc7 8dbe 7b61 aebe ba19 a53e 0b0d 0e3e
00000110: 09c2 f3be a957 99be d04d 763e abb3 2e3e
00000120: 678c 71be 521e ad3e 1cb3 103e 44a5 75be
00000130: 6ae9 5a3e a468 3ebe d63e 903e 5c03 273e
00000140: da54 acbe 346b abbe efd8 7f3e 069e 043e
00000150: 4fa1 83be 0bac b1be 9721 913e 7555 38be
00000160: 8d34 8fbe c138 943e bf45 3c3e 7b57 fb3d
00000170: 32a6 5a3e f25b 8ebe 9ca8 403e ad84 103e
00000180: 3f84 a3be e4a0 ab3e 3003 453e bee3 bdbd
00000190: dc5f 99be e367 be3e aa3d 3c3e 26e6 91be
000001a0: 7724 a7be 8448 c93e bfb3 b23d e914 a2be
000001b0: 6274 b13e ef33 96be c15f 40be 76b2 e03d
000001c0: eae1 70be cbb1 5cbe b106 a63e e26b 0d3e
000001d0: 2d37 913e 596e 9bbe 7271 5dbe 7da1 0dbe
000001e0: 9ecd 633e f784 abbe 6bdf 6a3e dd6e 113e
000001f0: d008 a7be a898 c63e 7f5d 2a3e d1a2 90be
00000200: 4f83 6abe f825 a73e 07c5 713e b2d4 143e
00000210: 3734 d53e 2762 b4be f9cd 48be 0255 3c3e
00000220: 8eff 8abe e1b3 bcbe 9a98 12be 8641 5f3e
00000230: 1c76 b63e 958d 83be 7af5 84be 31a7 733e
00000240: b608 983e 9d13 8dbe b2f9 0b3e a5a1 94be
00000250: daa3 c0be 3fcc 84be 9dbd 723e 293b 91be
00000260: 3704 91be 2b00 893e d1b6 9bbe bb2c 3c3e
00000270: 8527 b4be db2f c5be e305 6e3e 4ddc a2be
00000280: aa51 b4be 82b2 9f3e dac9 1a3e 363b 8a3e
00000290: e387 92be b7a5 d23e cd2a 403e 80b2 54be
000002a0: 25a2 a1be 8810 d43e 6017 e13d 3fad b2be
000002b0: 374a a2be 5631 dd3e 9e1b 073e afc5 93be
000002c0: b50f 86be 4929 cc3e 21ff 143e 159f 7cbe
000002d0: d92a c1be 778b a9be 2835 6a3e 1d61 063c
000002e0: 11e9 97be 6d7e d93e 11ad fb3d ff42 b2be
000002f0: 82a8 cfbe 5958 e83e d358 6bbe 89ad abbe
00000300: 98b2 b7be e427 d83e cc33 033e f6d8 cdbc
00000310: 1b7e e1be a5bb b83e 0515 373e 6b63 c3be
00000320: c03e a4be 2a9f a73e f10d 2f3e 7cd9 a83d
00000330: 3690 203e 2f9c 913e 7d66 643e 81da c2be
00000340: 5d56 b4be d6e9 a7be 65ba 8b3e 9eb6 59be
00000350: b56c bdbe 4c7c b53e ab73 0f3e dc72 6ebe
00000360: 78ee b4be 23ee b43e 0918 4a3e 0059 a1be
00000370: 5196 a4be be18 d73e efce a43d 7ba6 a9be
00000380: 2d16 bdbe 2f2a 8fbe 0e67 92be 46e8 853e
00000390: d3d5 d0be cf79 f33e 919c 023e f799 98be
000003a0: f648 6fbe 8395 87be 2216 8c3e 2048 5cbe
000003b0: dc5a babe fd42 b0be b1ea 553e ce25 693e
000003c0: 0a88 cd3d 559d bb3e e2ad 663e 4798 62be
000003d0: d08e 623e ecb9 83be 6621 963e c8a4 d63d
000003e0: f16e c1be 4f88 7b3e 44bf 323e b5d4 7a3e
000003f0: 001b 8cbe 0d7f abbe 756a 993e c7ba 17be

features_to_image.0.weight f4 [128, 64, 4, 4]
-0.0890698 0.13176021 -0.0074099833 -0.039615132 -0.054641113 0.020945901 -0.024157742 -0.1571993
-0.0499424 0.16955853 -0.05672285 -0.026742171 0.03396283 -0.12134826 0.096920475 -0.08899708
-0.017934462 0.015829189 0.0026235713 -0.104350396 0.023875888 0.052935436 -0.09366782 -0.00947861
-0.012962124 0.08036399 -0.07096797 0.1615972 0.06347498 -0.014684555 0.03708879 -0.0038930145
-0.12087179 -0.072332844 0.016607659 -0.0031384956 -0.099489465 0.03914643 -0.023162903 -0.050522983
-0.059002727 -0.018316403 -0.08147211 -0.0043127486 -0.058486167 -0.059275586 0.061238214 -0.036810864
-0.0026830626 0.0414679 -0.1280357 -0.039635945 -0.07494216 -0.032239355 -0.045612354 -0.03599024
-0.041228343 -0.048904877 -0.05284668 -0.0039062877 -0.09862284 -0.008989836 -0.05672063 0.013376599
-0.17728245 -0.01419349 0.0173222 -0.05953654 -0.031181965 0.13159412 -0.051657133 -0.06314845
-0.06264171 -0.026824368 0.101115644 -0.0003281576 -0.06081838 0.054584734 -0.043212 0.046791624
-0.06185977 -0.036037344 -0.04419894 0.011066275 -0.011418422 -0.0026730804 -0.0026848675 -0.043356836
-0.0329579 -0.06314188 -0.03922204 -0.04834106 -0.007354004 -0.01305137 0.006029266 -0.016602013
-0.013960268 -0.10527902 -0.01950702 -0.039692216 -0.044572853 0.005058262 0.07143781 -0.023382328
0.02117163 -0.022779157 -0.08801183 -0.03741212 0.023232637 0.0030938268 0.03441769 -0.027216114
-0.0835075 0.04052084 -0.15508023 -0.16062307 -0.04844181 -0.04053696 -0.06158555 0.014704296
0.118054755 0.116448544 0.29081723 -0.05704747 -0.021406138 0.055545606 -0.00039217045 0.030726781
-0.008491793 -0.0067778393 -0.038246814 -0.017917883 -0.06733746 0.019848522 -0.018995833 0.001528632
0.050834365 -0.0068350947 -0.083841965 -0.025745047 -0.023235453 -0.0144638615 -0.014986015 0.0030005455
-0.011223019 0.055443477 -0.0924514 -0.0002308074 -0.103613496 -0.057404313 0.002432003 -0.028139772
-0.0068104574 -0.06643836 -0.039977763 -0.0062199635 -0.055464223 0.009028981 -0.079898596 0.0076436894
-0.003908806 -0.026270239 -0.025526982 -0.026444767 -0.04579343 -0.0041826465 0.07404086 -0.06662073
-0.057074912 -0.052276097 -0.0080696475 -0.06736003 -0.018213239 -0.07546573 0.04998517 -0.008097195
0.10690152 -0.024065359 0.076026976 -0.00856532 0.05879408 0.020698443 0.026211891 -0.055253014
-0.022724694 -0.0056278314 -0.025706522 -0.038841505 0.03456183 -0.11889317 -0.01629339 0.026020067
0.04144596 0.068474956 0.05619421 -0.08634744 0.03196286 -0.036913723 0.021189822 0.035846647
-0.0356172 -0.011982991 0.04827618 -0.021358058 0.10934214 -0.050382663 0.10324581 0.014473463
-0.06706154 0.023435222 -0.19091824 -0.12860988 0.012132758 0.04865896 -0.04711516 0.037263736
0.030744068 0.18818952 0.11700502 -0.07801772 0.08215319 -0.12116283 -0.057218645 -0.097726434
-0.05224191 0.12764975 0.09108719 -0.10978254 -0.022170719 0.02008013 0.030714123 -0.009091649
0.19920118 -0.0419017 0.22891802 -0.0339835 -0.005647846 -0.06488935 -0.10195658 -0.059210297
0.02037783 -0.08687947 0.0926975 -0.050913207 0.004598031 -0.07613634 -0.03298448 0.0040137176
0.121278666 -0.077956565 0.13691755 -0.056804262 -0.011507337 0.055477977 -0.0068727094 -0.066345446
00000000: 3a6a b6bd 26ec 063e 72cf f2bb 7a43 22bd
00000010: 5ccf 5fbd bd96 ab3c 75e6 c5bc daf8 20be
00000020: 6790 4cbd c0a0 2d3e 3856 68bd 6612 dbbc
00000030: 9c1c 0b3d 7085 f8bd 3e7e c63d 1a44 b6bd
00000040: 4beb 92bc 37ac 813c 39f0 2b3b a9b5 d5bd
00000050: 5e97 c33c d4d2 583d ead4 bfbd 2c4c 1bbc
00000060: 175f 54bc e095 a43d a857 91bd bd79 253e
00000070: 2cff 813d 7d97 70bc 6aea 173d f221 7fbb
00000080: a18b f7bd 3e23 94bd c90c 883c 38af 4dbb
00000090: 22c1 cbbd 0258 203d 21c0 bdbc 30f1 4ebd
000000a0: d8ac 71bd 480c 96bc d9da a6bd f551 8dbb
000000b0: 318f 6fbd f5ca 72bd ecd4 7a3d fdc6 16bd
000000c0: 52d6 2fbb 3fda 293d ca1b 03be 4d59 22bd
000000d0: 467b 99bd 6a0d 04bd 05d4 3abd 806a 13bd
000000e0: 0ddf 28bd 7b50 48bd c375 58bd 5100 80bb
000000f0: c6fa c9bd 1b4a 13bc e453 68bd 8629 5b3c
00000100: 8889 35be d08b 68bc 49e7 8d3c 96dc 73bd
00000110: 5271 ffbc 9cc0 063e 6e96 53bd f953 81bd
00000120: 4c4a 80bd c7be dbbc b815 cf3d 910c acb9
00000130: b21c 79bd 3e94 5f3d 11ff 30bd 93a8 3f3d
00000140: ac60 7dbd e59b 13bd f309 35bd 524f 353c
00000150: 5514 3bbc d92e 2fbb 9af4 2fbb f096 31bd
00000160: ddfe 06bd 8850 81bd 4aa7 20bd 4601 46bd
00000170: dbf9 f0bb 6ad5 55bc 2691 c53b f200 88bc
00000180: 9cb9 64bc 879c d7bd 30cd 9fbc 4e94 22bd
00000190: 0692 36bd c7bf a53b fd4d 923d 4c8c bfbc
000001a0: 2070 ad3c 5b9b babc 8c3f b4bd 733d 19bd
000001b0: 5f52 be3c cdc1 4a3b 90f9 0c3d 54f4 debc
000001c0: fb05 abbd 2ef9 253d 5acd 1ebe 607a 24be
000001d0: eb6a 46bd 150a 26bd 2141 7cbd 4aea 703c
000001e0: b1c6 f13d 937c ee3d ffe5 943e 9caa 69bd
000001f0: ed5b afbc ca83 633d 3a9c cdb9 bbb6 fb3c
00000200: 2921 0bbc a318 debb b1a8 1cbd 86c8 92bc
00000210: 39e8 89bd 5e99 a23c 269d 9bbc 615c c83a
00000220: b237 503d eef8 dfbb 56b5 abbd 47e7 d2bc
00000230: 4758 bebc d5f9 6cbc e787 75bc cda4 443b
00000240: c1e0 37bc b318 633d 2957 bdbd e404 72b9
00000250: 5033 d4bd c920 6bbd 3d62 1f3b 6185 e6bc
00000260: 422a dfbb d610 88bd b9bf 23bd d6d0 cbbb
00000270: 742e 63bd 4bee 133c e0a1 a3bd ea77 fa3b
00000280: 7115 80bb af34 d7bc f61d d1bc b2a2 d8bc
00000290: e491 3bbd 950e 89bb bca2 973d 7370 88bd
000002a0: 62c7 69bd 761f 56bd 8e36 04bc 0ef4 89bd
000002b0: ee33 95bc c78d 9abd 40bd 4c3d 19aa 04bc
000002c0: 2fef da3d b724 c5bc 08b4 9b3d 8e55 0cbc
000002d0: 10d2 703d c88f a93c 52ba d63c fc50 62bd
000002e0: 2329 babc ac69 b8bb 7c96 d2bc 4518 1fbd
000002f0: b590 0d3d 437e f3bd b779 85bc 0928 d53c
00000300: 3dc3 293d 993c 8c3d e62b 663d edd6 b0bd
00000310: 7deb 023d d832 17bd 4796 ad3c efd3 123d
00000320: 57e3 11bd 4f54 44bc 3ebd 453d 18f7 aebc
00000330: c6ee df3d 0d5e 4ebd 8a72 d33d 1b22 6d3c
00000340: 9057 89bd 39fb bf3c 1280 43be 4fb2 03be
00000350: 7ac8 463c 9e4e 473d d3fb 40bd dca1 183d
00000360: fcda fb3c c1b4 403e 54a0 ef3d c1c7 9fbd
00000370: ef3f a83d 3824 f8bd 195e 6abd cc24 c8bd
00000380: 9dfb 55bd 9eb6 023e ec8b ba3d abd5 e0bd
00000390: 5e9f b5bc 167f a43c 2f9c fb3c 24f5 14bc
000003a0: 65fb 4b3e 1ea1 2bbd 7c69 6a3e 4832 0bbd
000003b0: 9111 b9bb b5e4 84bd 9dce d0bd 7f86 72bd
000003c0: 68ef a63c dded b1bd 30d8 bd3d 5e8a 50bd
000003d0: 14ab 963b 5fed 9bbd bc1a 07bd 8185 833b
000003e0: f360 f83d b1a7 9fbd 1d34 0c3e 96ab 68bd
000003f0: 4589 3cbc e03c 633d 7734 e1bb 1fe0 87bd

features_to_image.0.bias f4 [64]
0.332164 0.13040294 -0.10907206 0.20273063 0.30996874 0.24017432 0.07982092 0.1930497
0.100503266 0.100354046 0.09912235 0.20141962 0.026616625 0.21166475 0.1973476 0.22891934
-0.057102695 -0.049638707 -0.09015469 -0.10440303 0.065679945 -0.06986561 0.16238518 0.08324308
-0.1243521 -0.0510028 0.041377306 0.012067495 0.13474122 0.3202989 0.18713567 -0.13594829
0.08722934 0.2580223 0.041194122 0.028479513 -0.085371085 0.051838927 0.089586996 -0.031483892
0.07459271 0.05967633 -0.107311435 0.13702033 0.060288835 0.10888531 0.17421299 0.09782597
0.060194165 0.2941052 0.10463646 0.19149475 0.071891025 -0.10921128 -0.008667874 0.06553682
0.24514128 0.2238688 0.14365034 0.25045064 0.059927456 0.16450484 0.25430045 0.16068524
00000000: 6611 aa3e 5988 053e 2c61 dfbd 9e98 4f3e
00000010: 39b4 9e3e 42f0 753e 2779 a33d d2ae 453e
00000020: a8d4 cd3d 6c86 cd3d a900 cb3d f240 4e3e
00000030: 1c0b da3c a5be 583e 7d15 4a3e d569 6a3e
00000040: 84e4 69bd f551 4bbd 06a3 b8bd 41d1 d5bd
00000050: 3583 863d b315 8fbd 4d48 263e 597b aa3d
00000060: 50ac febd 50e8 50bd 407b 293d beb6 453c
00000070: 9af9 093e 38fe a33e 7ea0 3f3e 0736 0bbe
00000080: 4ca5 b23d 801b 843e 2bbb 283d de4d e93c
00000090: 09d7 aebd 0e55 543d 6379 b73d 41f5 00bd
000000a0: 10c4 983d 2b6f 743d 19c6 dbbd 0f4f 0c3e
000000b0: 6df1 763d 43ff de3d e464 323e fb58 c83d
000000c0: 288e 763d f594 963e a44b d63d 3317 443e
000000d0: 9a3b 933d 2aaa dfbd b303 0ebc 2b38 863d
000000e0: 5106 7b3e dd3d 653e 1319 133e 113b 803e
000000f0: 7e76 753d f573 283e ab33 823e ac8a 243e

features_to_image.2.weight f4 [64]
0.9305776 0.842768 0.95488495 1.1343192 0.96017444 1.209506 0.83953977 1.0504518
0.72532964 1.0029911 0.9384458 0.8270544 0.8712317 1.1306653 1.0118767 1.0376627
0.9231304 0.93928635 0.7465755 0.8703289 0.95011705 0.9095749 1.0706904 0.9615666
0.8181769 0.71995914 0.95625526 1.0239543 0.84432083 1.0368317 1.1186515 1.0235926
1.0106443 0.8655139 0.9786142 0.9748517 0.8535817 1.0999548 1.0962734 0.7991847
0.9470831 0.75566417 0.72566813 1.0062554 1.0880294 1.0534501 1.1262747 1.019825
0.85095894 0.81221 1.1730696 0.92098975 1.0511634 0.9818691 0.79711676 1.0562661
0.8375625 1.0152901 0.7505086 1.0781525 0.9375067 0.9158731 1.0671924 1.0069418
00000000: 553a 6e3f a5bf 573f 5773 743f 5f31 913f
00000010: fecd 753f 18d1 9a3f 14ec 563f 3475 863f
00000020: 34af 393f 0362 803f fc3d 703f d6b9 533f
00000030: 0a09 5f3f a4b9 903f 2d85 813f 22d2 843f
00000040: 4652 6c3f 1275 703f 921f 3f3f e0cd 5e3f
00000050: df3a 733f e7d9 683f 620c 893f 3b29 763f
00000060: 0b74 513f 3e4f 383f 25cd 743f ef10 833f
00000070: 6925 583f e7b6 843f f92f 8f3f 1505 833f
00000080: cb5c 813f 5292 5d3f 7686 7a3f e28f 793f
00000090: 5584 5a3f 52cb 8c3f b052 8c3f 5e97 4c3f
000000a0: 0a74 723f 3573 413f 63c5 393f facc 803f
000000b0: 8c44 8b3f 74d7 863f c529 903f a089 823f
000000c0: 72d8 593f ffec 4f3f 2527 963f fcc5 6b3f
000000d0: 868c 863f c65b 7b3f d80f 4c3f ba33 873f
000000e0: 7f6a 563f 07f5 813f 5521 403f e700 8a3f
000000f0: 7000 703f a976 6a3f c399 883f 78e3 803f

features_to_image.2.bias f4 [64]
0.18304776 0.23933463 -0.009658039 -0.05960584 0.08145476 -0.08673384 0.09448746 -0.029362736
0.14423081 0.06240924 0.13072212 0.099455215 0.01504654 0.018650074 0.0967697 -0.06652915
0.04128672 0.030929707 0.19728665 -0.06969679 -0.051972706 -0.031205721 -0.03694784 0.1063856
-0.14467035 0.061292518 0.13498718 -0.05936574 0.016415203 0.15238377 0.10237428 -0.032982744
0.023859415 -0.08862421 -0.11916735 -0.124581926 -0.10401466 -0.19520512 -0.073082805 0.067071244
-0.091581844 -0.07815448 -0.025014104 -0.18513589 -0.0035827726 -0.043909594 -0.125712 -0.11828785
0.015959183 0.14040327 -0.05977625 0.014495108 -0.05281866 0.16547793 0.028984295 -0.002512965
0.18399774 0.13281375 0.26035684 0.112777814 -0.13102247 0.06612516 0.119514994 -0.011060709
00000000: df70 3b3e 2314 753e c03c 1ebc 4125 74bd
00000010: c1d1 a63d 83a1 b1bd a482 c13d 1f8a f0bc
00000020: 3eb1 133e d5a0 7f3d 05dc 053e 2daf cb3d
00000030: c385 763c 0ac8 983c 312f c63d 6f40 88bd
00000040: 441c 293d 4c60 fd3c 8305 4a3e 31bd 8ebd
00000050: 55e1 54bd 24a3 ffbc 9e56 17bd b2e0 d93d
00000060: 7724 14be dd0d 7b3d 143a 0a3e 7d29 73bd
00000070: 2d79 863c 7e0a 1c3e 9ba9 d13d ea18 07bd
00000080: d274 c33c 9c80 b5bd 030e f4bd cf24 ffbd
00000090: a305 d5bd dae3 47be 70ac 95bd a65c 893d
000000a0: 438f bbbd 750f a0bd 61ea ccbc 4394 3dbe
000000b0: f3cc 6abb 8cda 33bd a6ba 00be e640 f2bd
000000c0: d5bc 823c e0c5 0f3e f1d7 74bd e47c 6d3c
000000d0: 6158 58bd 0c73 293e 7970 ed3c 8eb0 24bb
000000e0: e769 3c3e 5400 083e 7e4d 853e 0ef8 e63d
000000f0: c12a 06be a16c 873d 47c4 f43d fa37 35bc

features_to_image.2.running_mean f4 [64]
0.95846075 0.8084647 0.8015567 0.19474943 0.38820556 0.059324875 0.26827982 0.3575723
0.39665067 0.48393455 0.31674302 0.8987843 0.508599 0.30028394 0.14105548 0.22015978
0.27899283 0.37641716 0.8326795 0.48758814 0.4841916 0.82694066 0.5343828 0.50821906
0.67730707 0.58790797 0.65853137 0.34937862 0.5081103 0.23517112 1.3313065 0.36841732
0.16980706 0.14513706 0.39655975 0.2649748 0.93135756 0.58312756 0.15100914 0.7897053
0.52581817 0.5794314 0.855444 0.34632394 0.5435053 0.63797486 0.040785763 0.15350707
0.7497135 0.5058263 0.8124346 0.27346724 0.2612972 0.71491385 8.5542067e-35 0.6986691
0.70715714 0.13424666 0.33653152 0.20121053 0.16612706 0.15713447 0.5127377 0.12790674
00000000: af5d 753f 8bf7 4e3f d232 4d3f 656c 473e
00000010: e1c2 c63e a4fe 723d f95b 893e b713 b73e
00000020: cc15 cb3e 45c6 f73e 242c a23e ba16 663f
00000030: 8b33 023f d1be 993e d970 103e 9171 613e
00000040: 26d8 8e3e c0b9 c03e 7c2a 553f 27a5 f93e
00000050: f6e7 f73e 62b2 533f 50cd 083f a51a 023f
00000060: ff63 2d3f 2381 163f 8395 283f c1e1 b23e
00000070: 8413 023f b3d0 703e 4068 aa3f 32a1 bc3e
00000080: e7e1 2d3e cf9e 143e e109 cb3e c7aa 873e
00000090: 736d 6e3f d947 153f 24a2 1a3e 202a 4a3f
000000a0: 059c 063f 9e55 143f 61fe 5a3f 5f51 b13e
000000b0: 2a23 0b3f 5252 233f f90e 273d f530 1d3e
000000c0: 39ed 3f3f d57d 013f b7fb 4f3f e603 8c3e
000000d0: bfc8 853e 9804 373f ea68 e306 fadb 323f
000000e0: 4008 353f f577 093e dc4d ac3e 220a 4e3e
000000f0: 361d 2a3e dce7 203e c742 033f fcf9 023e

features_to_image.2.running_var f4 [64]
1.8911216 2.2693746 4.1559033 0.36200148 0.81990415 0.048444625 1.085423 0.23858292
1.3333123 0.9228385 0.6502514 0.79858166 1.5106226 0.9711373 0.1694813 0.7302532
0.9655636 1.0114405 3.2451217 1.1582437 0.79656947 2.0469193 0.74467343 0.84517777
2.5292368 1.4324287 3.2767675 1.188457 1.8279724 0.33592573 3.4990108 0.9616347
0.43543786 0.11565452 1.1542728 0.40737396 2.9204926 1.4129754 0.34398693 1.4710989
1.9717597 1.078061 3.7333167 0.5582634 1.1151322 1.6830696 0.01151682 0.18703502
2.4844823 1.0887978 1.6327354 0.5573612 0.4872655 1.0781214 2.3784716e-36 1.3472437
2.3461487 0.27194905 1.1383271 0.37972328 0.28345922 0.21972111 1.2604303 0.2468996
00000000: 4610 f23f 6f3d 1140 29fd 8440 4258 b93e
00000010: 3de5 513f df6d 463d 24ef 8a3f 154f 743e
00000020: faa9 aa3f 253f 6c3f e076 263f d96f 4c3f
00000030: 155c c13f 749c 783f 828c 2d3e e0f1 3a3f
00000040: 2d2f 773f e276 813f 13b0 4f40 5441 943f
00000050: faeb 4b3f ba00 0340 eba2 3e3f 925d 583f
00000060: 04df 2140 d359 b73f 8fb6 5140 5c1f 983f
00000070: 00fb e93f 75fe ab3e cbef 5f40 b12d 763f
00000080: b6f1 de3e 47dc ec3d 36bf 933f 5293 d03e
00000090: 5ae9 3a40 61dc b43f 0e1f b03e f84c bc3f
000000a0: 9f62 fc3f e7fd 893f a9ee 6e40 5aea 0e3f
000000b0: a7bc 8e3f d36e d73f 0bb1 3c3c 1c86 3f3e
000000c0: c201 1f40 ba5d 8b3f 79fd d03f 39af 0e3f
000000d0: dd7a f93e e2ff 893f 8656 4a04 7b72 ac3f
000000e0: 4d27 1640 e83c 8b3e b4b4 913f 176b c23e
000000f0: 9121 913e 92fe 603e c855 a13f 40d3 7c3e

features_to_image.3.weight f4 [64, 32, 4, 4]
0.0120467665 -0.08075681 0.0309086 -0.031064235 0.05404847 -0.16513318 0.12038635 0.17660615
0.11993199 -0.013903453 -0.07881011 0.26460752 -0.019888163 -0.12877303 -0.019564278 -0.10859099
0.00462314 0.23239584 -0.061703924 0.008060995 -0.09039863 0.10519582 0.04076681 -0.01029351
-0.07742597 0.09077441 -0.102612056 -0.1480062 -0.25766376 0.05905756 0.02421792 0.019893866
0.023770094 0.07167797 -0.00020272762 -0.017167732 -0.07059051 -0.029851923 -0.05690675 -0.0927464
-0.07265678 -0.2848605 0.037823267 0.12732568 -0.09029094 0.08604895 -0.07446304 -0.012226248
-0.17770956 0.1988008 -0.0037485065 0.17820913 -0.015449264 -0.05273127 0.0020823868 -0.03928781
0.09355802 0.074005656 -0.014613051 0.112659454 -0.018730965 0.18285556 0.10792272 -7.7951605e-05
-0.06427965 -0.03918548 -0.1613274 0.22706252 0.025933357 -0.23493722 -0.23264265 -0.3345307
0.03150962 0.055850267 -0.036570374 0.009845917 -0.006107482 -0.14659531 0.03934502 -0.17262657
0.19864206 0.020015754 -0.053396482 -0.11334258 -0.03752851 -0.17829041 -0.18400118 -0.24270445
-0.05098722 0.191407 -0.10605345 -0.09366069 -0.37259346 -0.13547678 0.0662358 -0.18368733
0.31641313 -0.016930237 -0.12508933 -0.11529246 0.07493379 0.1289783 -0.16455819 -0.11210861
-0.02046373 0.34596232 -0.27310348 -0.01951805 -0.18926874 -0.068915054 -0.15783255 -0.11487816
0.08700025 0.09469964 -0.19886144 -0.19572915 -0.028721618 0.010955758 -0.03631328 -0.015489481
0.08801313 -0.021908544 -0.16128352 -0.10172879 -0.035112422 0.05390389 -0.13763632 -0.009493634
-0.13349786 0.057216387 0.12054264 0.05596255 0.04272318 0.091744624 -0.1219308 0.19125663
0.05422567 -0.11941107 0.04414878 -0.04033317 -0.040908556 0.17798044 0.16592455 -0.12362809
-0.19339713 0.05096457 0.024644366 -0.1549156 0.2117286 -0.058064494 -0.04203685 0.039591346
-0.06395245 -0.170984 -0.014138275 0.27784896 -0.007836192 -0.16961281 -0.26245633 0.08565318
0.018271701 0.07815081 -0.2041601 0.14763263 -0.1077644 -0.034681574 0.14526805 -0.102084845
-0.21961527 -0.11206115 -0.15832043 -0.02688302 -0.0020888008 -0.3645108 -0.028311035 -0.0018265081
-0.09678174 0.0139425825 0.09091329 -0.085705005 0.11583014 -0.1449523 0.09061938 0.09054788
-0.23205943 -0.19686367 -0.08810022 -0.24969086 -0.010166134 0.05143628 -0.09109309 -0.015504108
-0.08400538 0.10164416 0.11326769 0.004714211 -0.064460024 0.05075442 0.003255725 0.06316627
-0.06832298 -0.11370605 0.06824044 0.1263726 -0.07531358 0.17465077 0.18115191 -0.23181275
0.10664694 -0.020733194 0.18782982 0.14268924 -0.04438854 -0.07526024 0.09822218 0.18432936
0.13071643 0.06250109 -0.16171972 -0.10146065 -0.08550791 -0.08412797 -0.027093966 -0.03505587
0.118724376 -0.04515323 0.042174455 0.034224734 -0.0006363388 -0.19281712 0.22837274 0.117497645
0.0583237 -0.15278333 -0.12278349 0.053001475 -0.114701614 -0.07317208 -0.19389859 -0.02497552
0.113660686 -0.025871286 0.2768162 0.078203715 -0.018859543 0.08817106 -0.0271395 -0.074204415
0.06793543 -0.3247665 -0.017721567 0.06302967 0.16353138 -0.03242211 0.0072830888 0.07362714
00000000: cd5f 453c d463 a5bd 0834 fd3c 6c7a febc
00000010: ee61 5d3d ac18 29be 1e8d f63d 3ed8 343e
00000020: e79e f53d 4fcb 63bc 3267 a1bd a37a 873e
00000030: 80ec a2bc 14dd 03be 4445 a0bc f464 debd
00000040: b67d 973b 2df9 6d3e 41bd 7cbd 4312 043c
00000050: eb22 b9bd e870 d73d 19fb 263d 1ca6 28bc
00000060: 8291 9ebd efe7 b93d 4526 d2bd f08e 17be
00000070: 81ec 83be 57e6 713d a964 c63c 76f8 a23c
00000080: 80b9 c23c e6cb 923d 4893 54b9 58a3 8cbc
00000090: c291 90bd 058c f4bc 0d17 69bd d3f1 bdbd
000000a0: 14cd 94bd 3cd9 91be 92ec 1a3d aa61 023e
000000b0: 75ea b8bd 6f3a b03d 1480 98bd 9a50 48bc
000000c0: 7ff9 35be 7092 4b3e 81a9 75bb 747c 363e
000000d0: e91e 7dbc bffc 57bd a778 083b 41ec 20bd
000000e0: 599b bf3d 4790 973d 946b 6fbc 00ba e63d
000000f0: ae71 99bc 7d3e 3b3e 9606 dd3d f379 a3b8
00000100: 0da5 83bd f480 20bd 0333 25be 1483 683e
00000110: 3172 d43c 6293 70be e039 6ebe 9c47 abbe
00000120: 3b10 013d 40c3 643d d1ca 15bd c550 213c
00000130: 4621 c8bb 151d 16be 3e28 213d 05c5 30be
00000140: d368 4b3e 14f8 a33c 45b6 5abd 2820 e8bd
00000150: 7fb7 19bd c391 36be ce6a 3cbe 8487 78be
00000160: fad7 50bd 3200 443e 8d32 d9bd 2dd1 bfbd
00000170: 92c4 bebe 6dba 0abe a3a6 873d 8818 3cbe
00000180: e700 a23e 48b1 8abc 6b17 00be 741e ecbd
00000190: e376 993d e312 043e f181 28be 3399 e5bd
000001a0: 8da3 a7bc f921 b13e 38d4 8bbe 51e4 9fbc
000001b0: aacf 41be 5623 8dbd db9e 21be 3e45 ebbd
000001c0: 302d b23d e3f1 c13d 55a2 4bbe 396d 48be
000001d0: 9949 ebbc c87f 333c 3cbd 14bd 98c7 7dbc
000001e0: 3a40 b43d 8c79 b3bc 8227 25be 2f57 d0bd
000001f0: 0bd2 0fbd 53ca 5c3d 89f0 0cbe 308b 1bbc
00000200: aab3 08be bb5b 6a3d 0fdf f63d fd38 653d
00000210: 80fe 2e3d 9be4 bb3d dbb6 f9bd c7d8 433e
00000220: bc1b 5e3d cb8d f4bd 5ad5 343d 6534 25bd
00000230: bb8f 27bd 8140 363e 20e8 293e b930 fdbd
00000240: e609 46be 3ac0 503d fbe2 c93c 32a2 1ebe
00000250: 62cf 583e 09d5 6dbd d52e 2cbd 892a 223d
00000260: 81f9 82bd 6e16 2fbe 39a4 67bc 3842 8e3e
00000270: 5f63 00bc fbae 2dbe ad60 86be ef6a af3d
00000280: 89ae 953c 880d a03d 580f 51be 022d 173e
00000290: 95b3 dcbd 440e 0ebd 26c1 143e dc11 d1bd
000002a0: d3e2 60be 5180 e5bd c01e 22be c739 dcbc
000002b0: 43e4 08bb 29a1 babe 8bec e7bc 7167 efba
000002c0: 8135 c6bd 6e6f 643c bf30 ba3d 1b86 afbd
000002d0: 5a38 ed3d 606e 14be a796 b93d 2b71 b93d
000002e0: fda0 6dbe a196 49be e36d b4bd f6ae 7fbe
000002f0: db8f 26bc d9ae 523d 048f babd f104 7ebc
00000300: 030b acbd d02a d03d e4f8 e73d ab79 9a3b
00000310: 9e03 84bd dee3 4f3d 005e 553b 515d 813d
00000320: ebec 8bbd b8de e8bd a5c1 8b3d d267 013e
00000330: 023e 9abd a7d7 323e e37f 393e 5260 6dbe
00000340: b669 da3d a9d8 a9bc 7656 403e 211d 123e
00000350: c2d0 35bd 0a22 9abd b628 c93d d6c0 3c3e
00000360: 87da 053e 9200 803d db99 25be 9aca cfbd
00000370: c51e afbd 494b acbd 2af4 ddbc be96 0fbd
00000380: c425 f33d 98f2 38bd 1fbf 2c3d 3c2f 0c3d
00000390: f9cf 26ba da71 45be 8bda 693e 9ba2 f03d
000003a0: d5e4 6e3d 3c73 1cbe e975 fbbd 1318 593d
000003b0: aee8 eabd 3edb 95bd 5a8d 46be 7699 ccbc
000003c0: efc6 e83d 05f0 d3bc daba 8d3e 4529 a03d
000003d0: 547f 9abc 0793 b43d a853 debc 7cf8 97bd
000003e0: bb21 8b3d cb47 a6be d22c 91bc b315 813d
000003f0: c574 273e 0ccd 04bd faa6 ee3b d3c9 963d

features_to_image.3.bias f4 [32]
0.14741679 0.004110725 -0.009159819 -0.04195156 0.041140724 0.0687863 0.17103271 0.07759405
-0.14911595 0.015719015 0.13780963 0.13811705 0.013946557 0.17801817 0.093238786 0.06751075
0.22417733 -0.027451156 0.035863366 -0.18235835 0.0663281 0.19416471 0.1623951 -0.0014909819
0.03564614 0.073711924 0.033036258 0.26255068 0.10116594 0.1115598 0.03061512 -0.09991826
00000000: 6df4 163e 43b3 863b 1113 16bc 66d5 2bbd
00000010: 2d83 283d d5df 8c3d 3323 2f3e a1e9 9e3d
00000020: dab1 18be 2ac5 803c f81d 0d3e 8e6e 0d3e
00000030: 1a80 643c 654a 363e faf3 be3d 1343 8a3d
00000040: be8e 653e 3fe1 e0bc 77e5 123d 26bc 3abe
00000050: 07d7 873d 1dd3 463e e74a 263e 0d6d c3ba
00000060: b001 123d 47f6 963d 0751 073d 0b6d 863e
00000070: 1730 cf3d 7779 e43d 8fcc fa3c f2a1 ccbd

features_to_image.5.weight f4 [32]
1.0885155 0.96029353 0.98669994 0.8788565 0.96772003 0.9329185 1.1759725 0.841785
1.0058103 1.0015271 1.2452672 1.1171637 1.1876174 1.016535 1.1957136 0.9180376
1.0678661 1.0521568 1.2617042 0.7767757 1.0083218 1.0309268 1.0098617 1.0320522
1.1641401 1.038282 1.0188053 1.1990329 1.046588 1.0052208 1.0095459 0.84395844
00000000: 7a54 8b3f ccd5 753f 5e98 7c3f bdfc 603f
00000010: 80bc 773f bfd3 6e3f 4486 963f 397f 573f
00000020: 64be 803f 0a32 803f ea64 9f3f 38ff 8e3f
00000030: d903 983f d21d 823f 250d 993f 8304 6b3f
00000040: d6af 883f 13ad 863f 867f a13f c6da 463f
00000050: b010 813f 69f5 833f 2643 813f 491a 843f
00000060: 8b02 953f 6de6 843f 3668 823f e979 993f
00000070: 98f6 853f 13ab 803f cd38 813f a90d 583f

features_to_image.5.bias f4 [32]
-0.33278283 0.08820062 -0.19421509 -0.22946988 -0.33658051 -0.20297004 0.047392722 -0.18339111
-0.21025702 -0.14123419 0.3109757 0.23612876 0.11300035 0.02717663 0.35408083 -0.09930061
0.2308021 0.023004392 0.26571757 0.011736465 0.08826198 0.014171587 0.43756548 -0.122094214
0.30531272 0.2205 0.143526 0.30782747 0.3395907 0.2858129 0.066276856 -0.03614422
00000000: 8362 aabe 87a2 b43d 52e0 46be 27fa 6abe
00000010: 4854 acbe 61d7 4fbe df1e 423d e1ca 3bbe
00000020: 9e4d 57be b29f 10be 3538 9f3e bdcb 713e
00000030: ba6c e73d 86a1 de3c 154a b53e 1e5e cbbd
00000040: 6357 6c3e b573 bc3c 220c 883e 4d4a 403c
00000050: b2c2 b43d f22f 683c 9508 e03e 880c fabd
00000060: f351 9c3e c1ca 613e 7bf8 123e 909b 9d3e
00000070: d5de ad3e 1256 923e 29bc 873d f60b 14bd

features_to_image.5.running_mean f4 [32]
0.55201036 0.6071004 0.59260327 0.645469 0.49230936 0.4706909 0.4313281 0.6139325
0.48294905 0.57352656 0.5326452 0.6814448 0.45257527 0.5621852 0.42653185 0.70645076
0.53486294 0.4903167 0.45926985 0.47637773 0.55966425 0.43015826 0.42409953 0.50444525
0.54190946 0.58661526 0.4998559 0.6313344 0.5520324 0.5632351 0.51097107 0.6046728
00000000: 8d50 0d3f ef6a 1b3f d9b4 173f 753d 253f
00000010: f90f fc3e 66fe f03e 09d7 dc3e ae2a 1d3f
00000020: 1945 f73e a3d2 123f 705b 083f 2b73 2e3f
00000030: f2b7 e73e 5feb 0f3f 6262 da3e f5d9 343f
00000040: c7ec 083f ca0a fb3e 6b25 eb3e c8e7 f33e
00000050: 2846 0f3f b43d dc3e 9323 d93e 5323 013f
00000060: 94ba 0a3f 6b2c 163f 1ded ff3e 229f 213f
00000070: ff51 0d3f 2d30 103f 00cf 023f d6cb 1a3f

features_to_image.5.running_var f4 [32]
1.069542 1.1952481 1.4550358 0.92573005 0.7098581 1.0377436 0.8339051 0.6982444
0.8386367 1.138133 1.5537479 1.7600101 0.86969405 1.0937937 0.7621621 0.90268934
0.7100141 1.1050396 0.5703138 1.0033468 0.76203966 0.877807 0.56996 0.8727451
0.8739168 0.85753864 0.6112188 1.2698517 0.7617035 0.88174963 0.89145535 0.8221037
00000000: c1e6 883f e4fd 983f 9d3e ba3f a5fc 6c3f
00000010: 43b9 353f c8d4 843f ce7a 553f 25c0 323f
00000020: e5b0 563f 58ae 913f 36e1 c63f 0348 e13f
00000030: 45a4 5e3f 6f01 8c3f 0e1d 433f a616 673f
00000040: 7cc3 353f f071 8d3f 1600 123f ab6d 803f
00000050: 0815 433f f6b7 603f e6e8 113f 396c 5f3f
00000060: 03b9 5f3f a787 5b3f d678 1c3f 808a a23f
00000070: 00ff 423f 58ba 613f 6b36 643f 6375 523f

features_to_image.6.weight f4 [32, 16, 4, 4]
-0.19332634 -0.024160486 0.15493686 0.032817192 0.15254752 -0.12221886 0.16718316 0.05286588
-0.19673958 0.25540328 -0.07063464 0.13302158 -0.16772074 0.0355874 0.04081548 0.037494794
-0.21655571 -0.17807966 -0.21441603 -0.16940138 -0.1355355 -0.07349123 -0.08729312 -0.09017698
-0.08653513 -0.014950637 -0.0791732 -0.004825628 -0.030805008 0.18228807 0.036256194 -0.047014143
0.15924767 0.08649145 0.020990226 -0.03638659 -0.024123728 -0.046116106 -0.09391063 -0.075472146
-0.03975912 -0.21764556 -0.23777416 -0.023527082 -0.036898598 -0.20223291 -0.07904612 0.09868873
-0.09709161 -0.18939035 0.08485515 -0.0737234 -0.1686911 0.107487924 -0.0259671 -0.058977313
-0.0034319079 -0.3590074 -0.12186158 0.05167979 0.10647244 -0.04998852 0.27214736 0.2550068
0.12744291 -0.036262907 0.0169593 -0.19230469 -0.14619403 0.32725906 0.031023204 -0.041700225
0.26585007 -0.0004145181 0.17080908 -0.033640835 0.17740464 -0.01931408 0.3099538 0.05008067
0.03184795 -0.0060016643 0.0730021 -0.124497995 -0.049944494 0.3169881 0.122785024 -0.035218112
0.05337266 0.2685181 -0.016766362 0.3944469 -0.041946553 0.27266118 0.021796871 0.13469864
-0.24897352 0.024289435 -0.123093575 0.11868859 0.06851508 -0.040231247 -0.049792018 -0.13413526
-0.031211343 -0.008773944 -0.2124874 -0.18669803 0.044469915 -0.15190873 -0.14524367 0.1653519
0.11502187 0.25939816 0.1996455 -0.0094264485 0.086543635 0.027807424 -0.02612485 0.16056941
-0.19628361 0.12278296 -0.059542824 0.14875719 0.16605291 0.06421914 0.21828881 0.07104737
-0.22079667 -0.14563814 -0.050785232 -0.01889567 -0.044583272 -0.02013616 -0.112984896 -0.23531736
0.07228862 -0.11610728 -0.0039815134 -0.023064945 0.0054268884 -0.012845733 0.014629224 -0.053868152
0.15613523 -0.14307003 0.13602035 -0.049462657 -0.066982776 -0.2574182 -0.120388225 -0.2830019
0.15136534 -0.32692936 -0.16773479 -0.13432924 0.08070909 0.021107921 -0.014383566 -0.20839073
-0.06361723 -0.0050080977 -0.16131863 0.14576183 -0.033867124 -0.057943642 0.04443736 0.23112021
-0.17185749 -0.046336804 0.09057947 -0.13699187 -0.03288449 0.16674383 0.061619602 -0.0651658
0.0012520347 0.07811868 0.06669224 -0.1217901 0.25008115 -0.019009652 0.3807845 -0.09294586
0.1706149 0.0884815 0.17227384 -0.017657334 0.12869541 0.24936992 0.24723533 -0.11519983
0.0037214004 0.06946884 0.1703087 0.10103104 0.08961458 -0.028366461 0.09201178 0.051047668
0.055039253 0.053269185 0.08627171 0.015999949 -0.23031834 0.025043733 -0.01832247 0.12260209
0.1842758 0.0109485425 0.06391159 0.038956784 -0.16856931 -0.087268345 -0.0036603226 -0.15408687
0.10304598 -0.00414015 -0.015957866 0.043521382 -0.019127388 0.098234594 0.11175069 -0.08925936
0.27248412 -0.2931462 0.04166088 0.18071389 -0.09914615 0.10934798 0.038446657 0.2678512
-0.01591606 0.012408896 -0.027051637 0.07365185 -0.04684524 -0.056190226 0.03215931 -0.01250042
-0.03550651 0.04528242 0.25523078 0.21189448 -0.070405096 0.10551813 -0.06565672 -0.081603296
-0.06963909 0.009279067 -0.05522069 0.008821075 0.023676576 -0.118140996 -0.17774568 0.0005502464
00000000: 57f7 45be 36ec c5bc c5a7 1e3e 526b 063d
00000010: 6b35 1c3e e24d fabd 1032 2b3e e589 583d
00000020: 1a76 49be 38c4 823e e5a8 90bd cf36 083e
00000030: fcbe 2bbe 18c4 113d 222e 273d 2494 193d
00000040: c8c0 5dbe 845a 36be e08f 5bbe 8e77 2dbe
00000050: d1c9 0abe 9282 96bd bcc6 b2bd b5ae b8bd
00000060: 5539 b1bd 84f3 74bc 8f25 a2bd 4d20 9ebb
00000070: c95a fcbc b9a9 3a3e 6081 143d e791 40bd
00000080: d211 233e 6e22 b13d b2f3 ab3c 1b0a 15bd
00000090: 209f c5bc 3ee4 3cbd 3754 c0bd 2491 9abd
000000a0: 76da 22bd 7ade 5ebe 127b 73be debb c0bc
000000b0: fc22 17bd 2516 4fbe efe2 a1bd 511d ca3d
000000c0: f7d7 c6bd 8bef 41be 89c8 ad3d 4bfc 96bd
000000d0: 5cbd 2cbe a122 dc3d f5b8 d4bc 3292 71bd
000000e0: dce9 60bb d1cf b7be 9092 f9bd 30ae 533d
000000f0: 390e da3d c3c0 4cbd e656 8b3e 4090 823e
00000100: 6580 023e 6a88 14bd 3bee 8a3c 85eb 44be
00000110: e3b3 15be 808e a73e 6024 fe3c dbcd 2abd
00000120: 801d 883e ad53 d9b9 93e8 2e3e f9ca 09bd
00000130: 90a9 353e 9038 9ebc 44b2 9e3e 6321 4d3d
00000140: ff72 023d 9ca9 c4bb 2082 953d cef8 febd
00000150: 9992 4cbd 444c a23e b776 fb3d de40 10bd
00000160: 4a9d 5a3d 347b 893e 9c59 89bc f2f4 c93e
00000170: 26d0 2bbd 3f9a 8b3e 5a8f b23c 71ee 093e
00000180: eaf2 7ebe a3fa c63c 7c18 fcbd 0113 f33d
00000190: a251 8c3d 85c9 24bd b7f2 4bbd c15a 09be
000001a0: eeae ffbc 97c0 0fbc 4c96 59be c52d 3fbe
000001b0: 1626 363d f68d 1bbe c2ba 14be 0252 293e
000001c0: 9690 eb3d d6cf 843e df6f 4c3e 6471 1abc
000001d0: ca3d b13d 65cc e33c c803 d6bc 4f6c 243e
000001e0: 92fe 48be a275 fb3d 2de3 73bd ce53 183e
000001f0: c609 2a3e 5385 833d 1a87 5f3e 4981 913d
00000200: 8618 62be 2a22 15be 2d04 50bd 18cb 9abc
00000210: f39c 36bd 97f4 a4bc a064 e7bd 09f7 70be
00000220: 0e0c 943d a7c9 edbd 5b77 82bb b2f2 bcbc
00000230: 0ad4 b13b e976 52bc 6aaf 6f3c daa4 5cbd
00000240: eae1 1f3e f380 12be eb48 0b3e 5b99 4abd
00000250: 442e 89bd 51cc 83be 1a8e f6bd a0e5 90be
00000260: 84ff 1a3e 4963 a7be abc2 2bbe 9b8d 09be
00000270: cf4a a53d 85ea ac3c 0ca9 6bbc 6164 55be
00000280: c049 82bd f81a a4bb b630 25be 9742 153e
00000290: 41b8 0abd 5056 6dbd f303 363d c7aa 6c3e
000002a0: 69fb 2fbe a9cb 3dbd bb81 b93d 9947 0cbe
000002b0: e3b1 06bd e5be 2a3e d664 7c3d a675 85bd
000002c0: 501b a43a b0fc 9f3d f195 883d 176d f9bd
000002d0: a30a 803e 21ba 9bbc 30f6 c23e 665a bebd
000002e0: acb5 2e3e ca35 b53d 8e68 303e 1da6 90bc
000002f0: bbc8 033e d45a 7f3e 422b 7d3e e3ed ebbd
00000300: bde2 733b ae45 8e3d 6765 2e3e 5de9 ce3d
00000310: d987 b73d c860 e8bc ac70 bc3d 5c17 513d
00000320: d770 613d ca30 5a3d 39af b03d 5312 833c
00000330: 92d8 6bbe 8428 cd3c 0119 96bc ce16 fb3d
00000340: ccb2 3c3e 8461 333c 14e4 823d 2691 1f3d
00000350: 6f9d 2cbe bfb9 b2bd 06e2 6fbb f3c8 1dbe
00000360: c509 d33d 18aa 87bb 12ba 82bc 7a43 323d
00000370: 0ab1 9cbc 382f c93d 8cdd e43d 9dcd b6bd
00000380: 0a83 8b3e 4217 96be 99a4 2a3d 100d 393e
00000390: 230d cbbd d5f1 df3d 3e7a 1d3d cb23 893e
000003a0: 6662 82bc af4e 4b3c 659b ddbc c8d6 963d
000003b0: cbe0 3fbd b927 66bd 7bb9 033d 90ce 4cbc
000003c0: 466f 11bd 0f7a 393d 9cad 823e defa 583e
000003d0: 8c30 90bd e419 d83d 0877 86bd a11f a7bd
000003e0: f09e 8ebd 3a07 183c 172f 62bd 4586 103c
000003f0: 61f5 c13c e8f3 f1bd f702 36be 693e 103a

features_to_image.6.bias f4 [16]
0.3692311 -0.1739516 -0.13306862 -0.17207803 -0.13434207 0.33930665 0.06638118 0.1649359
-0.15913405 0.14298648 0.26082042 -0.118014246 -0.32993215 -0.20057301 0.16591886 0.1088649
00000000: dc0b bd3e 5e20 32be 2443 08be 3935 30be
00000010: f890 09be 9ab9 ad3e dbf2 873d f5e4 283e
00000020: 09f4 22be 0c6b 123e 418a 853e 74b1 f1bd
00000030: deec a8be 0363 4dbe a2e6 293e 90f4 de3d

features_to_image.8.weight f4 [16]
2.5211666 1.8985238 1.7516115 1.8548791 1.8469546 2.2352176 1.848661 2.173408
1.7514682 2.0491996 2.148437 1.9853191 1.6143149 1.8347701 2.525232 1.9835572
00000000: cb5a 2140 d402 f33f ce34 e03f ae6c ed3f
00000010: 0269 ec3f ce0d 0f40 eca0 ec3f 1e19 0b40
00000020: 1c30 e03f 1626 0340 fe7f 0940 f01e fe3f
00000030: dfa1 ce3f bfd9 ea3f 679d 2140 34e5 fd3f

features_to_image.8.bias f4 [16]
-0.94205385 -0.35282516 -0.25167403 -0.02666399 -0.21712539 -0.9327689 -0.17979662 -1.0579267
-0.05910821 -0.15232606 -0.83364755 -0.75337553 0.12822635 0.044121504 -1.0627304 -0.800993
00000000: 712a 71bf 80a5 b4be 6bdb 80be 716e dabc
00000010: 1e56 5ebe f1c9 6ebf 9b1c 38be 246a 87bf
00000020: 731b 72bd 5dfb 1bbe ed69 55bf 38dd 40bf
00000030: c54d 033e c0b8 343d 8d07 88bf e10d 4dbf

features_to_image.8.running_mean f4 [16]
0.44953388 0.13851158 0.14171265 0.30060548 0.26324114 0.59628594 0.13897446 0.5469879
0.1694378 0.24698064 0.40938026 0.13548309 0.12173635 0.122299984 0.37981197 0.15236154
00000000: 4e29 e63e fbd5 0d3e 1f1d 113e f6e8 993e
00000010: 8bc7 863e 32a6 183f 524f 0e3e 6607 0c3f
00000020: 1a81 2d3e 7ee8 7c3e 4a9a d13e 14bc 0a3e
00000030: e850 f93d 6a78 fa3d b776 c23e aa04 1c3e

features_to_image.8.running_var f4 [16]
0.2593224 0.10706059 0.108827725 0.2961441 0.20683107 0.34475726 0.117216185 0.3984079
0.13075446 0.19498144 0.30702388 0.08335534 0.10247772 0.09711757 0.24057564 0.12899578
00000000: e8c5 843e 9542 db3d 12e1 de3d 33a0 973e
00000010: 86cb 533e 0684 b03e 0a0f f03d 1ffc cb3e
00000020: 7fe4 053e 37a9 473e 3c32 9d3e 34b6 aa3d
00000030: d7df d13d 94e5 c63d 7659 763e 7817 043e
