trained_models/DCGANdiscriminator_epoch10.pth (torch, 698818 bytes, 9 tensors)

image_to_features.0.weight f4 [16, 3, 4, 4]
00000000: f8de 98bc d59e 5d3d 8633 f83b ad16 fd3d
00000010: fa5a 983d 96e8 96bd c913 ca3a cd84 ce3b
00000020: 9d61 283d d9fd 54be fccd 3cbe ca00 d7bd
00000030: 10c5 2bbe 9d6a b7bd ae5e 45be fe62 843c
00000040: d4e1 fb39 4844 09bc 7ce6 15bd f6cb 18bd
00000050: c38e 64bd 7961 493d 1760 133c 544f c23d
00000060: 8a05 dd3c cc22 eebd 7e1f 95be d62b 083d
00000070: e0a9 5fbd cb20 2dbe ebc0 0cbe be78 513d
00000080: 32a6 a0bd a6d5 9a3d 668f a13d a1b1 a2bd
00000090: 36aa ea3d d81c f9bc e40c 00be 059b b63d
000000a0: 0e38 48be 7c84 1dbe 1c8a 8abe e09b 60be
000000b0: dcb8 47be 9530 86be 82a3 58bd 6908 8fbd
000000c0: 2081 3bbe d5c4 8cbe 6a68 4fbe c869 c0bc
000000d0: 9784 b4be 222b cbbe 74fd 4ebd 2e78 1ebe
000000e0: 54ab 3fbe e4a5 62be f3bf 44bd 3381 09bd
000000f0: 3fa7 15bd 7de0 37be 10b7 363d aa80 02be
00000100: 3267 0dbe fbdd f1bd 7670 d43c d4f9 6a3d
00000110: 61ce 56be 8e2d 61be 92ea dcbc 9b52 843d
00000120: 0ccc 61bd 8652 ceba 7fae 25bd ed8d 5c3d
00000130: d71c 8f3d 72fe 9dbd aa79 2a3d bca7 b03d
00000140: 64fc 3fbd f33c 553d 0118 d7bd f567 7a3d
00000150: b174 d6bd 182f 09be 9f99 4ebd fb07 b1bd
00000160: b63b 5c3d f97f 9abd 8fba 383d e453 e63d
00000170: 6c9f a03d 3ceb f93b 8d43 3f3d b3b0 053d
00000180: 29f9 99bd d444 5c3c c83c 263c b39f 943d
00000190: e779 a9bd ac31 ea3d c38e 9f3d 4b67 9ebd
000001a0: 2771 ed3c 99ce 50bd ecb8 2bbd b2f4 90bd
000001b0: f485 88bd 34c4 17be 9b2b 02be 5adf ef3b
000001c0: 332b 02bd 1dc6 fa3c 9bd1 8f3d 7cba 16bd
000001d0: 7c89 933d 1676 7a3d 7983 033e 98f0 593d
000001e0: 53e3 75bc e6f3 5d3d e22d 893d ebc6 ccbc
000001f0: a23e 04be 7259 f6bc c540 d43d 599d 62bd
00000200: d254 1a3e 8e7b 023e fb93 c03d ff05 b4bc
00000210: 9d47 a93d 0360 ed3d 371a 2b3e 3a46 1a3e
00000220: 7b21 5b3d 20f9 993d 6620 4e3a 7629 503d
00000230: 7977 4dbc e474 e03d e38f 65bd 8050 bd3d
00000240: 5845 8a3d 506a 84bb 3e0c 8fbc aa3c 943d
00000250: a0e9 35bd 3c03 88bd 99c1 b3bb 407b 8dbd
00000260: 2cc1 56be 91a9 10be 3818 68be af65 abbd
00000270: b4fc ec3c 3442 de3b b517 c23d 01b5 c7bc
00000280: 7afc ff3b 4463 843d c849 bc3c 80c6 8dbd
00000290: 8631 8a3d 1dc8 efbd 2df4 cdbd 1197 49bd
000002a0: 1ade 18be 8eac 10be e98e 5abe 5852 13be
000002b0: fc9d ddbd 0068 29be 1478 973d aef2 9f3d
000002c0: 56d5 243d 5df2 c1bd efd1 983d 04ea 8f3d
000002d0: eb9c c4bc c13f 31be 1a95 23be 0795 2bbe
000002e0: d3d0 83be aa72 7cbe 2af4 7dbd a1bc 3abd
000002f0: 76d9 0cbd 152a c9bd 0055 56bd 0bfd c2bd
00000300: a633 fb3d ec93 013b 9279 dd3d f15d b23d
00000310: ea1d 8a3d 2ee7 c3bc 3d0a 273d 0360 9a3c
00000320: 799b 5ebd a8b9 d33d 97d4 193e 5de1 c43d
00000330: 6e99 fe3d f5c9 aebd 8b5b f53c 6cdd f43d
00000340: a496 a7bd 83be a53d 3ee1 9c3d 7453 f43d
00000350: b137 a63c 683e b73c cd6f 2c3e 57c7 94bc
00000360: f32f d63c f25a b9bc e617 a13d 0d4e 013e
00000370: 97c5 db3d dd0a ea3d c31e 70bd 0361 f83d
00000380: 61fb f8bc b1ee 39bc 1cf3 c53d 796e 9a3d
00000390: f6ed 003e 1a63 9bbb de07 dd3c d614 1cbd
000003a0: 539c 083e 3577 9a3d 79e8 14bd 82e0 24bb
000003b0: 67fe c83d cd08 213d 7b0f 0c3e c0b0 4bbd
000003c0: 82b0 c3bb 3482 11be 1c49 2b3d 6276 6d3d
000003d0: 5676 113d 0a07 09be 22aa 0e3d 1672 d7bc
000003e0: 0ecd 003c d300 2d3d 37d9 c63d a614 653c
000003f0: d0d8 53be c1db 95bd e0eb 7bbb eccd 06be
-0.018661007 0.054106552 0.0075745014 0.12357841 0.074392274 -0.07368581 0.0015417273 0.006302452
0.041108716 -0.2079996 -0.18437952 -0.104981974 -0.16774392 -0.08955882 -0.19274399 0.016160484
0.00048042706 -0.008378096 -0.03659676 -0.037303887 -0.05580021 0.049165223 0.008995078 0.09487787
0.02698018 -0.11627731 -0.2912559 0.03324493 -0.054605365 -0.16907041 -0.13745467 0.05114054
-0.07844199 0.075602815 0.07888679 -0.07944036 0.114582464 -0.030409262 -0.12504917 0.089162864
-0.19552633 -0.1538257 -0.27058494 -0.21934462 -0.19504112 -0.2620894 -0.05289031 -0.06984026
-0.18310976 -0.2749392 -0.20254675 -0.02348794 -0.35257408 -0.39681345 -0.05053468 -0.15475532
-0.187177 -0.22133595 -0.04803462 -0.03357048 -0.03653645 -0.17956729 0.044608176 -0.12744394
-0.13808897 -0.118099175 0.025932532 0.05736716 -0.20977165 -0.21990034 -0.02696732 0.06461068
-0.055126235 -0.0015741147 -0.040449616 0.05384629 0.06987923 -0.07714547 0.041619934 0.08625743
-0.046871558 0.05206008 -0.10502625 0.061134297 -0.10471476 -0.13396871 -0.050439473 -0.086441
0.053767882 -0.0754394 0.04509979 0.112464696 0.07842907 0.007626919 0.04669528 0.032639217
-0.07518227 0.013444144 0.010146327 0.07257023 -0.08275204 0.114352554 0.077909015 -0.07734545
0.02898462 -0.050978277 -0.041924402 -0.07077922 -0.066661745 -0.1482094 -0.12711947 0.0073203268
-0.03177948 0.030612046 0.07022401 -0.03679894 0.072039574 0.06114777 0.12843122 0.053207964
-0.015007812 0.054187678 0.066982046 -0.024997195 -0.12914518 -0.030071948 0.10363916 -0.05532584
0.15071419 0.12742445 0.09403225 -0.021975515 0.08265612 0.115905784 0.16709219 0.15065852
0.053498726 0.0751822 0.0007863104 0.05082079 -0.0125406915 0.10959795 -0.056045424 0.0924387
0.067515075 -0.0040409938 -0.017461892 0.07238133 -0.044412255 -0.06641242 -0.005485725 -0.06908274
-0.20972127 -0.14127184 -0.22665489 -0.08369004 0.028929092 0.0067827944 0.09477178 -0.024378302
0.00781208 0.06464246 0.0229844 -0.069226265 0.06747727 -0.117080905 -0.100563385 -0.049216334
-0.14928475 -0.14128324 -0.21343578 -0.1438688 -0.10821149 -0.16543579 0.0739595 0.07809959
0.040242516 -0.09470055 0.07461917 0.07027057 -0.024000606 -0.17309476 -0.15974846 -0.16756068
-0.25745258 -0.24653116 -0.06200043 -0.045590047 -0.034387074 -0.0982248 -0.052327156 -0.0952092
0.122657105 0.0019772006 0.10814203 0.08709324 0.06743987 -0.023913946 0.04078125 0.01884461
-0.05434749 0.103381455 0.15022503 0.09613297 0.12431608 -0.08534614 0.029950878 0.11956295
-0.08183029 0.08092978 0.07660149 0.1192998 0.020290228 0.022368625 0.16839524 -0.018161459
0.02614591 -0.022626374 0.078658864 0.1262743 0.10731047 0.11427853 -0.058623087 0.121278785
-0.030393304 -0.011348412 0.0966551 0.07540602 0.12590775 -0.0047420384 0.02698129 -0.03810581
0.13340883 0.07542268 -0.036354516 -0.002515823 0.098141484 0.039315034 0.1367778 -0.04972911
-0.005971969 -0.14209825 0.04181777 0.057974227 0.035513245 -0.13381591 0.03483022 -0.026299518
0.007861389 0.042237114 0.09709399 0.013981974 -0.20688176 -0.07317305 -0.0038440153 -0.1316449

image_to_features.0.bias f4 [16]
00000000: 0459 313d 535e 993d f543 7bb9 78bd ddbb
00000010: 334e 39bd 23ba 3a3e 2c6e d43d ded7 99bd
00000020: ebb5 183c 7780 193e d6ad b4bc 0065 df3d
00000030: d996 313e a0a6 1a3d 72e9 3a3e 2543 363e
0.043297783 0.07488694 -0.00023962541 -0.006766971 -0.045240592 0.18235068 0.10372576 -0.075118765
0.009320716 0.14990412 -0.022055548 0.10907936 0.173427 0.037756562 0.18253115 0.17799051

image_to_features.2.weight f4 [32, 16, 4, 4]
00000000: 140c 063d e25c 163d 5d53 f6bc bde6 1b3d
00000010: 4ea0 883d dd37 863c e013 c73c b752 bb3b
00000020: 3b15 4f3d be66 7b3c 3b1b 293c d855 90bd
00000030: 66ce 0d3d 1b98 c6bb 091f 4fbd 21a7 41bd
00000040: 6012 853d 2376 053c b1c3 afbb 710b ddbc
00000050: fbe4 a03d aaf8 9c3d 2042 a63d ad6e 633d
00000060: fbb4 66bc f820 213d 6a9b 623d 0e3f 843d
00000070: bdea 0a3d 2e4a 993c 6929 a9bc 7253 ac39
00000080: 8ca7 d13c 826c 4abd 2f4e 483c 7a4e 2abc
00000090: dfb9 4b3c 870f 2d3b 279c 12bc 2818 8d3d
000000a0: 3acd bebc b04f 23bc d152 1c3b 8d31 dcbb
000000b0: 7370 0d3d ffed 81bc ebb3 753d 6be2 bcbc
000000c0: add4 7c3d 5622 a63c 3ac0 eb3c f44c 15bc
000000d0: bec1 453d 7e14 b6bc c568 603c fef5 fbbc
000000e0: 6b4c bc3d fab3 b63c 4a99 76bc be85 2ebb
000000f0: 345b 933d 0cb6 8d3c 876a 6d3d ee2c 963c
00000100: 0589 91bc e1e6 36bc 8e78 8c3d 8fdd 623d
00000110: bb84 cf3c f2eb 713c f5e6 ba3b d90d 333d
00000120: 5667 84bc 91ad bd3d a38a 273d e9f1 993d
00000130: b645 933d 30e5 ba3d e63b 953d e9e1 263d
00000140: c7a9 d73d 5e4f c93c 4fd8 b03d ff34 ae3d
00000150: ea18 5f3d 1277 02bd 88c9 ae3c c4f1 8f3d
00000160: d10a 273d 409a 613c 7188 523d d1cf a53d
00000170: c119 ed3c bd3e 943d 1212 b4bc 6329 333d
00000180: aeaa 7c3d 7494 973d c431 db3c 004d 33bd
00000190: b2f6 5b3d f715 95bb 18fd 373d 0e2f 49bd
000001a0: e7db 4e3a 0af8 a63c 59c4 12bd 67d4 823c
000001b0: 8302 4fbd b4b8 873b 3d8a fa3c 0d1b 2b3c
000001c0: 9242 f0bc 64cd 693d dfe5 ea3c d9f7 14bd
000001d0: 25ba 613d bfaa 4a3d 0bcb 323d 6ed7 4fbd
000001e0: 762c 303b 6d75 193d 0d70 66bd 063a adbb
000001f0: 5ea8 c43b 30e6 80bc 6633 0cbd 33bd 32bd
00000200: 29e6 a63c 2a15 763d 3fc2 55bb 19c2 acbb
00000210: cf56 4a3d 7cc8 b7bc 464c 2b3d fc5a 17bd
00000220: e086 50bb 3463 7f3c 09c4 e13c b774 f63c
00000230: 78b4 203d 10f6 53bd 01fe 16bd cd22 3c3d
00000240: 08be 02bd 6fbd 58bc 7f28 2dbd c74e 79bc
00000250: 09cb 18bd fbec e03b dc8a 7bbc 3721 22bd
00000260: bba5 8bbd 55a6 ff3c 5d9e 1c3d 4973 963c
00000270: 0b18 0fbd c295 203d 2129 2cbd fac3 25bd
00000280: 630d 523d 7077 513d ede2 823d f874 413d
00000290: d6f8 9e3c 24ed 0abc 964f 25bd 0251 2f3b
000002a0: 0fbe 9b3d 7cd5 4bbd 3a93 02bd 281d 533d
000002b0: 75e2 81bc f2b8 25bd a960 243c 1a27 23bd
000002c0: 9e49 113d 3152 173c 5066 cb3c 22c7 853c
000002d0: fcbc b1bc fde1 673c d2c3 8fbc 2f0e c93c
000002e0: c708 d63b fa7a 433d 7cf3 90bc c844 c43c
000002f0: 1302 943b 1392 063d 9ac6 d93c bb9b ba3b
00000300: c5ee 593d ab88 12bd f29b 743c e424 9bbb
00000310: c72e 883d 8415 83bd f73a 7e3c fe88 9a3c
00000320: 2bd8 8a3d 30ea 3dbd 93bd 803d 0ff5 f33c
00000330: b041 243c 70e6 e5bc 5576 ce3c 0b5b adbc
00000340: 01fa ee3c 98b5 6c3d a9c7 89ba 193b f83c
00000350: fe28 913d 1dc3 0a3d 42c4 153d fc56 003d
00000360: c654 ce3c 8369 863d d9aa 653d 0c75 403d
00000370: b904 873d 03fd 1ebc a547 a4bc 0e62 643d
00000380: 6bda b43d a8c7 b73d ca7f c53d 469c e93c
00000390: 4832 b93d 0db3 563c a9e9 e83d e43b 1f3d
000003a0: f84c 8c3c 84d2 c33d 4fc4 a23d 39b2 df3c
000003b0: b4de 9e3d 8b89 d23c 9903 a83c 7c38 473d
000003c0: e3a2 19bd 8227 35bc ecbb 84bc 9cfc 63bd
000003d0: 9a61 09bd cc91 95bc bd6b dfbc db89 9b3c
000003e0: 92d7 9d3c 4baa 673d b970 983c ad85 1d3d
000003f0: f7bf 0abd 5768 cdbc 2690 f9bc 18e5 a6bc
0.032726362 0.036709674 -0.030069048 0.038061846 0.06671201 0.01638406 0.02430147 0.0057166475
0.050557356 0.01534432 0.010321434 -0.070476234 0.034620665 -0.006060613 -0.050566707 -0.047278527
0.064976454 0.008145842 -0.0053639044 -0.026982995 0.078561746 0.076646164 0.08118081 0.05552547
-0.014081235 0.039338082 0.055323996 0.06457339 0.03391527 0.01871213 -0.020649629 0.00032868568
0.025592588 -0.049419887 0.012225672 -0.010394687 0.012434452 0.002640696 -0.008948362 0.06889373
-0.023291219 -0.009967729 0.0023853073 -0.006719774 0.034531068 -0.015860556 0.059986036 -0.023057183
0.06172626 0.020280045 0.028778184 -0.009112585 0.04828047 -0.022226568 0.013696854 -0.030756947
0.09194263 0.022302616 -0.015051195 -0.002663001 0.0719513 0.01729872 0.05796292 0.018331971
-0.017765531 -0.011163444 0.068589315 0.055387076 0.025331846 0.014765726 0.0057038018 0.043714378
-0.016162556 0.09261621 0.0409037 0.07516844 0.07191031 0.09125745 0.07286815 0.04074279
0.10530429 0.024573978 0.086350076 0.08506202 0.05446712 -0.031851836 0.021336332 0.07028535
0.0407818 0.013769686 0.051399652 0.080962785 0.028942944 0.07238529 -0.021981273 0.04374064
0.06168621 0.07401362 0.026757129 -0.043774605 0.053702064 -0.0045497376 0.044919103 -0.04911714
0.00078910444 0.020381946 -0.035831783 0.015970422 -0.050539505 0.0041418914 0.030583495 0.010443461
-0.029328618 0.05708064 0.028674064 -0.03636918 0.055109162 0.049479242 0.043650668 -0.05074256
0.002688197 0.0374655 -0.056259204 -0.005286458 0.0060015162 -0.015734762 -0.034228705 -0.043637466
0.02037342 0.060078777 -0.0032617 -0.0052721617 0.049399193 -0.022434466 0.041820787 -0.036952004
-0.0031818673 0.015587617 0.027559297 0.03008495 0.03923461 -0.051748335 -0.03686333 0.045931626
-0.03191951 -0.013228758 -0.04227495 -0.015216536 -0.037303004 0.006864188 -0.015352931 -0.039582457
-0.0681872 0.031207243 0.038236964 0.01836552 -0.03493504 0.03920532 -0.04203141 -0.0404701
0.051282298 0.051139295 0.06390939 0.04723069 0.019405764 -0.00847939 -0.040359102 0.0026751165
0.0760461 -0.04976414 -0.031878687 0.051541477 -0.015855053 -0.04045958 0.010032811 -0.039832212
0.035470597 0.009235905 0.02482906 0.016330305 -0.02169656 0.014153001 -0.01754943 0.024542896
0.006531808 0.0477247 -0.017694227 0.023958579 0.004516849 0.03285415 0.026583958 0.005694834
0.053206224 -0.035774868 0.014929758 -0.0047346223 0.06649547 -0.06400588 0.015516988 0.018864151
0.06779512 -0.046365917 0.062861584 0.029779939 0.010025427 -0.028063983 0.02520291 -0.021161577
0.029171946 0.05779037 -0.0010511774 0.030301617 0.07087897 0.03387748 0.03656412 0.031332955
0.025186908 0.065630935 0.056071136 0.046986625 0.06592698 -0.009703877 -0.020053694 0.055757575
0.088307224 0.08973628 0.096435145 0.0285169 0.090427935 0.0131042125 0.11372692 0.038875476
0.017126545 0.09561637 0.07947599 0.027306663 0.07757321 0.025700351 0.020509528 0.048637852
-0.037508857 -0.011056783 -0.01620289 -0.05566083 -0.033540346 -0.018257998 -0.027273053 0.018986633
0.019267831 0.05655889 0.018608438 0.03845756 -0.03387448 -0.025074167 -0.030464243 -0.020372912

image_to_features.2.bias f4 [32]
00000000: 5061 703b d301 973d ea44 cabc 5668 943d
00000010: 3559 683c 50c9 5cbc d792 bb3b f27d 203d
00000020: f91f 473d 2e5b d43d 32d4 eebc 8944 90bd
00000030: c38c d8bc c3c6 c73d f16f 723c 0f18 0fbd
00000040: 2eba f33c c13f ab3d c7b0 773d 0ef9 e43d
00000050: 2ebf 4e3d c170 fb3c c90f 113c a0cc 5bbd
00000060: 3d95 6e3d 8e24 bfbc 5d89 3a3d 5269 4abd
00000070: 1fdf 793b fe42 803c f90d 1d3d dbf8 f8bc
0.0036679097 0.07373395 -0.024691064 0.07246463 0.014181425 -0.013475731 0.005724292 0.03918261
0.048614476 0.10368954 -0.029153917 -0.07044322 -0.026434308 0.09754708 0.014797197 -0.034935053
0.029751863 0.083617695 0.060471322 0.11180316 0.050475292 0.030693414 0.008853861 -0.053661942
0.058247793 -0.02333286 0.045541156 -0.049416848 0.0038127375 0.015656944 0.038343403 -0.030392101

image_to_features.4.weight f4 [64, 32, 4, 4]
00000000: 8992 d63c e852 6a3d 6c71 433d 118f 383d
00000010: 9138 153d a153 3f3d 7c8f 5b3d cd61 1c3c
00000020: 28e8 a13c ff0b c9bc 7923 ae3c 280a 303d
00000030: 90ba cebc 28df 8c3c 0d33 7f3d a6c1 793d
00000040: 6169 00bc 9d29 e5bc 8305 813c bbd6 323d
00000050: 0baa 5a3d 078c 7a3b 83f4 ba3d 83fb fdbb
00000060: 7f60 243d 7362 553d 3dc6 883d b44f 0e3d
00000070: 6745 513d 1cf2 333d 0555 163d c253 ec3c
00000080: 5bec f1bc 73a4 2bbc 85a8 0b3d ca8d 263d
00000090: 8e7f 823c de52 f0bb 15b6 6f3c 80e5 a83b
000000a0: 8f0a 683d 2f77 553d a6a8 f03c a900 833d
000000b0: e8ca bc3d 8c85 373d 5f0f 313d fae7 653d
000000c0: 0a0d cabc 93c7 003c becd a63c bd8d 843d
000000d0: 2a81 0b3d f08c eebb a645 b9bc a513 153d
000000e0: e33d 11bd a81b 4d3c e23a 0c3b 7844 94bc
000000f0: e56a d73c 4a21 56bc 51ed 4dbb 4ec5 bc3c
00000100: 6627 a53d a9fb 8e3d 0202 0bbd 6b22 e4bc
00000110: 2413 6b3d 6b24 883d 72c1 d0b9 9194 3a3d
00000120: 10fc c33c 0d18 2e3d 7bad 803c 0b0c 3abb
00000130: 0547 593d d71f a43d 8372 b239 250b 863d
00000140: 65a9 623d 5b63 98ba 0b78 9e3c 7e1e 7b3d
00000150: ded5 b7bb c62d 653c 38e7 063d c9b5 db3c
00000160: cf3f 32bc d50c a03c fbfb 353d 9f6a 253d
00000170: f887 103d 81fd c53c dd67 bebb 11cc 643d
00000180: b30a 56bc 6d01 3fbd 2345 9c3d 82e3 0b3c
00000190: 84ce 4b3b b451 76bd 73c6 67bb 2039 433b
000001a0: 1c38 9a3c 3e92 2cbc 6cc0 eb3b e171 a3bd
000001b0: c3ab 22bc dd3c 303c 4415 293b 3589 5e3b
000001c0: 6162 9b3c b7b5 43ba eedb 693d 35aa c8bc
000001d0: d446 8b3d 229b 61bd 2b6b fd3c 9e3c 70bc
000001e0: 30fa d2bb 91dd ef3c cfa9 4b3d a99a 293c
000001f0: fb02 fb3d 7806 633d 323b 023e 203d a03d
00000200: 3406 9b3c 74cc fcbc a0b6 703c ef59 a83b
00000210: 778e 213b 919d ddbc 27cf 263b 4c53 06bd
00000220: 1ba5 6ebc 237f a8bc 1fb1 533d 766b 893d
00000230: 9cf6 563a 93b7 10bc f127 673c 1949 863c
00000240: ff8b 033d 0e5d a83d 6851 d03c a687 373d
00000250: 7696 ec3c 2adc 2d3d 1f24 053d 8616 373d
00000260: f48b 153d f83e c6bb ac2d a1bc dcae 9d3c
00000270: f8f2 12bc a9c7 723b f2ae bd3c c760 0abd
00000280: 4f1f 83bc 02bb eebc 9b42 a6b6 017d 043d
00000290: 118c 0b3d 611a b03c 89d9 9a3c 2a5a b93c
000002a0: 85f2 223c 4a71 563d cad0 6b3d 0b65 e83c
000002b0: f843 0c3d 2195 353d cadf aa3d 0002 5b3d
000002c0: 6b3c 843d 6b07 86bb 8545 2a3c 567a 313d
000002d0: 7586 bebc 7051 00bd 6efd 2f3c 15b7 583d
000002e0: 98c9 783c 155e 0abc 2616 b6bc 8bd2 a53c
000002f0: 8007 77bc 99e1 103c 44f6 8bbc 2d04 1dbc
00000300: 04fe 11bd 16b9 47bd 3147 91bd 22dc a8bd
00000310: 55f6 81bb 53da c5bc 24fb 96bd e2ef 02be
00000320: 0147 acbc 832d a4bd 2fc1 91bd d093 e3bd
00000330: b2ab 313d fc11 343c 0d6d 0c3b 74a1 88bd
00000340: 9266 923c 08fb 103d 0f83 153d 7bdb 573a
00000350: 7ab2 913c a394 b03c b602 a03d 5d87 963c
00000360: 634e 0e3d 904b 15bd b99e b53c 9257 3f3c
00000370: d632 27bc d7b5 123d a0b1 2a3d 7fab 2a3d
00000380: 35af a9bd 9724 00bd 90e5 a7bc a4d4 3fbd
00000390: c953 f4bc 9c32 a7bd 4225 8ebd dc13 d3bd
000003a0: e7c1 54bd 71df 22bd c21f 40bd e861 a4bd
000003b0: 51c6 25bc 5593 673c 82d5 f1bc 5f32 18bd
000003c0: 644f b0bd 5931 d1bd c0f3 79bd bfd1 abbd
000003d0: 5391 033d 9155 80bd e834 a23c a581 dbbc
000003e0: 2f0b 26bd 3680 a2bd 477f 6bbd ed86 1ebd
000003f0: 4d4a eb3c bd4f 2c3d a608 a23d 529d b43c
0.02619292 0.05720797 0.04771559 0.045058314 0.0364309 0.046710614 0.053603634 0.009544802
0.019764021 -0.024541853 0.021257149 0.042978436 -0.025235444 0.017196253 0.062304545 0.060975693
-0.007837624 -0.027973944 0.015749699 0.043661814 0.05338482 0.0038230435 0.09128668 -0.00775093
0.04013109 0.05209584 0.06678436 0.03474398 0.051091578 0.043932065 0.036702175 0.028848533
-0.029531648 -0.0104762195 0.03409626 0.040662564 0.015929963 -0.0073340973 0.014630814 0.0051543117
0.056650694 0.052115615 0.029377293 0.0639661 0.09218389 0.044805095 0.04322755 0.056129433
-0.02466442 0.007860082 0.020361777 0.06472347 0.034058727 -0.0072799847 -0.022616219 0.036395688
-0.03545941 0.012518801 0.0021397402 -0.018099055 0.026296088 -0.01306946 -0.003142197 0.023043301
0.08064155 0.06981594 -0.03393746 -0.027848443 0.0573913 0.06647571 -0.0003981698 0.04555184
0.023923904 0.042503405 0.015707722 -0.0028388526 0.053046245 0.080138855 0.00034036124 0.065450944
0.05533733 -0.001162629 0.01934435 0.061308376 -0.0056102118 0.013987964 0.03293535 0.02682008
-0.010879471 0.019537369 0.04442976 0.040384885 0.03528592 0.024168732 -0.0058107213 0.055858675
-0.013064074 -0.04663222 0.07630374 0.008538129 0.0031098435 -0.060136512 -0.0035366088 0.0029788688
0.018825583 -0.010532914 0.0071945693 -0.07980705 -0.0099286465 0.010756698 0.0025800029 0.0033956293
0.01896781 -0.0007465737 0.057094507 -0.024495224 0.06800619 -0.055079587 0.03093489 -0.01466289
-0.006438516 0.029280456 0.04972249 0.010351815 0.12256428 0.05542609 0.12717894 0.07824159
0.018923856 -0.03085921 0.014691979 0.005137674 0.0024651566 -0.027052673 0.0025453062 -0.03279428
-0.014565731 -0.020568436 0.051682588 0.0670995 0.00082002 -0.00883283 0.014108644 0.016392278
0.032115933 0.08220874 0.025429443 0.0448071 0.02888034 0.042446293 0.03250515 0.044699214
0.036510423 -0.006049987 -0.019675098 0.019248419 -0.008969061 0.0037045276 0.02315471 -0.0337837
-0.01600614 -0.029141907 -4.9549394e-06 0.032345776 0.034069125 0.021496953 0.018902557 0.022626001
0.0099455165 0.052354135 0.057572164 0.028368494 0.034244508 0.044331674 0.083434656 0.053468704
0.06456836 -0.0040902398 0.010392551 0.04332956 -0.023257473 -0.031327665 0.010741575 0.052908976
0.015184782 -0.0084452825 -0.022227358 0.020241996 -0.015077472 0.008842849 -0.017085202 -0.009583515
-0.03564264 -0.048760496 -0.07093657 -0.08245112 -0.0039661326 -0.024151957 -0.0737212 -0.1278682
-0.021029951 -0.08016493 -0.07116925 -0.11112177 0.043376632 0.010990616 0.0021427304 -0.0667142
0.017871175 0.035395652 0.03650194 0.0008234304 0.0177853 0.02155525 0.07813017 0.018375093
0.034742724 -0.036449015 0.022170411 0.011678593 -0.010204991 0.035817947 0.041673303 0.041667458
-0.08285371 -0.031284895 -0.020495206 -0.04683365 -0.029825108 -0.0816395 -0.069407 -0.10306522
-0.051942732 -0.03976387 -0.046905287 -0.08026487 -0.010118083 0.014134248 -0.029520754 -0.037157413
-0.086088926 -0.102144904 -0.061023474 -0.08389615 0.032121014 -0.062663205 0.019800618 -0.026795218
-0.04053801 -0.079346105 -0.057494428 -0.038702894 0.028721953 0.04206823 0.07911806 0.022047672

image_to_features.4.bias f4 [64]
00000000: d1ec 503d 7e12 363d 8161 993b 7230 bf3c
00000010: 8292 0e3c 86ac 3bbd da43 7d3c e9af d0bc
00000020: d829 24bc 4b71 923d 1655 ba3c be02 14bb
00000030: e0f1 993c d068 033d 9230 4a3b 3e02 2abd
00000040: d331 ae3c 7174 a63d b9d0 cebc 7070 873d
00000050: 09c3 d93b a079 6d3c f6ec e13c 2d93 2dbd
00000060: 9f13 593d 6273 c23d 9dec f83d 96c9 873d
00000070: ca0c 1f3d 51c5 cc3c 6a3c 94bc 06fa 0fbc
00000080: e574 00bd 65d9 71bd 9859 a83d 306c 14bd
00000090: b414 ef3c 777e 2dbc 7598 bc3c a944 2e3b
000000a0: c7b5 8e3d b618 3fbb 6521 f63b 5fcb 0c3c
000000b0: b8e1 4c3d 114e 063b cb37 a0bc 71af 8dbc
000000c0: 1fdd 91bc b583 273d c6dd a53c f3ea e53d
000000d0: c082 1f3d 3441 a33d a3b7 913c 2b58 783b
000000e0: 2d87 44bd 5aea e63c 6684 713d e282 803d
000000f0: 90ad b43c f4f1 cc3c ac9f 203d 2e16 d13d
0.051007096 0.04445123 0.004680813 0.02333853 0.008701922 -0.045818828 0.015458072 -0.025474505
-0.010019742 0.07150515 0.02274565 -0.0022584642 0.018792093 0.03208238 0.0030851704 -0.041506045
0.021263992 0.08127678 -0.025246011 0.066132426 0.0066455645 0.01449433 0.027578812 -0.042376686
0.052997228 0.09494664 0.121545054 0.06630246 0.038830556 0.024996432 -0.018095214 -0.008787638
-0.03136148 -0.059045214 0.08220214 -0.03623599 0.029184677 -0.010589234 0.023021916 0.0026591218
0.06968265 -0.0029159016 0.007511305 0.008593409 0.05001995 0.0020493309 -0.019557854 -0.017295571
-0.017805634 0.04089709 0.020247351 0.11226454 0.038943052 0.07971421 0.01778776 0.003789435
-0.047980476 0.02818792 0.058964156 0.06274964 0.022055417 0.025017716 0.039214775 0.102093086

image_to_features.6.weight f4 [128, 64, 4, 4]
00000000: d186 7e3c b97a b33c f965 bb3c 3496 6d3c
00000010: 0998 bbbb 3a0f 21bd f32a 89bb 539e 0b3c
00000020: 7c75 4abd 89b9 06bc 1872 43bc 2419 acbc
00000030: 2474 74bb c450 b7bb 83e9 053c 1ec7 973c
00000040: c46e 2a3c 9adc 313c c476 743c b2f4 013d
00000050: a5f7 1dbd 788b 83bc b8a7 5dbd c4e2 2a3b
00000060: f4c7 42bd 158d b4bc 7e85 88bd a134 0cbd
00000070: 59da 32bc f6bc 8bbc 2893 d8ba 18e6 063d
00000080: 1e54 1b3d 7da1 6e3b 5dd8 543d 4c9b 64bc
00000090: f9a1 ce3d 21d5 953c b8cf 503d 272c e93d
000000a0: 719d 923c 1216 2c3c 9d7c c13c 9ad9 8c3d
000000b0: 0557 873c 9d92 903d 03de 8f3d 6879 933d
000000c0: 13a5 ec3c 1bfa 933d ef1b 363d deb2 143c
000000d0: 653e 9d3d e3fa d53d ea21 f33d 161a cd3d
000000e0: d9ad 023e 4d89 1d3e 2e74 2b3e 3e55 e23d
000000f0: 7124 383c 1113 ce3d c470 963d c4f3 b33c
00000100: 65a9 c23d d9b4 cc3d ef8b d83d 152f 6c3c
00000110: ff24 db3d 0dd3 233e 8b18 fe3d 2813 aa3d
00000120: a46f 213e d0ff 0d3e c75f 1c3e e80d a53d
00000130: 3021 b9bc 68f3 d23d ff72 ee3c f08c 9739
00000140: 232f f43b 44af b93d 3a8d 333d 5616 f1bb
00000150: e5f2 d93d 0943 303e bfda e73d 1217 e33d
00000160: ae55 9e3d 24cf d43d 9424 183e b481 d73d
00000170: 7591 e63c d8cc dc3d 5a32 6b3d 3b5e b73c
00000180: 0d70 913d 90aa a73d abdb 7e3d 8f14 0a3d
00000190: b169 e93d ad9d b93d 6152 e53d 2310 5f3d
000001a0: 7c54 cb3d 4670 f73d d26a 933d 7cff 0b3e
000001b0: f252 ba3c 94b0 e03d 97a3 0b3c a34e 053b
000001c0: 86e8 c63c b0e2 943d bde3 af3c 6d64 f83c
000001d0: 6b93 953d ddc6 e63d a5b3 a23d 2f14 843d
000001e0: f98a 043e 89ef 0b3e 277a df3d bfa6 e03d
000001f0: bd46 7cbd 621e 363d 0929 8ebc 43bf 75bd
00000200: e343 333d 5d8e 843d 78cd 153d c16a 29bd
00000210: e6e7 ac3d e0eb ef3d dd01 b63d a836 543d
00000220: 803a fb3d 17e0 9d3d 9423 ee3d b05a d33d
00000230: 322c 33bd 1b24 ee3c 7f9e 9c3d af1a 95bc
00000240: 5ca0 16bd 493a 0c3c 9f9d 14bd 5789 b3b9
00000250: 9bb3 e4bc 65b6 b43a 6dd6 0f3b 7497 f2bb
00000260: 2744 64bd 2e2a 433c aea6 eb3c d2ef 3e3c
00000270: 2026 723b 019c 613d ea89 38bc e356 7c3d
00000280: 6348 1fbc 2b91 5c3d 7bd6 a43c 6883 cb3c
00000290: c451 25bd 3b25 d13c a7d6 4cbc 7336 ec3c
000002a0: bdbb a8bd 42cb 1a3d 9419 1dbd b08c 7bbb
000002b0: bb76 8dbd de0e 0bbd fee8 62bd 97e9 be3c
000002c0: ddc0 2f3d c4c9 893d 521c 473d be21 e13c
000002d0: 1f35 0c3e 015c ff3d bbdf 033e d0a0 5d3d
000002e0: a15d e43d 320f 213e d13e 0d3e 3795 bd3d
000002f0: 4f6e a7bc 67bb 9a3d 7b1e 493d b6fc a2bd
00000300: 9d8a 98bd dcb7 24bd 8f70 bdbc 7b6c ddbc
00000310: 0dd5 73b9 bbf8 31bb 9875 d0bc 8da8 273b
00000320: c083 d4bc 37b5 873c 3485 18bc 89dc d7b9
00000330: eb30 9ebc af8a 25bc 53c3 5d3c 9e2a 6ebd
00000340: 2d87 e23b b24e 853d 5710 4a3d 0c31 6a3b
00000350: a41b b13d 019a 3d3e b997 d53d 1700 cd3d
00000360: 56f7 973d a56f cb3d d32a e63d 1707 aa3d
00000370: 465c 133d 5b61 173e 37cc d13d 6ce1 6b3d
00000380: aba0 f7b9 4c3d 1a3c 68d9 aabc 0352 e03c
00000390: d271 3cbd 57b3 77bc 1b2f 10bd bf9e 31bd
000003a0: 7db2 28bd c5b7 4e3d e629 6a3b 67c0 3c3d
000003b0: d34d 4ebd 4e0a e7bc 9018 66bd 7da8 36bd
000003c0: d28e a13c 9de7 9f3d 9fb9 853d 6447 213b
000003d0: 183c e03d f279 193e 5d95 f33d 1529 fc3d
000003e0: 04d4 e73d 3cf1 bb3d 48b2 df3d ee02 003e
000003f0: 4548 bc3b 957e e33d 6490 843d fa2b 633d
0.015535072 0.021909105 0.022875773 0.014501143 -0.005724911 -0.03932116 -0.004186028 0.008521634
-0.049428448 -0.008222946 -0.011929058 -0.021008082 -0.003730067 -0.005594345 0.008173349 0.018527564
0.010402385 0.010855818 0.014920894 0.0317275 -0.03856625 -0.016057715 -0.054115027 0.0026075104
-0.04755397 -0.02203993 -0.066660866 -0.03422988 -0.010916316 -0.017057877 -0.0016523348 0.03293428
0.037922017 0.0036412172 0.051964153 -0.013953041 0.100894876 0.018290104 0.050979346 0.113853745
0.01789734 0.010503309 0.02361899 0.06877442 0.016520986 0.07059214 0.07024767 0.07200891
0.028887307 0.07225438 0.044460233 0.009075848 0.076779164 0.104482435 0.11871703 0.10014741
0.1276163 0.15384407 0.16743538 0.11051415 0.011239157 0.100622304 0.07345727 0.021966822
0.09504966 0.099954315 0.10573565 0.014415522 0.10700416 0.15998478 0.12407025 0.08304435
0.15765244 0.13867116 0.15270911 0.08059293 -0.022598833 0.10300332 0.029107569 0.0002890597
0.007451908 0.090666324 0.043835856 -0.007357399 0.106420316 0.17213072 0.113210194 0.11088385
0.07731186 0.103910714 0.14857703 0.10522786 0.028145531 0.10781258 0.057421066 0.0223838
0.0710145 0.08186829 0.06222121 0.033711012 0.11397112 0.090632774 0.11197353 0.05445875
0.099282235 0.12081961 0.07198109 0.13671678 0.02274463 0.109711796 0.00852289 0.002034106
0.024280798 0.072698 0.021470899 0.030321324 0.07303508 0.11268399 0.07944421 0.06449162
0.12943639 0.13665594 0.109119706 0.10969304 -0.0615909 0.04446257 -0.017353551 -0.059996855
0.043765914 0.06472466 0.036572903 -0.041361574 0.084426686 0.117149115 0.08887074 0.051809937
0.12267017 0.07708757 0.1162788 0.10320032 -0.04374332 0.02906995 0.07647418 -0.0182012
-0.036774024 0.008558818 -0.03628313 -0.00034243867 -0.027917674 0.0013787268 0.0021947876 -0.0074033085
-0.055729058 0.011911912 0.028766003 0.011653857 0.0036948994 0.055080418 -0.01126335 0.0616063
-0.009721848 0.05384938 0.020121804 0.024842933 -0.04036118 0.025530448 -0.012502349 0.028834557
-0.08238933 0.037791498 -0.03835447 -0.0038383417 -0.06907412 -0.033949725 -0.05539798 0.023304744
0.042908538 0.06727937 0.048610993 0.02748191 0.13692139 0.1246872 0.12878315 0.05410844
0.11150671 0.15728453 0.13793494 0.09256976 -0.020438341 0.075552754 0.049101334 -0.07958357
-0.074483134 -0.040214404 -0.023124961 -0.027029267 -0.00023253653 -0.0027156312 -0.025446698 0.0025582642
-0.02594173 0.016565902 -0.009309102 -0.00041172307 -0.019310435 -0.0101038655 0.013535338 -0.05814611
0.006913087 0.065091506 0.04933199 0.00357348 0.0864785 0.18515779 0.104293294 0.10009783
0.074202225 0.09933404 0.11238637 0.083021335 0.03597667 0.14783232 0.10244029 0.057588026
-0.00047231218 0.009414028 -0.02085562 0.027382856 -0.046006985 -0.015118442 -0.035201173 -0.043364283
-0.041185845 0.050468225 0.003573054 0.046081927 -0.050367188 -0.028203156 -0.05617577 -0.044594277
0.019721422 0.078078486 0.06529545 0.0024609203 0.10948962 0.14987925 0.11893723 0.12312523
0.11319736 0.09176871 0.10922676 0.12501118 0.00574592 0.11108128 0.06472853 0.05546186

image_to_features.6.bias f4 [128]
00000000: a539 9cbc eaef 7c3d bbb2 c1bd 0882 bb3a
00000010: e535 03bd 738e 6c3c affa ccb9 1b8f 1bbd
00000020: a7e1 863d 3624 e13b ba44 c5bb 2856 08bd
00000030: e61e f4bb 2573 ae3c 9143 5dbc 255d 4ebd
00000040: 9edd 7f3c 52de c93d 0ec7 cc3d 7d4f 27bd
00000050: 84f2 e6bc cb23 1f3c a92d d6bb 7c65 7cbb
00000060: 72dc a7bc 07f0 7a3c 71d7 02bd bf51 f43b
00000070: 744c 713d c03b d3bd ba53 44bd 5f79 0abd
00000080: d1c9 51bd 3492 e0bb 92c8 d23c ece8 0cbc
00000090: 633a 0b3d d9d4 8bbc d265 9db9 1836 d4bc
000000a0: f21a aabc 877d 22bc 089e 29bc ac7d 80bd
000000b0: 6cf1 7d3d 558d 27bc 1c1a 4a3d 667d 3fbd
000000c0: 9322 01bd dc96 ce3c e8c3 c6bc 0e07 513d
000000d0: fa57 c8bd 4929 c3bc ab1a a2bc b0bc 93bd
000000e0: 6806 533c 0638 6cbb c7cc 27bd 97b0 543d
000000f0: e1fc 823d a179 8abc 68b8 b7bc f098 99bc
00000100: a36d 45bd 63b9 29bd 39bf 49bd 09b6 5f3d
00000110: 820b 733d 9336 a13c a0b4 0bbd c218 d23c
00000120: 6e22 12bc 03a9 643c 1219 dc3c 32dc 7bbd
00000130: 5bd0 49bd 24c5 70bc aa78 a6bd 90c7 70bb
00000140: 1cfb a73d 4093 3b3d 82a4 2d3d 4043 35bd
00000150: 6dcf 253d c624 54bc 16bd cabc c6c0 083d
00000160: 94d5 18bd 1680 7fbd 1a44 02bd d451 b63b
00000170: 1772 f53c a54c 3abd 83a9 fbbc 2904 303a
00000180: 143e 8fbd a9da a73c a95e dd3c 98f0 04bd
00000190: 5aca 6fbc af7b 05bd 816c 4fbd a783 123b
000001a0: d7bb 833c 5f5e dd3c 97f5 92bc d1e9 4f3d
000001b0: c011 a13c 2d42 26bd 4bdb 9dbc 1925 03bd
000001c0: 41f5 363d 8a8b ab3d b97f e73c 7244 993d
000001d0: 66a6 8dbd a9e5 bc3b 1c2f f9bc 7226 313d
000001e0: 8bc6 a63d ccbf 683c 471e 5ebd 437a 1fbd
000001f0: 7aed 583c edfa 2a3d 55e2 473c f7c3 15bd
-0.019070456 0.061752237 -0.09457918 0.001430572 -0.03203382 0.014438259 -0.00039096686 -0.037978273
0.065860085 0.0068707718 -0.0060201557 -0.03328529 -0.0074499724 0.02129514 -0.013504879 -0.0503818
0.0156168025 0.09856857 0.09998904 -0.04084729 -0.028191812 0.009713124 -0.006536205 -0.0038512638
-0.020490859 0.015316016 -0.031943742 0.007456034 0.058910802 -0.10314131 -0.04793141 -0.033807155
-0.051217858 -0.0068533663 0.025730405 -0.008600455 0.03399123 -0.017069267 -0.00030021236 -0.0259047
-0.020764802 -0.009917623 -0.010352619 -0.0627397 0.061997816 -0.010226567 0.049341306 -0.04675045
-0.031527113 0.02521842 -0.024263337 0.05103212 -0.09782405 -0.023823397 -0.019788107 -0.07213724
0.012879945 -0.0036044135 -0.040966775 0.05192622 0.06395889 -0.0169037 -0.022426799 -0.018749684
-0.04820026 -0.041436564 -0.04925463 0.05461696 0.059337147 0.019679343 -0.034107804 0.025646571
-0.0089193415 0.013956311 0.026867423 -0.06148929 -0.04927097 -0.0146954395 -0.081284836 -0.0036740042
0.08202192 0.045794725 0.042393215 -0.044253588 0.04048102 -0.012948221 -0.024748366 0.033386968
-0.03731306 -0.06237801 -0.031803228 0.005563954 0.029961629 -0.04548325 -0.030720478 0.0006714487
-0.06994262 0.020490007 0.027022677 -0.03245601 -0.014635647 -0.032588657 -0.050640587 0.0022356303
0.01608078 0.027022539 -0.017939372 0.050760094 0.019661784 -0.040590454 -0.019269606 -0.0320178
0.044667486 0.08376224 0.028259145 0.07483758 -0.069165036 0.0057646823 -0.030417971 0.043249555
0.08143338 0.014205884 -0.054228093 -0.038934957 0.013240213 0.041743208 0.012199958 -0.03656384

features_to_prob.0.weight f4 [1, 512]
00000000: 3cba 0f3e 42fb 3c3e 4efe 1d3e 95d5 153e
00000010: 6017 fbbb 7e88 00be 6c85 18be de92 bc3d
00000020: b726 0e3e 3724 8f3c 3069 233e a378 4e3e
00000030: 4750 acbb e777 11bd bd22 3dbb f969 013e
00000040: 9efa 7dbc 70a9 a8bb ebb8 163e d772 0cbd
00000050: c17b 883d e8bc 07bd 2415 99bc 75d4 89bc
00000060: 1f3e 063e 2b1d 81bd 6be1 3a3e e697 90bd
00000070: 03be c1bc 6332 183b 7474 f93d 6305 213e
00000080: a6aa 7a3d 244c d5bd 9500 f33d 2eee 73bd
00000090: a5cb a43d 1ad4 873d d775 0bbe 084a 14be
000000a0: 0513 8c3d 05c7 34bd 19ee 23bc 1168 e1bc
000000b0: aea8 e23d db80 1cbe 7b50 383e a276 5cbe
000000c0: 4aef ea39 4f4e af3c 6976 203e f2c6 403e
000000d0: 430b 1abd d05f 5abd 747a 56bc a606 d93d
000000e0: 37a5 203e 118d 1c3e 6a80 453e e207 f03d
000000f0: 0b31 1bbd df2c 96bc 6d36 103e 4741 273e
00000100: 620a 2a3e c02f fc3d efdf cf3d c398 cbbd
00000110: 59af a2bd e406 b63d cd93 c4bd 4e50 083e
00000120: 9651 d3bd 8516 b03d 2d6e 03be 2208 c53d
00000130: 659f c13d 9afb 413e 7cee 4c3e 2829 fb3d
00000140: 25c9 66bd 3992 c3bd 2ef3 093e 992b 0c3e
00000150: c8e3 083e 2321 9abd c9ef 183e eed1 b9bd
00000160: 6a8a 2a3e 4c82 053e 3967 373e 1aa5 193e
00000170: fd0a 053e 5e0f 303e 412e cbbd 755e 153e
00000180: 3935 2c3e 800a 093e 0a6b 263e fe6b 0f3e
00000190: 968e 09bd 0cf2 5ebd 6405 3f3d b0f8 bfbc
000001a0: 70a3 163e c807 e53d 6c15 2c3e 5583 173e
000001b0: dee9 643c 7ae6 b93d 5784 bebc aece af3d
000001c0: 7495 54bd 4fbb cd3d 49eb 00be 4a63 103e
000001d0: 12f4 313e cf07 2bbc 6810 343e fa39 5f3d
000001e0: 0d33 163e 3770 213e 4b59 173e a8cc 073e
000001f0: 9718 413d 362a 30bd 6ecf 04bd 47ab c2bc
00000200: 04de 183e e999 053e 4c12 183e 31ba 293e
00000210: f0fa f23d 9968 33bd f284 e6bc c142 29bd
00000220: 5ca3 ecbc 5361 3ebd 0214 3cbd 8a72 ee3c
00000230: fbf6 8ebc cd4a 2abc 6afe 173d 52be 7cbc
00000240: e32e 0abd 4fad 29bd 861b ecbc 5ea2 8abc
00000250: a83c 2d3e 578e 223e 875c 1a3e f7ee 1a3e
00000260: 8a10 8bbb f700 d13d e14d 1ebd 66a1 a83d
00000270: 515e dd3d df94 e13b b193 b63d 5a0d 1bbd
00000280: 747c 193e 7793 163e ec40 1e3e a463 2b3e
00000290: 7647 6cbc bed4 033d 33d7 db3d dfdc 163e
000002a0: 6227 193e d4ca 113e 519e 363e 103f ea3d
000002b0: 6540 f53d a914 89bd 7305 b2bd 1759 873d
000002c0: 29d3 96bd 94fb 9ebd 332e b9bd 9d7e f6bd
000002d0: 20fd 4a3d c7a8 4fbd 54ea 3c3e c4e9 aabc
000002e0: cd6d d43d c654 6a3d db0a e03d ca97 b8bd
000002f0: 5301 73bd 29fb 9abd 9674 123e 3c24 0d3e
00000300: 5277 1b3e 765b 0d3e c255 443e 3b2d 1d3e
00000310: 8bd9 56bd 293d 0ebd 8f50 eabc add2 2cbd
00000320: 31ea 163e b497 0e3e e738 043e 84ad 293e
00000330: 442b 97bd 63df e13c b3bb bbbd 9829 1dbe
00000340: 5a0a fa3c 2048 a73d b7ec 383e 8d8b 19be
00000350: 5ccb 243e 4c48 283e c156 223e ddaf 293e
00000360: cddb f33d d28e 9dbd a565 393e 7c88 c33d
00000370: ea53 1d3e 61b6 923d 4509 1f3e b873 a63a
00000380: 8afb 18bd cbb2 86bc 52e4 19bd 75d6 49bd
00000390: 7758 953d 4dee b0bd e2f7 ef3d 86cb 113c
000003a0: afb9 2a3e 0610 2d3e 3737 473e 4ed5 113e
000003b0: eca1 5dbd f0da 2ebd ab63 38bc 9442 c93d
000003c0: c5f9 d6bc 1db2 a5bc 8380 45bd 69e8 13bd
000003d0: 81b6 233e 9956 263e 30c6 223e 1fea 343e
000003e0: 7afd 983d 5a71 41bd a587 13bd cf8e 87bb
000003f0: b66d f73d 3879 663c 5599 be3d 37da 913b
0.14035887 0.18455222 0.15429041 0.14632256 -0.0076626986 -0.12552068 -0.14894646 0.092077
0.13881956 0.017473323 0.15958095 0.20163207 -0.0052585932 -0.03551474 -0.0028859817 0.12638082
-0.015501646 -0.0051471516 0.14718978 -0.034289207 0.06664229 -0.03313914 -0.018686838 -0.01682494
0.13109635 -0.063043915 0.18250053 -0.07060222 -0.023650175 0.0023223392 0.12180415 0.15724711
0.0611979 -0.10414913 0.118653454 -0.059553318 0.080466546 0.06632252 -0.13619171 -0.14481366
0.06839565 -0.044135112 -0.010005497 -0.027515443 0.11067329 -0.1528353 0.17999451 -0.2152963
0.00044810242 0.021399645 0.1567017 0.18825892 -0.037608396 -0.05331403 -0.013090719 0.10596971
0.15688024 0.15288188 0.19287267 0.117202535 -0.037888568 -0.018331943 0.14083262 0.16333495
0.16605523 0.12313795 0.10150134 -0.09941246 -0.07943601 0.08888033 -0.09598503 0.13311884
-0.10318296 0.08598045 -0.12834997 0.09620692 0.0945423 0.18943635 0.2001285 0.12263709
-0.05634417 -0.09549374 0.13471672 0.13688506 0.13368142 -0.075258516 0.14935221 -0.09073244
0.16654363 0.13037986 0.1791047 0.15004387 0.12992473 0.17193362 -0.099209316 0.14586814
0.16817178 0.13382912 0.1625177 0.1400604 -0.033583246 -0.054430053 0.046636 -0.023434013
0.14710784 0.11183125 0.16805047 0.14796193 0.013971774 0.09077163 -0.023256464 0.08584343
-0.051900342 0.10045492 -0.12589754 0.14100376 0.17378262 -0.010438873 0.17584383 0.05449865
0.14667912 0.15765463 0.14780156 0.13261664 0.04714259 -0.043009005 -0.032424383 -0.023763312
0.14928442 0.13046993 0.1485073 0.16574933 0.11864269 -0.043800924 -0.028139565 -0.041323427
-0.02888649 -0.046479534 -0.04591752 0.02910735 -0.017451754 -0.01039381 0.037107863 -0.015426235
-0.03373612 -0.041425046 -0.028821718 -0.016923126 0.1691767 0.15874611 0.15074359 0.1513022
-0.004243915 0.10205262 -0.03864849 0.08233909 0.10809005 0.006884202 0.08914889 -0.03785453
0.14988881 0.14704691 0.15454453 0.16737229 -0.0144213345 0.03218531 0.10734405 0.14732693
0.1495643 0.14237529 0.1783383 0.114378095 0.11975173 -0.06693394 -0.086924456 0.066087894
-0.07364494 -0.077628285 -0.09042015 -0.12035868 0.049557805 -0.050698068 0.18448764 -0.020863421
0.10372505 0.057209753 0.109395705 -0.090133265 -0.059327435 -0.07567436 0.14302287 0.13783354
0.15182236 0.13804421 0.19173339 0.15349285 -0.05245356 -0.034726296 -0.028602866 -0.042193104
0.14737774 0.13925058 0.12912332 0.16570097 -0.07381299 0.02757234 -0.0916666 -0.15347898
0.030522514 0.081680536 0.1805905 -0.1499464 0.160932 0.16433829 0.15853406 0.16570993
0.11907158 -0.076932564 0.1810518 0.09547517 0.15364042 0.07163692 0.1553088 0.0012699282
-0.03734926 -0.016442677 -0.03757126 -0.049276788 0.07292264 -0.08639202 0.11717202 0.008898621
0.16672395 0.16900644 0.19454657 0.14241526 -0.0541095 -0.042689264 -0.011254231 0.09827152
-0.026242146 -0.020226533 -0.04821826 -0.036110315 0.15987588 0.16243972 0.15895915 0.17667435
0.07470222 -0.04722724 -0.036018033 -0.004136897 0.120814726 0.014066987 0.093065895 0.004451062
