trained_models/DCGANgenerator_epoch10.pth (torch, 909502 bytes, 22 tensors)

latent_to_features.0.weight f4 [512, 100]
0	0xbb722b89	-0.0036952219
1	0x3d2a057a	0.04150913
2	0x3e0e6d59	0.139089
3	0xbdb1d8e8	-0.0868395
4	0xbd866aec	-0.065633625
5	0x3e215e5d	0.15758653
6	0xbbfa49c3	-0.0076381876
7	0xbdeaa574	-0.11457339
8	0xbbb2ca25	-0.0054562264
9	0xbc173a15	-0.009230156
10	0xbd7fe7af	-0.06247681
11	0xbad43df0	-0.0016192775
12	0xbdc56f7f	-0.09640407
13	0xbdb9ed55	-0.090784706
14	0x3d90ed08	0.0707646
15	0xbde13c1f	-0.10997795
16	0x3e12be7b	0.14330475
17	0xbd2f74f8	-0.04283616
18	0xbc99ca3b	-0.018773189
19	0x3b059ab7	0.0020386407
20	0xbd8fd052	-0.07022156
21	0x3d70fa98	0.058832735
22	0xbd924e28	-0.07143813
23	0x3dd85671	0.105633624
24	0x3cc05214	0.023476638
25	0xbd944d50	-0.07241309
26	0xbdb9ae34	-0.0906643
27	0xbe0617d1	-0.13095023
28	0x3bd5889e	0.00651653
29	0x3dfb3706	0.12266354
30	0x3dccc244	0.09997991
31	0xbdb48569	-0.088145085
32	0x3d70b2e4	0.058764353
33	0xbb84dab1	-0.0040543904
34	0xbd6e4c64	-0.05817832
35	0x3daa5b4f	0.08318197
36	0xbdaf687d	-0.085648514
37	0x3d2f0727	0.04273143
38	0xbd0f85a0	-0.035039544
39	0xbd2900b0	-0.04126042
40	0xbdf3101f	-0.11868309
41	0x3dce9bc6	0.10088305
42	0xbcc6db0c	-0.024274372
43	0x3c8ea3f1	0.017412158
44	0x3d93b490	0.07212174
45	0xbd9d55ce	-0.076823816
46	0xbd75e14a	-0.060029306
47	0x3d7ea86e	0.062172346
48	0x3d867ade	0.06566404
49	0xbe104aaf	-0.1409099
50	0x3de55f0e	0.11199771
51	0x3dcfc241	0.10144473
52	0xbd9df89d	-0.07713435
53	0x3d568b9d	0.05237924
54	0xbdbb06cd	-0.091321565
55	0xbc36d70b	-0.011159669
56	0xbc03b2be	-0.008038221
57	0xbdbe63d5	-0.09296385
58	0x3daecd1a	0.08535214
59	0x3dbcd919	0.092210956
60	0x3dddd245	0.10831121
61	0xbe2169cd	-0.15763016
62	0xbd961cff	-0.07329749
63	0xbcb8ee93	-0.022574699
64	0xbe2fa036	-0.1715096
65	0xbc9d9aa7	-0.019238783
66	0x3e0ee226	0.13953456
67	0xbdc1dab9	-0.09465546
68	0x3a1c743b	0.00059682474
69	0xbbe4711d	-0.006971492
70	0xbe25a325	-0.16175516
71	0xbd322396	-0.04349097
72	0xbb318911	-0.0027089755
73	0xbd38814e	-0.04504519
74	0xbc5b44ad	-0.013383073
75	0x3d849d1e	0.0647528
76	0xbd51c402	-0.05121232
77	0xbdedaf59	-0.116057105
78	0x3df08728	0.11744529
79	0x3d04e82c	0.03244798
80	0x3db18fc8	0.08670002
81	0xbdd0cd0a	-0.10195358
82	0x3e05da5f	0.13071583
83	0xbdc5a55d	-0.09650681
84	0xbd9dac36	-0.07698862
85	0x3e0d0f15	0.13775285
86	0x3d8ad92b	0.06779703
87	0xbd81dbbd	-0.0634074
88	0x3e05fe95	0.13085397
89	0xbda91dd4	-0.082576424
90	0x3dd52870	0.104081035
91	0xbdd7714a	-0.10519655
92	0x3d489797	0.048972692
93	0x3ce33d77	0.02773927
94	0xbdd1fb99	-0.102530666
95	0xbd3382c3	-0.043825876
96	0x3dea03e9	0.11426527
97	0x3cb08cf4	0.021551587
98	0x3d452d78	0.048139066
99	0x3d1c54a2	0.03816665
100	0xbbaa3ec4	-0.0051954705
101	0x39b54836	0.00034576812
102	0xbccb5779	-0.024821984
103	0xbb9f0c1f	-0.00485374
104	0x3b92639e	0.0044674417
105	0x3a6e3e80	0.0009088293
106	0xbc4d3883	-0.0125256805
107	0xbc1dd6df	-0.009633749
108	0x3c734564	0.014848087
109	0x3b145dfc	0.0022639027
110	0xbc0b5583	-0.008504274
111	0x3cb489d2	0.022038374
112	0xba1cc0d0	-0.0005979659
113	0xbc14e5e6	-0.009088015
114	0x3baf5409	0.005350594
115	0xbcd610f0	-0.026131123
116	0xbbcf9662	-0.0063350657
117	0xbd51eb5f	-0.051249858
118	0x3c189ac5	0.009314244
119	0x3c4b3d1f	0.012404709
120	0x3c22b5bd	0.009931025
121	0xbc2e36a4	-0.0106331445
122	0x3c72afcd	0.014812422
123	0x3c903ab7	0.017606122
124	0x3cde31f4	0.027123429
125	0x3c8afd10	0.016966373
126	0xbca34920	-0.01993233
127	0xbc3f7df2	-0.011687743
128	0xbc26122b	-0.0101361675
129	0x3c90be96	0.017669003
130	0x3aa90b48	0.0012897039
131	0x3d431407	0.04762652
132	0x3c45c7dc	0.012071576
133	0x3cb24a42	0.021763925
134	0x3bc5ebe6	0.006040084
135	0xbca4c981	-0.020115616
136	0xbb5c3f9e	-0.0033607255
137	0x3ce42cc4	0.027853377
138	0x3c291445	0.010319774
139	0xbc9b3efc	-0.018950932
140	0xbd07d047	-0.033157613
141	0x3d079db0	0.033109367
142	0x3b4b7b13	0.00310487
143	0x3c87cd47	0.016577376
144	0xbc4a0763	-0.012330863
145	0xbc2b77f8	-0.0104656145
146	0xbc296b09	-0.010340461
147	0x3a7b4ee1	0.0009586644
148	0x3ceaf1e5	0.028679797
149	0xbc2f33b1	-0.010693477
150	0x3c85c76d	0.016330445
151	0xbc8ee6b0	-0.017443985
152	0xbbb6bd38	-0.005576756
153	0xbc9e5f99	-0.019332694
154	0xbaf6775b	-0.0018803881
155	0xbc8a6626	-0.016894411
156	0x3cf3fdb9	0.02978407
157	0x3d204f66	0.03913822
158	0x3d45810a	0.048218764
159	0x3c354994	0.011064906
160	0xbc6c6e30	-0.014430568
161	0x3cb18a09	0.021672266
162	0xbce9ccd9	-0.028540062
163	0xbc12309a	-0.00892272
164	0x3d0d0ca0	0.03443587
165	0x3c78be13	0.015182036
166	0x3ae53a6c	0.0017488725
167	0x3c988717	0.018619103
168	0x3cc1cfa8	0.023658589
169	0x3bb4f0c2	0.0055218646
170	0xbcaa3295	-0.020776073
171	0xbc9b5298	-0.018960282
172	0x3d1558d3	0.036461663
173	0xbb999635	-0.0046870955
174	0xbc6b33b9	-0.014355593
175	0x3c8247f7	0.015903456
176	0x3d0e5104	0.03474523
177	0xba0dd2d9	-0.0005410142
178	0xbd016e77	-0.031599488
179	0x3c5fad1f	0.013652115
180	0xbc046474	-0.0080805905
181	0x3c7a9017	0.015293143
182	0x3b66d282	0.0035220687
183	0x3cddc4fe	0.027071472
184	0xbcf84ff2	-0.030311558
185	0xbc7bd127	-0.01536969
186	0xbd13e9a5	-0.036111493
187	0xbc146ceb	-0.009059171
188	0xbca5bb1c	-0.020230822
189	0xbcdc0c05	-0.0268612
190	0xbcb8aab0	-0.022542328
191	0x3cad1569	0.021128373
192	0xbcdd2bd0	-0.02699843
193	0xbd0b5113	-0.034012865
194	0x3cb7e33d	0.022447223
195	0xbba5f87f	-0.0050650234
196	0x3d09d40c	0.03364949
197	0x3cd4d3e3	0.025979942
198	0x3c3597d0	0.011083558
199	0x3c390008	0.011291511
200	0x3d353b0d	0.04424577
201	0x3ce31e2a	0.027724344
202	0x3d48ffa5	0.049071927
203	0xbc829eac	-0.015944801
204	0xbc2b4830	-0.010454223
205	0x3dac1940	0.084032536
206	0xbd80abe2	-0.06282784
207	0xbd5cd3f7	-0.053913083
208	0xbdc731c8	-0.09726292
209	0x3d4bddd7	0.04977211
210	0x3d69c4af	0.057072338
211	0xbcd554ba	-0.026041377
212	0xbd976bdd	-0.0739362
213	0xbdc57073	-0.096405886
214	0x3ce9ed95	0.02855567
215	0xbd83e36c	-0.06439862
216	0x3d0e4356	0.034732185
217	0x3c95b9af	0.018277017
218	0xbaf1f8cc	-0.0018460988
219	0xbd603c0e	-0.054744773
220	0xbdb5da7e	-0.08879565
221	0x3c6c15eb	0.0144095225
222	0x3d526691	0.051367346
223	0x3c98c7b8	0.01864992
224	0x3b519872	0.0031981734
225	0x3d13b754	0.036063507
226	0x3cc5bd63	0.024138158
227	0x3d5b6133	0.053559493
228	0xbda61a7d	-0.08110521
229	0x3d4d9e61	0.05019987
230	0x3b218c89	0.0024650416
231	0x3d621722	0.055197842
232	0xbd7a2580	-0.06107092
233	0xbd184430	-0.037174404
234	0x3d15fa73	0.0366158
235	0xbd0ec31e	-0.034854047
236	0xbd55e46f	-0.052219804
237	0xbc60e5d6	-0.013726672
238	0x3daeb4ac	0.08530554
239	0x3d2f9b91	0.04287297
240	0x3c7d9e7e	0.015479682
241	0xbd527ae9	-0.051386748
242	0x3d2699ce	0.040674023
243	0x3cbd86a9	0.0231355
244	0xbcf72ce4	-0.030172773
245	0x3c0816fe	0.008306263
246	0xbd8a2400	-0.06745148
247	0xbd937cdd	-0.0720155
248	0xbca7a2bc	-0.02046334
249	0x3da61789	0.08109958
250	0x3d6ffdad	0.058591533
251	0x3d9190c1	0.07107688
252	0x3d1a42dd	0.037661422
253	0x3b9388f8	0.004502412
254	0xbca16d3f	-0.019705413
255	0x3d23fabc	0.04003404

latent_to_features.0.bias f4 [512]
0	0x3ebe7c22	0.3720408
1	0xb9303c91	-0.0001680723
2	0x3c1862ae	0.009300871
3	0x3e46439f	0.19361733
4	0x3ee7c256	0.45265454
5	0xbcc3dd5f	-0.023909269
6	0x3d88e612	0.066845074
7	0x3e204c90	0.15654206
8	0x3ebc9e75	0.36839643
9	0xbdda30ea	-0.10653861
10	0x3db04a80	0.0860796
11	0x3e3bb1da	0.18329564
12	0x3e10a63f	0.14125918
13	0xbe20fe3d	-0.15721984
14	0xbb27bb5a	-0.0025593848
15	0x3e3cb06b	0.18426673
16	0x3e7b7afb	0.24558632
17	0x3d4e8325	0.050418038
18	0xbd1cf959	-0.038323734
19	0x3c3e1089	0.011600622
20	0x3e88a572	0.26688725
21	0xbdc9d630	-0.09855306
22	0x3d7eafaa	0.062179245
23	0x3e73264a	0.23745075
24	0x3e85f1cd	0.26161042
25	0x3d209a6d	0.039209772
26	0xbc6fb270	-0.014629945
27	0x3bce72f3	0.006300324
28	0x3ef6db42	0.48214155
29	0xbd6c0095	-0.057617743
30	0x3dedc45a	0.11609717
31	0xbe0c1837	-0.13681112
32	0x3eb9e640	0.3630848
33	0xbca7d702	-0.020488266
34	0x3dc42015	0.09576432
35	0x3d39d785	0.04537155
36	0x3e83f0b0	0.25769567
37	0x3d99eae7	0.07515507
38	0x3dc0f44e	0.094215974
39	0xbd3a79c7	-0.045526292
40	0x3ebb1a2b	0.36543402
41	0x3d51f1e5	0.05125608
42	0x3e0feb2a	0.14054552
43	0x3d508044	0.050903574
44	0x3ea636d1	0.32463697
45	0x3d6dc7a7	0.05805173
46	0x3e8295b4	0.2550484
47	0x3d7bcbcd	0.061473656
48	0x3eaac77e	0.33355325
49	0x3d87059e	0.06592868
50	0x3ce57e54	0.02801434
51	0x3d143e66	0.03619232
52	0x3edaa77e	0.4270591
53	0x3d6682d7	0.056277122
54	0x3e12e7a7	0.14346181
55	0x3e03bb16	0.12864336
56	0x3e42d1b2	0.19025305
57	0xbe165921	-0.14682437
58	0x3dbf2f77	0.09335225
59	0x3cf38636	0.029727083
60	0x3eb20863	0.34772024
61	0xbd1c9166	-0.0382246
62	0xbd38c05c	-0.045105323
63	0x3e61ddf1	0.2205732
64	0x3e9bfc2a	0.30465823
65	0xbe1bd4cb	-0.15217893
66	0x3d1e1d1a	0.038601972
67	0x3e45f685	0.19332321
68	0x3e7328b5	0.23745997
69	0x3cf7cfdb	0.03025048
70	0x3e611981	0.21982385
71	0xbb81c9c5	-0.0039608204
72	0x3e4f46a3	0.2024179
73	0xbdeb5b75	-0.114920534
74	0x3e10e76d	0.14150782
75	0x3c9354f2	0.017984841
76	0x3edee0ba	0.43530828
77	0xbe3b5f6c	-0.1829812
78	0x3d32b7c5	0.043632288
79	0x3d466865	0.048439402
80	0x3e5fd693	0.21859197
81	0xbe550379	-0.20802106
82	0x3de00e86	0.1094027
83	0x3deebd4c	0.11657199
84	0x3eb4a518	0.35282207
85	0xbde469e7	-0.11153012
86	0x3e613f55	0.21996816
87	0xbd91d3a2	-0.07120444
88	0x3e8cd2a0	0.27504444
89	0x3d7f32a5	0.062304158
90	0x3d48ae6d	0.04899447
91	0x3e6dd372	0.23225191
92	0x3ec08aaa	0.37605792
93	0xbe189eb0	-0.14904284
94	0x3d87ca32	0.066303626
95	0xbe06b82b	-0.13156192
96	0x3e32d1cd	0.17462845
97	0xbda79777	-0.081831865
98	0x3e22d2eb	0.15900771
99	0x3dafeafc	0.085897416
100	0x3ec46471	0.3835788
101	0xbde9118d	-0.11380301
102	0x3e22024f	0.15821193
103	0xbd9cac95	-0.07650105
104	0x3e982d16	0.29721898
105	0xbdac4a5a	-0.08412619
106	0x3e17d626	0.14827785
107	0x3e0f6bb7	0.14005934
108	0x3e756853	0.23965578
109	0xbe566f23	-0.20940833
110	0x3d5db918	0.054131597
111	0x3e39d9aa	0.18149439
112	0x3eabd1d5	0.33558527
113	0x3cd828af	0.026386587
114	0x3e1e1070	0.15435958
115	0xbdcca119	-0.099916644
116	0x3edc6956	0.43049115
117	0x3b9ece52	0.0048463726
118	0x3bdb8c2c	0.0067000594
119	0x3d6709c8	0.056405813
120	0x3e6cf7f6	0.23141465
121	0xbdac7054	-0.084198624
122	0x3dbf5785	0.09342865
123	0x3e24bc6b	0.16087501
124	0x3ea59666	0.32341307
125	0xbd6fc4e1	-0.058537368
126	0xbd31d353	-0.043414425
127	0x3d9662f6	0.07343094
128	0x3e9131e5	0.2835838
129	0xbc759720	-0.014989644
130	0x3dc906e6	0.09815769
131	0xbe2484d2	-0.16066292
132	0x3ea84637	0.3286607
133	0x3d25b0fb	0.040451985
134	0xbcca470f	-0.024692087
135	0x3e39a7c8	0.1813041
136	0x3eebe673	0.46074256
137	0xbdbb66b6	-0.0915045
138	0xbdaeec42	-0.08541156
139	0x3de916b6	0.11381285
140	0x3e631de1	0.22179367
141	0xbdb4ea5a	-0.088337615
142	0x3e0353a0	0.12824869
143	0x3dc25809	0.094894476
144	0x3eaa8999	0.33308104
145	0xbe0def5d	-0.13860841
146	0x3dde8d3c	0.10866782
147	0xbd665acc	-0.056238934
148	0x3ec5d3a0	0.3863802
149	0x3d29c46a	0.04144708
150	0xbc70b2b8	-0.014691047
151	0x3e6c95bd	0.23103996
152	0x3e92901f	0.2862558
153	0xbdf73120	-0.12069917
154	0x3e08ad8b	0.13347451
155	0x3d8f1051	0.06985534
156	0x3eba7739	0.36419085
157	0xbe44e185	-0.19226654
158	0x3da7b03b	0.0818791
159	0x3e39dea7	0.18151341
160	0x3e31f31f	0.173779
161	0xbd1c59ef	-0.038171705
162	0x3e550841	0.2080393
163	0x3dc51fef	0.096252315
164	0x3e28bdcb	0.1647865
165	0xbe3b6e91	-0.18303896
166	0x3e13b991	0.14426257
167	0x3e248b77	0.16068827
168	0x3e8a03fb	0.26956162
169	0x3d9cc4de	0.07654737
170	0xbcf552e4	-0.029946752
171	0xbd33168f	-0.043722685
172	0x3eaa2a60	0.33235455
173	0x3ca00d6e	0.019537654
174	0x3d945e78	0.07244581
175	0x3b579ac2	0.003289864
176	0x3eb70268	0.35744023
177	0xbe196d96	-0.1498321
178	0x3e2410cc	0.16022032
179	0x3d043e6f	0.032286104
180	0x3e87f32c	0.26552713
181	0xbe4197c8	-0.18905556
182	0xbd43bb7a	-0.047786213
183	0x3e56d349	0.20979036
184	0x3eb23efa	0.34813672
185	0xbd6952a2	-0.05696357
186	0x3e12c777	0.14333902
187	0x3dfe067f	0.12403583
188	0x3e93642b	0.2878736
189	0xbe08e8f0	-0.13370109
190	0x3e3537a6	0.1769701
191	0x3dd6bd0f	0.10485279
192	0x3ed4ed9c	0.41587532
193	0x3da86b41	0.08223582
194	0x3c38d97b	0.01128232
195	0xbdc526cb	-0.0962654
196	0x3ea24470	0.3169284
197	0xbda2fcbd	-0.07958362
198	0xbb779465	-0.003777766
199	0x3dcd6755	0.10029475
200	0x3ebdbe40	0.37059212
201	0x3da0d96e	0.078539714
202	0x3e1e629e	0.15467307
203	0x3d6f4518	0.058415502
204	0x3e73269d	0.23745199
205	0xbe3ec007	-0.1862794
206	0x3cc74c48	0.024328366
207	0x3e732491	0.23744418
208	0x3e861728	0.26189542
209	0x3dd71763	0.105025075
210	0x3e640673	0.22268085
211	0xbc8a079d	-0.016849333
212	0x3e658560	0.2241416
213	0xbdc02de6	-0.093837544
214	0x3d364106	0.044495605
215	0x3d6c8935	0.05774804
216	0x3ec343cc	0.38137662
217	0x3c41cfe3	0.011829349
218	0x3d4521b6	0.048127852
219	0x3e531cf4	0.20616513
220	0x3ea72871	0.32648042
221	0x3cdd2551	0.026995333
222	0x3e244211	0.16040827
223	0xbcea7bd9	-0.028623508
224	0x3e27323d	0.16327758
225	0xbe556dfc	-0.20842737
226	0xbc6355e8	-0.013875462
227	0x3e8bd65b	0.27311978
228	0x3ead36ab	0.3383077
229	0xbcef621a	-0.029221583
230	0xbd3151f2	-0.04329104
231	0x3e992a30	0.29915
232	0x3edbaed4	0.4290682
233	0x3dc09aff	0.09404563
234	0x3cea4264	0.02859611
235	0x3c5c444c	0.013444018
236	0x3ea7d816	0.32782048
237	0x3a889e85	0.0010423219
238	0x3da31e8a	0.07964809
239	0x3e0fa46a	0.14027563
240	0x3ed84f60	0.42248058
241	0x3def88e5	0.116960324
242	0x3c194b42	0.009356322
243	0x3e0cc0e7	0.13745461
244	0x3e739a61	0.2378936
245	0xbdfd5987	-0.123705916
246	0x3e013098	0.12616193
247	0x3dde9bb7	0.10869544
248	0x3ed21ecd	0.41039124
249	0xbe3424df	-0.1759219
250	0xbd085a17	-0.03328904
251	0x3e3c6017	0.1839603
252	0x3ea98058	0.3310573
253	0xbd8644ce	-0.06556092
254	0x3dfe104f	0.12405454
255	0xbd79be7e	-0.060972683

features_to_image.0.weight f4 [128, 64, 4, 4]
0	0x3c84b133	0.016197776
1	0xbccb2f3b	-0.024802795
2	0x3dfbc930	0.12294233
3	0xbc0fac8d	-0.008769167
4	0xbd042471	-0.032261316
5	0xbba92afb	-0.0051625944
6	0xbcc646af	-0.024203626
7	0xbcb177ca	-0.021663565
8	0x3ca94fdb	0.02066796
9	0xbd49db32	-0.049281307
10	0xbd8e0743	-0.06934979
11	0xbc317ee7	-0.0108334785
12	0xbc649d41	-0.013953508
13	0xbd3cd02a	-0.04609696
14	0xbcab0d8c	-0.020880483
15	0xbc46afc7	-0.0121268695
16	0xbc0ffee2	-0.008788796
17	0x3dba75a2	0.09104468
18	0x3c261698	0.010137223
19	0xbc8f4be3	-0.01749224
20	0x3ca8b289	0.020592945
21	0xbb981060	-0.004640624
22	0xbce438eb	-0.027859172
23	0xbd105a51	-0.035242382
24	0xbc2d2d23	-0.010569843
25	0xbbe80774	-0.0070809666
26	0xbd0035ef	-0.031301435
27	0xbd67e856	-0.056618057
28	0x3bc4bf06	0.006004217
29	0xbb96a57a	-0.004597363
30	0xbc76da9b	-0.015066768
31	0xbcf67ae2	-0.030087892
32	0xbd15ff40	-0.03662038
33	0x3d907f20	0.07055497
34	0x3c002651	0.007821635
35	0x3dcde9a7	0.10054331
36	0xbc226baf	-0.009913369
37	0x3d26560d	0.04060941
38	0x3dc76225	0.097355165
39	0xbca07860	-0.01958865
40	0xbd0ed0bb	-0.03486703
41	0x3d05555a	0.0325521
42	0xba9a7cac	-0.0011786423
43	0x3d20761a	0.03917513
44	0xbd0b8f7b	-0.03407238
45	0x3d141aca	0.03615836
46	0xbd8879d0	-0.06663859
47	0xbcc664b7	-0.024217946
48	0xbce05629	-0.027384834
49	0x3bedf17e	0.007261454
50	0xbd120189	-0.035645995
51	0xbb4c3ec1	-0.0031165334
52	0xbbd3cf06	-0.006463888
53	0x3e16d14c	0.14728278
54	0xbb96c002	-0.004600526
55	0x3cf32734	0.02968178
56	0xbcda390c	-0.02663853
57	0xbd3d0d4c	-0.04615526
58	0x3b038b33	0.0020071983
59	0xbc9cbe70	-0.019133776
60	0xbd3f53f7	-0.046710934
61	0x3cbd4f58	0.023109123
62	0xbda51106	-0.080598876
63	0x3db773b9	0.08957619
64	0xbca29490	-0.01984623
65	0xbd1aa2b5	-0.037752826
66	0xbd4bbef8	-0.04974267
67	0xbc806fc2	-0.01567829
68	0xbc26045c	-0.010132875
69	0x3d8422b4	0.064519316
70	0xbd19803e	-0.037475817
71	0xbcb15f4e	-0.02165189
72	0xbae2893b	-0.001728333
73	0xbc991aa3	-0.01868946
74	0x3d167669	0.03673402
75	0xbc236ed1	-0.009975151
76	0x3ce45917	0.027874513
77	0x3db32937	0.087480955
78	0x3c64a62f	0.013955637
79	0xbb9ef5bb	-0.0048510707
80	0xbdcc0c01	-0.09963227
81	0xbc9a3805	-0.01882554
82	0x3de4b164	0.11166647
83	0x3ca4eed0	0.020133406
84	0xbd944c58	-0.07241124
85	0xbc38d514	-0.0112812705
86	0x3ac0760b	0.0014683617
87	0xbc552e51	-0.013011531
88	0xbdca70a9	-0.098847695
89	0xbcffa790	-0.03120783
90	0x3c5fb861	0.013654799
91	0xbd964ac8	-0.07338482
92	0xbd500434	-0.05078526
93	0xbd064f39	-0.032790396
94	0xbd265910	-0.04061228
95	0xbd06fbcc	-0.032954976
96	0xbd34cdae	-0.044141464
97	0xbd7d2eb9	-0.061812136
98	0xbd4e3e07	-0.050352123
99	0xbb99bb04	-0.0046914835
100	0xbd916e88	-0.0710116
101	0x3d7b7695	0.061392386
102	0x3d1c76a9	0.0381991
103	0xbd075b5f	-0.033046123
104	0xbd758c09	-0.059948
105	0x3c794d5a	0.015216196
106	0xb9c34dcf	-0.0003725127
107	0xbcdf84c0	-0.02728498
108	0xbd02dcde	-0.031948917
109	0x3ccd0e41	0.02503121
110	0x3d349aec	0.044093058
111	0xbd8e88c2	-0.06959678
112	0x3d3232da	0.043505527
113	0xbd5370a7	-0.051621106
114	0xbc74df16	-0.014945766
115	0xbc37e067	-0.011222935
116	0x3ce38b5b	0.02777641
117	0xbc8d01eb	-0.017212829
118	0xbd0c7839	-0.03429434
119	0xbcfb0dcd	-0.03064623
120	0x3ddd1545	0.107950725
121	0x3b59e68f	0.0033248996
122	0x3d9dde85	0.07708458
123	0xbcd7b5b1	-0.026331754
124	0xbcd7f27c	-0.026360743
125	0xbcd16495	-0.025560657
126	0x3c951e5e	0.018202957
127	0xbca64087	-0.02029444
128	0x3c7945f0	0.015214428
129	0xbd14f20e	-0.036363654
130	0xbc8b173f	-0.016978858
131	0xbd50d857	-0.050987568
132	0xbba9266a	-0.00516205
133	0xb9925a5a	-0.00027914607
134	0x3c73f66c	0.0148902945
135	0x3c8c158e	0.017100122
136	0xbd8fa99f	-0.070147745
137	0x3cb3154e	0.021860745
138	0x3ae8a366	0.0017748892
139	0xbba423f8	-0.0050091706
140	0xbcd3f371	-0.025872918
141	0x3c9937cd	0.018703366
142	0xbd381358	-0.044940323
143	0x3c865da1	0.016402068
144	0xbd0516bb	-0.03249238
145	0x3cccf0bc	0.025017135
146	0xbd7f8260	-0.062380195
147	0x3d86f578	0.06589788
148	0xbd265c19	-0.040615175
149	0x3d880b8d	0.06642828
150	0xbb9aeea7	-0.0047281566
151	0xb9885012	-0.00025999598
152	0xbc321571	-0.01086937
153	0x3dc3b0bc	0.09555194
154	0xbd0b1ec0	-0.033964872
155	0x3d3f89fb	0.046762448
156	0xbc7264d9	-0.014794552
157	0x3d3a15f6	0.0454311
158	0x3b9fc699	0.0048759696
159	0x3c91eab1	0.017812105
160	0x3bb5de34	0.0055501703
161	0xba51ecee	-0.00080080226
162	0xbc983642	-0.01858056
163	0x3c9bf408	0.019037262
164	0xbb09238d	-0.002092573
165	0xbc3d4509	-0.011552104
166	0xbd01c690	-0.031683505
167	0xbb935341	-0.0044960086
168	0x3d6c936b	0.057757776
169	0xbd64244d	-0.05569868
170	0x3e01eb0d	0.12687321
171	0xbcc5796c	-0.02410575
172	0x3ce7fec5	0.028319726
173	0xbce81090	-0.02832821
174	0x3cd29399	0.025705146
175	0xbcd127f8	-0.025531754
176	0xbd62e19b	-0.055390935
177	0x3d023bed	0.03179543
178	0xbc4679e5	-0.012114023
179	0xbd3c315b	-0.045945507
180	0xbbb7bbe4	-0.005607115
181	0x3b927ea8	0.004470665
182	0xbce40856	-0.027836006
183	0x3d42c404	0.047550216
184	0xbd904a8a	-0.07045467
185	0xbd25ab6f	-0.040446695
186	0xbd3aeb05	-0.04563429
187	0x39150861	0.00014212869
188	0x3c43fe6f	0.011962517
189	0x3d2d142f	0.042255577
190	0x3c051409	0.008122453
191	0x3de5bdef	0.112178676
192	0x3a39f700	0.0007093996
193	0x3bc36ecc	0.0059641358
194	0x3e510b09	0.20414366
195	0xbd8b5819	-0.06803913
196	0xbd9ac8f3	-0.07557859
197	0x39720145	0.00023079391
198	0x3d4c9a99	0.049952123
199	0xbc06ccda	-0.008227551
200	0xbd41beb7	-0.04730102
201	0xbd20d249	-0.039263044
202	0x3db1aac2	0.086751476
203	0xbc75045f	-0.014954655
204	0xbcc9ad6a	-0.024618823
205	0xbca83788	-0.020534292
206	0xbc7c716b	-0.0154079
207	0xbc815d0d	-0.01579144
208	0x3d7240a6	0.059143685
209	0xbc72ebde	-0.014826743
210	0x3b052de6	0.0020321547
211	0xbd36aeb2	-0.044600196
212	0xbcca0d51	-0.024664553
213	0xbbee6608	-0.0072753467
214	0x3b95f565	0.0045763724
215	0xbd38d435	-0.04512425
216	0xbca79ee0	-0.0204615
217	0x3bc0e606	0.005886796
218	0x3d33b1eb	0.043870848
219	0xbc419d48	-0.011817284
220	0xbcdd1fda	-0.026992727
221	0x3c081078	0.008304708
222	0x3c431d12	0.011908786
223	0x3cd0c6ba	0.025485385
224	0x3b43f077	0.0029897967
225	0xbcf73faf	-0.030181734
226	0xbd7bc22a	-0.061464466
227	0xbbe907bb	-0.0071115172
228	0x3caa5300	0.02079153
229	0xbcb63e49	-0.022246497
230	0xbc138274	-0.00900327
231	0xbb7710f7	-0.003769932
232	0x3cf89281	0.030343296
233	0x3d1337b6	0.035941802
234	0x3d0b9fd7	0.034087982
235	0xbd1e5c64	-0.03866233
236	0x3cf4e961	0.02989644
237	0xbd319e2e	-0.043363743
238	0x3c8a4024	0.016876288
239	0xbd0ff708	-0.035147697
240	0x3ce18483	0.027529007
241	0xbc19bff1	-0.009384141
242	0x3df00700	0.11720085
243	0xbad98926	-0.001659666
244	0xbd192e2a	-0.03739754
245	0xbc810bae	-0.01575264
246	0xbc84e107	-0.016220583
247	0x3d040a3b	0.03223632
248	0xbd97fa56	-0.07420795
249	0xbd14216e	-0.036164694
250	0xbca524a3	-0.020159071
251	0xbdb4a099	-0.08819694
252	0x3baf6eb1	0.0053537716
253	0x3d96feef	0.073728435
254	0xbdb49514	-0.08817497
255	0x3d1b2f50	0.037886918

features_to_image.0.bias f4 [64]
0	0xbd4e8d36	-0.050427638
1	0x3df17386	0.117896125
2	0x3e42fdfa	0.19042197
3	0xbce66b9e	-0.028127488
4	0x3dc28e35	0.0949978
5	0xbc0ea66c	-0.00870667
6	0x3e08d2d8	0.1336168
7	0xbcbf84c7	-0.023378743
8	0x3d8e34aa	0.069436386
9	0x3dad6585	0.08466629
10	0x3dc9f732	0.09861602
11	0xbd17a744	-0.03702475
12	0x3bcd1fbc	0.0062598865
13	0x3d49a267	0.049227145
14	0x3e61312c	0.21991414
15	0xbcebd8ec	-0.02878996
16	0x3e12c860	0.1433425
17	0x3b828cf9	0.0039840904
18	0x3d9fc361	0.078009374
19	0x3d6dc6b7	0.058050837
20	0x3bbc0015	0.0057373145
21	0x3e5ce544	0.21571833
22	0x3c8afbc2	0.01696575
23	0x3cec8074	0.028869845
24	0x3e0b92d7	0.13630234
25	0xbd647431	-0.05577487
26	0x3d8b45c5	0.06800417
27	0x3dc3bbac	0.0955728
28	0x3e5074af	0.20357011
29	0x3c89e44c	0.016832493
30	0x3d8c0ade	0.0683801
31	0x3e21e0cb	0.15808408
32	0x3ce7ee5f	0.028311906
33	0x3d131de1	0.035917167
34	0x3ceaa1c9	0.028641598
35	0x3d3be5fa	0.04587362
36	0x3dfac1af	0.122439735
37	0xbd173e40	-0.0369246
38	0xbd81af9b	-0.06332322
39	0xbc5b120c	-0.013371002
40	0x3d6ba7de	0.057533138
41	0xbaacb5f8	-0.001317679
42	0x3d6e555b	0.05818687
43	0xbd309672	-0.043112226
44	0xbc7ee997	-0.015558622
45	0x3da61159	0.081087776
46	0xbdbe516f	-0.09292876
47	0x3e2ca7a2	0.16860822
48	0x3cc686ec	0.024234258
49	0xbcc87290	-0.02446869
50	0x3d963faa	0.07336362
51	0x3e0ac3a3	0.13551192
52	0x3df263bc	0.11835429
53	0x3d8ecf49	0.0697313
54	0x3d423d1b	0.047421556
55	0x3d898ce3	0.06716325
56	0x3cbe9162	0.023262683
57	0x3e1fb7ca	0.15597454
58	0xbd161bc9	-0.03664759
59	0xbdeb8306	-0.114996
60	0x3d65ccda	0.056103565
61	0x3e352afb	0.17692177
62	0xbd88cca3	-0.06679656
63	0x3e2d2278	0.1690768

features_to_image.2.weight f4 [64]
0	0x3f629fc4	0.88525033
1	0x3f7814d6	0.96906793
2	0x3f90c342	1.1309588
3	0x3f7aec85	0.9801715
4	0x3f73738f	0.95098203
5	0x3f93a045	1.1533285
6	0x3f7cea0d	0.98794633
7	0x3f70b841	0.9403115
8	0x3f8830b4	1.0639863
9	0x3f729bb1	0.94768816
10	0x3f642e9d	0.89133626
11	0x3f7d9d6b	0.99068326
12	0x3f72d29b	0.9485261
13	0x3f72b07f	0.9480056
14	0x3f91a68f	1.1378955
15	0x3f93590f	1.1511554
16	0x3f5e46f7	0.86827034
17	0x3f6a693d	0.9156683
18	0x3f7012fc	0.9377897
19	0x3f6a4538	0.9151187
20	0x3f88393c	1.0642467
21	0x3f8dd088	1.1079264
22	0x3f5a7a59	0.8534294
23	0x3f7c099a	0.9845215
24	0x3f67f704	0.9061129
25	0x3f807252	1.0034888
26	0x3f78108c	0.9690025
27	0x3f8c469f	1.0959052
28	0x3f84dc3d	1.0379711
29	0x3f7df624	0.99203706
30	0x3f7d70a0	0.9899998
31	0x3f823247	1.0171593
32	0x3f7dda8e	0.99161613
33	0x3f7ff2a2	0.99979603
34	0x3f879daa	1.059499
35	0x3f8565c0	1.0421677
36	0x3f81f1fd	1.0151974
37	0x3f9acf5c	1.2094531
38	0x3f7830ac	0.9694927
39	0x3f6cd863	0.9251768
40	0x3f7ac462	0.97955906
41	0x3f623f54	0.8837788
42	0x3f997453	1.1988624
43	0x3f870d89	1.0551006
44	0x3f81b941	1.013466
45	0x3f81401d	1.0097691
46	0x3f875bb6	1.0574863
47	0x3f81ed81	1.0150605
48	0x3f5cf129	0.8630548
49	0x3f615e06	0.88034093
50	0x3f59a940	0.8502388
51	0x3f5f6ac0	0.8727226
52	0x3f7e9c51	0.9945727
53	0x3f86c60a	1.0529187
54	0x3f80e3e6	1.0069549
55	0x3f4646c4	0.7745173
56	0x3f8c4fbc	1.0961833
57	0x3f8c4cc5	1.0960928
58	0x3f5fabaf	0.87371343
59	0x3f732cf4	0.9499047
60	0x3f80394e	1.0017488
61	0x3f88c892	1.0686209
62	0x3f892f59	1.0717574
63	0x3f587138	0.8454776

features_to_image.2.bias f4 [64]
0	0xbd74deab	-0.059782665
1	0x3e1e7a03	0.15476231
2	0xbd95dded	-0.073177196
3	0x3e50d3bc	0.2039327
4	0x3e466855	0.19375737
5	0x3d063938	0.03276941
6	0x3dea7582	0.11448194
7	0xbcaa2247	-0.020768298
8	0x3d8870ac	0.066621155
9	0x3b920895	0.0044565895
10	0x3d083902	0.033257492
11	0xbc11d510	-0.008900896
12	0x3d6aa491	0.05728585
13	0x3ca6f2dd	0.020379478
14	0x3dd58835	0.1042637
15	0xbd4427d3	-0.04788954
16	0x3d964c33	0.073387526
17	0x3d06be3f	0.032896277
18	0xbda53272	-0.08066262
19	0x3e0d04c7	0.13771354
20	0x3da0297c	0.078204125
21	0x3bc3cb36	0.0059751524
22	0x3bb9d497	0.0056710946
23	0x3d5a6c7d	0.05332612
24	0x3dd01ff1	0.10162342
25	0xbb3722d2	-0.0027944339
26	0x3e110ca1	0.14164974
27	0xbbdabe2b	-0.006675502
28	0x3d7c1052	0.061539
29	0x3d57c8c3	0.052681696
30	0x3ddab6df	0.10679411
31	0x3d3cb173	0.046067666
32	0xbd6b6253	-0.057466816
33	0x3dfb219d	0.122622706
34	0x3db4f95c	0.08836624
35	0x3ce2b9c9	0.02767648
36	0x3db25927	0.08708411
37	0x3d32ea86	0.04368069
38	0x3c3669a9	0.01113359
39	0x3d4d49f3	0.05011935
40	0xbd1f889c	-0.03894864
41	0x3e000613	0.12502317
42	0xbc8a4cff	-0.016882418
43	0xbc9786ab	-0.018496832
44	0x3d824450	0.06360686
45	0x3d17b4b5	0.03703757
46	0x3e17f0a6	0.14837894
47	0x3bacd664	0.005274581
48	0xbb960274	-0.004577929
49	0xbd2cbec5	-0.04217412
50	0x3e17ce4e	0.14824793
51	0x3d2ef6e9	0.04271594
52	0x3de5c8e2	0.11219956
53	0x3d139a8a	0.03603605
54	0xbda35217	-0.07974642
55	0xba5bcddd	-0.0008384863
56	0x3d704aa9	0.05866495
57	0x3d2ca266	0.042147063
58	0xbd008b32	-0.031382747
59	0xbba32e68	-0.0049798973
60	0x3db7592d	0.08952556
61	0x3dced288	0.100987494
62	0x3d6214fc	0.055195794
63	0x3c87fdbf	0.016600488

features_to_image.2.running_mean f4 [64]
0	0x3df4bb04	0.11949733
1	0x3e4385b4	0.19093972
2	0x4001b7b9	2.0268385
3	0x3faa5223	1.3306316
4	0x3f7ce474	0.9878609
5	0x3e156c76	0.14592156
6	0x3f3589a0	0.70913124
7	0x3f91d2ed	1.1392494
8	0x3e4c18c1	0.19931318
9	0x4010e9e3	2.2642753
10	0x3f7fe604	0.9996035
11	0x3f601347	0.87529415
12	0x3fac7bb0	1.3475246
13	0x3ee0e801	0.43927005
14	0x3f01b73d	0.50670224
15	0x3fa2f9b8	1.2732458
16	0x3e2b4137	0.16724096
17	0x3f780e47	0.96896785
18	0x3f6d221b	0.92630166
19	0x3d4999f2	0.04921908
20	0x3f06ca96	0.5265287
21	0x4048f317	3.139837
22	0x3e330ea0	0.17486048
23	0x3e8c59ae	0.2741217
24	0x3f6f61a0	0.9350834
25	0x3e88ca17	0.26716682
26	0x3fe2dee8	1.7724276
27	0x3f04ffcd	0.5195282
28	0x3fe3e5c8	1.7804499
29	0x3f8a9c0f	1.0828875
30	0x3ee26c42	0.4422322
31	0x4001f0f0	2.0303307
32	0x3dba8dc2	0.091090694
33	0x3fdd1f09	1.7275096
34	0x3f22ab63	0.63542765
35	0x3e5e940c	0.21736163
36	0x3f35dcfb	0.71040314
37	0x3febd988	1.842576
38	0x3f7e21d1	0.9927035
39	0x3f590614	0.847749
40	0x3f698667	0.91220707
41	0x3ec2ccd0	0.38046885
42	0x3eb49ee0	0.35277462
43	0x3eddc205	0.43312088
44	0x3dfbb537	0.12290423
45	0x3f89ca38	1.0764837
46	0x3f5cb7c9	0.86217934
47	0x3eadf533	0.33976135
48	0x3fb0c6e8	1.3810701
49	0x3eb4e89a	0.3533371
50	0x3f07a3c1	0.52984244
51	0x3f9f5a98	1.2449522
52	0x3d933d6b	0.07189449
53	0x3e7a8f90	0.24468827
54	0x401550ac	2.3330488
55	0x3f107459	0.5642753
56	0x3ea46322	0.32106882
57	0x3f39ab2f	0.7252683
58	0x3e1829c7	0.14859687
59	0x3e642c56	0.22282538
60	0x3ef9e087	0.48804113
61	0x3fb55b97	1.4168576
62	0x3e5bd840	0.21469212
63	0x3ecbd2bb	0.39809212

features_to_image.2.running_var f4 [64]
0	0x3e5d3df5	0.21605666
1	0x3eb4e250	0.35328913
2	0x40bfd3cf	5.9946055
3	0x40cf2951	6.4737935
4	0x40802132	4.004052
5	0x3ea49887	0.3214762
6	0x3f636697	0.88828415
7	0x40d050f7	6.5098834
8	0x3e9bf01c	0.30456626
9	0x40f4c8f0	7.6495285
10	0x40822e3a	4.068143
11	0x40a4b34d	5.1468873
12	0x40e39c1d	7.112807
13	0x3fa1cd98	1.2640867
14	0x3f1e94ef	0.61946005
15	0x40691105	3.6416638
16	0x3e8dc019	0.2768562
17	0x405d3a73	3.4566925
18	0x40ab3fb8	5.351528
19	0x3d15ccca	0.036572255
20	0x3f86d718	1.0534391
21	0x40edd073	7.4316955
22	0x3eb912ee	0.36147255
23	0x3f0a71a9	0.5407968
24	0x3ffcf116	1.9761074
25	0x3f5777f9	0.8416744
26	0x40275f5c	2.6151953
27	0x3f8fd166	1.1235778
28	0x4087f472	4.2485895
29	0x40dbdad3	6.870462
30	0x3fb3f420	1.4058876
31	0x40b04eb0	5.5096054
32	0x3e00652c	0.12538594
33	0x408bf3c5	4.373507
34	0x401f3900	2.487854
35	0x3f3657b7	0.7122759
36	0x3f60757a	0.87679255
37	0x410129ac	8.072674
38	0x4065482d	3.5825303
39	0x4016014d	2.3438294
40	0x401ea193	2.4786117
41	0x3f55a7ab	0.83458966
42	0x3f67da0c	0.9056709
43	0x3fdaa3f6	1.7081287
44	0x3e693abf	0.22776316
45	0x409af006	4.8417997
46	0x40c01b8e	6.0033636
47	0x3f534688	0.825295
48	0x40ef1b83	7.4721084
49	0x3f61cad2	0.88200104
50	0x3f966144	1.1748433
51	0x406f0af4	3.7350435
52	0x3d9e7837	0.07737773
53	0x3f0c2549	0.5474439
54	0x4125a092	10.351702
55	0x3f6ec5b0	0.932704
56	0x3f0368cc	0.5133178
57	0x3fe4c7e4	1.7873502
58	0x3e8fe929	0.28107575
59	0x3f120558	0.57039404
60	0x40026594	2.0374498
61	0x408491f5	4.142817
62	0x3f31fe83	0.6952898
63	0x3fe3d8d7	1.7800549

features_to_image.3.weight f4 [64, 32, 4, 4]
0	0xbdafd1bb	-0.08584925
1	0x3caebcf7	0.02133034
2	0x3c7d889e	0.015474467
3	0x3d375cdf	0.044766303
4	0xbd3d47ce	-0.046211056
5	0xbad9227f	-0.0016566067
6	0x3cfb39b8	0.03066717
7	0x3df5fef2	0.120115176
8	0x3c3a6274	0.011376012
9	0x3d4ad4cd	0.04951935
10	0xbd85ceae	-0.06533562
11	0xbd939d80	-0.07207775
12	0xbd08e394	-0.03342016
13	0xbc5a5757	-0.0133264875
14	0xbde7cd6f	-0.1131848
15	0xbceaf53a	-0.028681386
16	0x3d724d79	0.059155915
17	0xbcfbecb3	-0.030752515
18	0xbd67dcc2	-0.056607015
19	0x3dc415c9	0.09574468
20	0xbda84461	-0.08216167
21	0xbd52daae	-0.05147808
22	0x3cd046b1	0.025424333
23	0x3ca4344e	0.020044472
24	0x3d1ae74a	0.03781823
25	0x3cc75af4	0.024335362
26	0xbd4d1c8e	-0.05007606
27	0xbd497a79	-0.049189065
28	0x3d910db3	0.07082691
29	0x3d334beb	0.043773573
30	0xbda6e508	-0.08149153
31	0xbd27c2b6	-0.040957175
32	0xbde40408	-0.111335814
33	0xbcb603e5	-0.022218654
34	0xbd9ece14	-0.0775415
35	0x3cdc5f07	0.026900781
36	0x3d00f4d9	0.031483505
37	0x3daa0a69	0.08302767
38	0x3cee5eba	0.029097904
39	0xbdaf5797	-0.08561628
40	0x3d52b0c1	0.051438097
41	0xbe041dc9	-0.12901987
42	0x3e1f4f19	0.15557517
43	0xbd115326	-0.035479687
44	0xbdf4363c	-0.11924407
45	0x3dadef32	0.084928885
46	0xbcb7ceda	-0.022437502
47	0x387c88ae	6.0208775e-05
48	0xbdda660b	-0.106639944
49	0xbb50e03a	-0.003187193
50	0x3e378805	0.17922981
51	0x3d8c270b	0.06843384
52	0xbd0cdae8	-0.034388453
53	0xbd960e26	-0.07326917
54	0x3ddf50b0	0.10904062
55	0xbd4aefb1	-0.049544994
56	0xbd71caef	-0.059031423
57	0xbc182bc3	-0.009287777
58	0x3cc7e648	0.024401799
59	0xbc564c29	-0.013079681
60	0xbd307926	-0.043084286
61	0x3d57f57f	0.052724358
62	0x3d2c747c	0.042103276
63	0xbbfbe2fc	-0.0076869708
64	0xbafc96c2	-0.0019271004
65	0x3d2f6c70	0.042828023
66	0x3c351dcc	0.011054467
67	0x3d1ff54c	0.039052293
68	0x3d3b77d5	0.045768578
69	0x3cc13a79	0.023587452
70	0xbe05c59a	-0.1306366
71	0xbc485961	-0.012228341
72	0xbd39ebed	-0.045391012
73	0xbd07ebca	-0.03318385
74	0x3da07e0e	0.07836543
75	0x3db7e26a	0.08978732
76	0xbd0fb08d	-0.03508048
77	0x3d59af30	0.053145587
78	0x3ceeb52e	0.029139128
79	0xbce8add0	-0.028403193
80	0xbba9523d	-0.0051672743
81	0xbbfe7700	-0.0077656507
82	0x3d853c72	0.0650567
83	0xbd8f5f7b	-0.07000633
84	0xbd4ec109	-0.05047706
85	0xbde5b396	-0.11215894
86	0xbd9d138f	-0.07669746
87	0xbd89fcba	-0.06737657
88	0x3b435985	0.0029807996
89	0x3d85c7f0	0.06532276
90	0xbbda905b	-0.0066700405
91	0xbc157c84	-0.009123925
92	0x3bd28ee4	0.0064257253
93	0xbd71f518	-0.05907163
94	0xbca26771	-0.019824715
95	0x3e20ded2	0.15709999
96	0xbd186d65	-0.0372137
97	0x3e12a468	0.14320529
98	0x3cce5f55	0.025191942
99	0x3d9f2430	0.07770574
100	0x3dc2b8ec	0.09507927
101	0xbc95ade0	-0.018271387
102	0x3d6e0d21	0.05811799
103	0x3d5296f2	0.051413484
104	0xbdb45294	-0.08804813
105	0x3d3eeed3	0.04661448
106	0x3e326007	0.17419444
107	0x3b9a5213	0.004709491
108	0xbba70413	-0.005096921
109	0x3e1d7e88	0.15380299
110	0xbd90555a	-0.070475295
111	0x3da0d5e2	0.07853295
112	0x3d4cc2de	0.049990527
113	0x3d9fcc0e	0.07802592
114	0xbcc97d08	-0.024595752
115	0xbdf178a0	-0.117905855
116	0xbc2b651e	-0.01046112
117	0x3ca7d979	0.020489441
118	0xbdf6a134	-0.12042466
119	0x3ce13d4a	0.027495045
120	0xba42d643	-0.000743244
121	0x3db11e4b	0.08648356
122	0xbd5732de	-0.052538745
123	0x3cc10aa1	0.023564639
124	0xbcec62e1	-0.028855743
125	0xbe1bc7f1	-0.1521299
126	0x3d3ae99f	0.045632955
127	0xbc588f56	-0.013217768
128	0xbca90921	-0.020634236
129	0x3ca7ccd5	0.020483414
130	0x3c640ec3	0.013919535
131	0xbc7c36c9	-0.015393921
132	0xbd9af94d	-0.075670816
133	0xbd1e4351	-0.038638417
134	0x3c489fa0	0.012245089
135	0x3d14d049	0.03633145
136	0x3cce7d1d	0.025206143
137	0xbc1dba7e	-0.009626983
138	0xbd870690	-0.065930486
139	0xbdac7910	-0.08421528
140	0x3d747158	0.059678406
141	0xbd8031b0	-0.06259477
142	0x3d5197d8	0.0511702
143	0xbc96cb59	-0.01840751
144	0x3d9778f3	0.07396116
145	0xbd502a65	-0.05082168
146	0xbe1eee96	-0.15520701
147	0x3ca7ae47	0.020468844
148	0x3c42393b	0.011854465
149	0xbc6c8859	-0.014436805
150	0x3d1f5671	0.038900796
151	0xbd961217	-0.07327669
152	0x3b89f960	0.004210636
153	0x3c84caf4	0.016210057
154	0xbc6449fa	-0.013933653
155	0xbcab8a06	-0.020939838
156	0xbcc7e285	-0.024400005
157	0x3c25b7b1	0.010114596
158	0xbcad07af	-0.021121828
159	0xbdab1253	-0.083531044
160	0x3d05981e	0.032615773
161	0x3da041e2	0.07825066
162	0xbd0fa0dc	-0.035065517
163	0x3cfee881	0.031116726
164	0xbca0c04b	-0.019622942
165	0x3d5bde43	0.053678762
166	0xbd1e8f41	-0.038710836
167	0xbc91a0ad	-0.017776811
168	0x3cd2ca77	0.025731308
169	0xbbef824e	-0.0073092347
170	0xbe03dff9	-0.12878408
171	0xbc53ec08	-0.012934692
172	0x3d9668af	0.073441856
173	0xbc6927d9	-0.014230692
174	0xbdb97ea5	-0.09057359
175	0x3d190f9e	0.03736841
176	0x3c6f8ebd	0.014621434
177	0xbc82c37a	-0.015962351
178	0x3d057680	0.032583714
179	0x3d010d89	0.03150705
180	0xbd922b74	-0.07137194
181	0xbcece6df	-0.028918682
182	0xbd3d1dc4	-0.046170965
183	0x3cb590d6	0.02216379
184	0x3cb5679e	0.022144135
185	0xbe0fcbbd	-0.14042564
186	0xbd08f89f	-0.03344023
187	0xbc8af2f5	-0.016961554
188	0x3d1b807c	0.03796433
189	0x3cb7beaa	0.022429783
190	0x3d8b9fcc	0.06817588
191	0x3d42a5af	0.04752129
192	0x3d2ba16f	0.041902002
193	0x3cdec6ed	0.027194465
194	0xbd858b6f	-0.065207355
195	0xbcb7326d	-0.022362912
196	0xbdf51d89	-0.11968524
197	0x3d555461	0.052082423
198	0x3bdb98b6	0.006701554
199	0x39bc0b51	0.00035866586
200	0x3d0f7b25	0.03502955
201	0x3d3dbb47	0.04632118
202	0xbe03a6b8	-0.12856567
203	0xbcfec0f6	-0.03109787
204	0xbcbcef39	-0.023063289
205	0x3cedc8db	0.02902644
206	0x3d105666	0.035238646
207	0x3c49d959	0.012319886
208	0x3d0673b7	0.032825198
209	0xbe2fb5be	-0.17159173
210	0xbd1edd1c	-0.038785085
211	0x3d1218cc	0.03566818
212	0xbe152e38	-0.14568412
213	0xbdb5586b	-0.08854755
214	0xbd8e973a	-0.06962438
215	0xbbeb7998	-0.007186126
216	0xbbed1a98	-0.0072358362
217	0xbc246456	-0.010033688
218	0xbd322094	-0.0434881
219	0xbb1f23f9	-0.0024282916
220	0x3d81b4f8	0.06333345
221	0x3b7112d6	0.0036784909
222	0x3d886c4d	0.06661282
223	0xbd71a232	-0.058992572
224	0xbd91db85	-0.07121948
225	0x3b9a50b2	0.0047093267
226	0xbc61f2da	-0.0137908105
227	0xbdc669c8	-0.09688145
228	0x3d9c2bb6	0.07625525
229	0x3d984448	0.074348986
230	0x3deb5658	0.11491078
231	0x3ce93d66	0.02847166
232	0x3d5689e6	0.052377604
233	0x3d24d5b4	0.040242866
234	0xbc12d151	-0.008961038
235	0xbdc21947	-0.094774775
236	0x3ddd98a3	0.10820129
237	0xbbb42f03	-0.0054987683
238	0x3cba266e	0.022723403
239	0xbd62698a	-0.05527643
240	0x3e0170d5	0.12640698
241	0xbd996911	-0.07490743
242	0xbc4f5eb2	-0.012656854
243	0xbcba7e03	-0.022765165
244	0xbe01f642	-0.12691596
245	0x3d8c375d	0.06846497
246	0xbc54e103	-0.0129931
247	0xbcd0f27e	-0.025506254
248	0x3c9c7745	0.01909984
249	0xbd2425f3	-0.040075254
250	0x3cf84c7d	0.03030991
251	0x3c9241c9	0.017853634
252	0xbd9f02ae	-0.07764183
253	0xbc0cac88	-0.0085860565
254	0x3e33096b	0.17484061
255	0x3dcf67a2	0.10127188

features_to_image.3.bias f4 [32]
0	0xbc9988d4	-0.018742003
1	0x3e0251e1	0.12726547
2	0x3d5a3632	0.05327434
3	0xbdb4385c	-0.08799812
4	0x3bb2318e	0.0054380363
5	0xbcc02ad7	-0.023457928
6	0xbde64554	-0.11243692
7	0x3d68fad1	0.056879822
8	0x3d0a29b3	0.033731174
9	0xbcbf63e9	-0.02336307
10	0x3d175202	0.036943443
11	0x3dd7535e	0.10513948
12	0x3e0f6393	0.14002828
13	0xbc78bab3	-0.015181231
14	0x3e14bb93	0.14524679
15	0xbd458f85	-0.048232574
16	0x3bbc258a	0.0057417797
17	0x3ddd39f7	0.108020715
18	0x3e19ddc4	0.15026003
19	0x3ce92a64	0.028462596
20	0x3d1e62ad	0.038668323
21	0xbd05eb38	-0.032695025
22	0xbd199fcf	-0.03750592
23	0xbe422120	-0.18957949
24	0xbcfb15ae	-0.030649986
25	0xbcbdcf19	-0.02317004
26	0x3dbdaf13	0.092619084
27	0x3d85fabe	0.06541966
28	0xbde4927c	-0.11160752
29	0xbb831204	-0.0039999504
30	0x3db76fbf	0.08956861
31	0xbda5d67c	-0.0809755

features_to_image.5.weight f4 [32]
0	0x3f8152c8	1.0103388
1	0x3f6245d0	0.88387775
2	0x3f50ba47	0.81534237
3	0x3f5ae9f1	0.85513216
4	0x3f6be614	0.92147946
5	0x3f7914e6	0.97297513
6	0x3f7137d9	0.9422584
7	0x3f82720c	1.0191054
8	0x3f730b16	0.9493879
9	0x3f8137a5	1.0095106
10	0x3f628712	0.8848735
11	0x3f4ee332	0.8081542
12	0x3f5a8094	0.85352445
13	0x3f89a4e4	1.0753446
14	0x3f7417d0	0.95348835
15	0x3f565968	0.83730173
16	0x3f7065a2	0.9390508
17	0x3f6984ab	0.9121806
18	0x3f850d02	1.0394595
19	0x3f5d3784	0.86412835
20	0x3f78a325	0.9712394
21	0x3f7e9c41	0.99457175
22	0x3f6b2aee	0.9186238
23	0x3f70207b	0.9379956
24	0x3f8b37a8	1.087636
25	0x3f666655	0.89999896
26	0x3f823cef	1.0174845
27	0x3f88f24e	1.0698946
28	0x3f74e838	0.9566684
29	0x3f8dfc5b	1.1092638
30	0x3f566685	0.8375018
31	0x3f86512f	1.0493525

features_to_image.5.bias f4 [32]
0	0x3ecbbf66	0.39794463
1	0xbe1a8962	-0.1509147
2	0x3cbadbb7	0.022809846
3	0x3e78eb6a	0.24308553
4	0x3e9e2c9f	0.30893418
5	0xbe8809ee	-0.26570076
6	0x3e914e54	0.28380072
7	0x3e8a9f1e	0.27074522
8	0x3ee96510	0.45584917
9	0x3e0b269f	0.13588952
10	0x3bf469a2	0.0074588815
11	0xbe656919	-0.22403373
12	0xbe82d4e5	-0.2555305
13	0x3da062f8	0.07831377
14	0xbdb6f1c0	-0.08932829
15	0x3e8ba62a	0.2727521
16	0x3ef7d03b	0.48401055
17	0xbd8299fd	-0.06377027
18	0x3eca5264	0.39515984
19	0xbe98821b	-0.29786763
20	0xbe390bab	-0.18070857
21	0x3ebde203	0.37086496
22	0x3e1413f8	0.14460742
23	0xbdab1c95	-0.08355061
24	0x3eb1777f	0.3466148
25	0x3e93e638	0.2888658
26	0x3e83e7d6	0.25762814
27	0x3eae8319	0.34084395
28	0xbe12e289	-0.14344229
29	0x3e96a06c	0.29419267
30	0xbe42e5f2	-0.1903303
31	0x3eae4cc7	0.3404295

features_to_image.5.running_mean f4 [32]
0	0x3f1c482b	0.6104762
1	0x3f4e93e4	0.80694413
2	0x3f3dfaba	0.74210703
3	0x3f26269b	0.6490266
4	0x3f5c7bce	0.8612641
5	0x3f208885	0.6270831
6	0x3f27f913	0.6561443
7	0x3f3816a9	0.71909577
8	0x3f49d0a4	0.78833985
9	0x3f72c0c8	0.9482541
10	0x3f48c1bc	0.78420615
11	0x3f5b7551	0.85725886
12	0x3f5ac95f	0.8546352
13	0x3f6d6b9b	0.9274232
14	0x3f8353f6	1.0259998
15	0x3f5fa072	0.87354195
16	0x3f5a449d	0.85260946
17	0x3f33c78a	0.7022635
18	0x3f8a650c	1.0812087
19	0x3f0eadf9	0.5573421
20	0x3f2f54d9	0.6848884
21	0x3f3a51e2	0.72781193
22	0x3f23cc88	0.63983965
23	0x3f438173	0.763694
24	0x3f1c1438	0.6096835
25	0x3f38bb98	0.72161245
26	0x3f4b46a8	0.7940469
27	0x3f5c7068	0.8610902
28	0x3f2da276	0.6782602
29	0x3f264a24	0.6495688
30	0x3f4f9781	0.8109055
31	0x3f2f53d7	0.68487304

features_to_image.5.running_var f4 [32]
0	0x3f9d46ad	1.2287194
1	0x40057b46	2.085649
2	0x3fbb19c4	1.4617238
3	0x3fa417fb	1.2819818
4	0x3fe238ae	1.7673547
5	0x3f8be411	1.0928975
6	0x3fa79fe2	1.3095667
7	0x3fcaf9c6	1.5857475
8	0x3fae6195	1.362353
9	0x40084d54	2.1297197
10	0x3fae0f55	1.3598429
11	0x3fc8b010	1.567873
12	0x3fd6a1ca	1.6768124
13	0x3fea802b	1.8320364
14	0x40758562	3.836266
15	0x4034d4f9	2.8254988
16	0x401647d0	2.348133
17	0x3f9012bc	1.1255717
18	0x4037a34d	2.869342
19	0x3f408722	0.75206196
20	0x400ddc30	2.2165642
21	0x3f9e5303	1.2369083
22	0x3f9e3ce3	1.2362331
23	0x3ff6da21	1.9285318
24	0x3fdcf8af	1.7263392
25	0x3ffa7984	1.9568334
26	0x3feaed6d	1.8353707
27	0x40088440	2.133072
28	0x4013d44e	2.309833
29	0x3fa3151f	1.2740821
30	0x40040512	2.0628095
31	0x3fb53178	1.4155722

features_to_image.6.weight f4 [32, 16, 4, 4]
0	0xbd5c3b13	-0.053767275
1	0x3d22d09e	0.039749734
2	0xbc19248d	-0.009347093
3	0xbd3f7af9	-0.046748135
4	0x3d63936f	0.055560526
5	0x3b07ae4d	0.0020703257
6	0x3c2adbaf	0.010428353
7	0xbd54e8e8	-0.05197993
8	0xbcc5e6df	-0.02415794
9	0xbd2f847b	-0.042850953
10	0xbd21aa68	-0.039469153
11	0x3d1bc873	0.03803296
12	0xbe457f29	-0.19286789
13	0xbdc04a8a	-0.09389217
14	0xbd952133	-0.07281723
15	0xbd8a72df	-0.06760191
16	0xbdecba57	-0.11558979
17	0xbdecbc3a	-0.11559339
18	0x3c1b4520	0.00947693
19	0xbd3f6034	-0.046722606
20	0xbdd41772	-0.10356034
21	0xbe03b532	-0.1286209
22	0xbe17d2a6	-0.1482645
23	0xbde46d6c	-0.11153683
24	0xbcc800d1	-0.024414452
25	0xbe31cef8	-0.17364109
26	0xbd45d448	-0.04829815
27	0xbda901ff	-0.08252334
28	0x3d7dc753	0.06195767
29	0x3b2a7516	0.002600973
30	0xbcf24042	-0.029571656
31	0xbdc40d2e	-0.09572826
32	0xbdcfb68d	-0.10142241
33	0x3bbe47a2	0.005806879
34	0xbe3f0d47	-0.18657409
35	0xbd9bc300	-0.07605553
36	0xbd130a39	-0.03589842
37	0x3cef1758	0.029185936
38	0xbcd5dd2b	-0.026106438
39	0x3da55bbd	0.08074138
40	0xbdfe7afb	-0.124258004
41	0xbdddb67a	-0.1082582
42	0xbe227759	-0.1586584
43	0xbd8f3908	-0.069933
44	0xbcc52a18	-0.024067923
45	0xbd882a2d	-0.066486694
46	0xbd8d8c29	-0.06911499
47	0xbc1b661d	-0.009484795
48	0xbdbe83d2	-0.093024865
49	0xbd488f8c	-0.048965022
50	0xbde63f6c	-0.112425655
51	0xbda4becb	-0.08044203
52	0xbcad7d43	-0.021177894
53	0xbdbcae29	-0.09212906
54	0xbd9a7ecf	-0.07543718
55	0xbd281e8a	-0.04104475
56	0xbd9526ce	-0.07282792
57	0xbe4503c1	-0.19239713
58	0xbdc3f6a6	-0.09568529
59	0x3d055127	0.032548096
60	0xbe23e38b	-0.1600477
61	0xbe06a55f	-0.13149022
62	0xbd8b5612	-0.06803526
63	0xbd959b95	-0.073050655
64	0xbd8a6028	-0.067566216
65	0xba8e6d75	-0.0010866361
66	0xbc9e3fdc	-0.01931756
67	0xbc91a470	-0.017778605
68	0xbd46526d	-0.04841845
69	0xbdf93b66	-0.121695325
70	0xbe1ecbf9	-0.15507497
71	0xbe56b905	-0.20969017
72	0xbddd2547	-0.10798126
73	0xbe0255a7	-0.12727986
74	0x3c5d22dd	0.013497082
75	0xbcd1f3b9	-0.025628911
76	0xbe0d28df	-0.13785122
77	0xbdac0ff6	-0.08401482
78	0xbcbd3fa0	-0.023101628
79	0xbc6a74af	-0.014310046
80	0xbd9588d1	-0.07301486
81	0x3d82b5a0	0.063822985
82	0xbc2cff6c	-0.010558944
83	0xbdb6cf75	-0.08926288
84	0xbd8d92ef	-0.06912791
85	0xbd185095	-0.037186224
86	0xbe4ee1bd	-0.202033
87	0xbd9e188f	-0.07719528
88	0x3d8c2141	0.0684228
89	0x3c403bf3	0.011733043
90	0x3d6c6164	0.057710066
91	0xbe118dc7	-0.1421424
92	0xbda7a7c3	-0.08186295
93	0xbdfdd71d	-0.12394545
94	0xbd140aa4	-0.03614296
95	0xbe1ab506	-0.15108117
96	0xbd48a501	-0.048985485
97	0x3c98b8df	0.01864284
98	0xbd42c682	-0.047552593
99	0xbaf311a4	-0.0018544686
100	0xbdf86494	-0.12128559
101	0xbd4480b1	-0.047974292
102	0x3d377e9a	0.04479847
103	0xbe2b3b94	-0.16721946
104	0xbcea522a	-0.028603632
105	0x3d0a658b	0.033788245
106	0x3db917f0	0.09037769
107	0x3c756095	0.01497664
108	0xbd9d57c1	-0.07682753
109	0xbc05d796	-0.0081690755
110	0x3c1cdd21	0.009574206
111	0x3d292f54	0.0413049
112	0xbe3e7239	-0.1859826
113	0xbe25d394	-0.16193992
114	0xbd8ee885	-0.06977943
115	0x3d201e56	0.03909143
116	0xbdb2702d	-0.08712802
117	0xbdd479b3	-0.10374775
118	0xbdcde852	-0.10054077
119	0xbd083b8e	-0.03325992
120	0xbdc7787f	-0.0973978
121	0xbe149c53	-0.14512758
122	0x3d149b7c	0.036281094
123	0x3d270067	0.040771868
124	0xbce0ad0a	-0.027426261
125	0xbdedef37	-0.11617892
126	0xbd7f8572	-0.062383123
127	0x3c1e6c49	0.009669372
128	0xbd9d0b26	-0.07668142
129	0xbde4acc4	-0.11165765
130	0xbe001ebe	-0.12511727
131	0xbded3ece	-0.11584245
132	0xbdf0421b	-0.117313586
133	0xbdfdb6de	-0.12388395
134	0xbdd0b567	-0.1019085
135	0xbd4f0203	-0.050539028
136	0xbe567718	-0.20943868
137	0xbdc68c32	-0.09694709
138	0xbe3145b2	-0.17311743
139	0xbc687398	-0.014187716
140	0xbe0c60fe	-0.13708875
141	0xbd31ff96	-0.043456636
142	0xbd81c434	-0.06336251
143	0xbe14ee68	-0.1454407
144	0xbcb78ed4	-0.022406973
145	0xbd6dad48	-0.058026582
146	0xbcc2fd45	-0.023802409
147	0xbcb7d67e	-0.022441145
148	0xbde05bd4	-0.10955015
149	0xbddb4a5a	-0.10707541
150	0xbd194e01	-0.037427906
151	0xbd9a3f93	-0.07531657
152	0xbdb8ebf6	-0.09029381
153	0xbc1c6d82	-0.009547593
154	0xbe195386	-0.14973268
155	0x3da43a97	0.080189876
156	0xbdbf4b2c	-0.0934051
157	0xbe182661	-0.1485839
158	0xbd001a95	-0.03127535
159	0x3d7c01e7	0.06152525
160	0xbb8d9fcf	-0.004322029
161	0xbc42f169	-0.011898377
162	0x3b701c69	0.0036638028
163	0xbdc13505	-0.09433941
164	0xbdc1691d	-0.09443877
165	0xbce34fd9	-0.027748035
166	0xbdda71e7	-0.106662564
167	0xbd7e0cd7	-0.062023964
168	0xbe4a5eb9	-0.19762696
169	0xbd996fd6	-0.07492034
170	0xbe2a30a3	-0.16620116
171	0xbc3c397e	-0.011488317
172	0xbdafd542	-0.085855976
173	0x3bdf36aa	0.0068119364
174	0xbdbed7b8	-0.09318489
175	0xbe01c6f2	-0.12673548
176	0xbd652e3a	-0.05595229
177	0x3d82c4a9	0.06385166
178	0xbd10d60b	-0.035360377
179	0xbda8efcd	-0.08248863
180	0x391a9398	0.00014741567
181	0xbd2a5a33	-0.041589927
182	0x3cbfa785	0.02339531
183	0xbdaa9da1	-0.083308466
184	0x3e026fc5	0.12737949
185	0x3de4221d	0.11139319
186	0x3d913a3f	0.07091188
187	0x3d4885e4	0.048955813
188	0xbd87a4cc	-0.066232294
189	0xbd2ab7f3	-0.041679334
190	0x3c714116	0.01472499
191	0xbcd2ad12	-0.025717292
192	0xbd2b2cf4	-0.041790918
193	0xbc3d2c3a	-0.011546189
194	0xbdfd5e6e	-0.12371527
195	0x3c2dfe32	0.010619687
196	0xbe0d5a14	-0.13803893
197	0xbdd3f1a6	-0.10348825
198	0xbc1aeeed	-0.009456378
199	0xbd83bc5a	-0.064324096
200	0x3d773d19	0.060361
201	0xbe56fa5c	-0.20993942
202	0xbcc1f505	-0.023676405
203	0xbb8fdb76	-0.0043901755
204	0x3da623ff	0.081123345
205	0xbd496d3e	-0.049176447
206	0xbdbe68bb	-0.092973195
207	0xbdf2979f	-0.11845326
208	0xbc03a028	-0.00803379
209	0xbaae4301	-0.0013295115
210	0xbda7458d	-0.08167563
211	0xbe46a678	-0.1939944
212	0x3d83918a	0.06424244
213	0xbd64f9b3	-0.055902194
214	0xbdd2c675	-0.10291759
215	0xbdbfebe0	-0.093711615
216	0xbcccc7df	-0.02499765
217	0x3cd14a44	0.025548108
218	0x3d36cdd0	0.04462987
219	0x3d2eb574	0.042653516
220	0x3d3b6bbc	0.04575704
221	0x3dbec332	0.09314574
222	0xbd97f11d	-0.074190356
223	0x3d44dcab	0.048062008
224	0xbd969893	-0.0735332
225	0xbde80dfc	-0.11330792
226	0xbdec95c4	-0.11552003
227	0xbe9b9ce3	-0.30393133
228	0xbcddc8bc	-0.027073257
229	0x3d34ba0c	0.04412274
230	0xbdd87d99	-0.10570831
231	0xbe31fbc4	-0.17381197
232	0xbdcb7d36	-0.099359915
233	0xbe790298	-0.24317396
234	0x3d1bc6fa	0.038031556
235	0xbcc3425a	-0.02383535
236	0xbe0d8c47	-0.13823043
237	0xbe4d533f	-0.20051287
238	0xbe68e23f	-0.22742556
239	0xbc0f9596	-0.008763691
240	0x3d889531	0.06669081
241	0xbcd8ed6b	-0.026480397
242	0xbe07765a	-0.13228741
243	0xbe1ea898	-0.15494001
244	0xbb504025	-0.0031776514
245	0xbd6cbd3b	-0.05779765
246	0xbd30cbaf	-0.043162998
247	0xbdf56f4e	-0.1198412
248	0x3e01463f	0.12624453
249	0x3a4b5058	0.00077558076
250	0x3d70dfe9	0.058807287
251	0xbca4fd1f	-0.020140229
252	0x3aa23e98	0.0012378274
253	0x3d31885e	0.04334294
254	0xbcc8af98	-0.024497792
255	0x3c11c6fb	0.008897538

features_to_image.6.bias f4 [16]
0	0x3e15e76c	0.14639062
1	0xbd1641a3	-0.03668369
2	0xbd78eb5f	-0.060771342
3	0xbe597d42	-0.21239188
4	0xbd5b5817	-0.053550806
5	0x3dde866c	0.10865483
6	0x3e851668	0.25993657
7	0xbdeaa1e7	-0.11456662
8	0xbd464ffe	-0.04841613
9	0x3dfe7e78	0.12426466
10	0xbdcc8d2b	-0.09987863
11	0x3b34c9c3	0.002758608
12	0xbdb1f93c	-0.08690116
13	0x3e5bdd34	0.21471101
14	0x3e05d247	0.13068496
15	0x3e889c0b	0.2668155

features_to_image.8.weight f4 [16]
0	0x3ff26f89	1.8940288
1	0x3fda34c4	1.7047353
2	0x4002fbaa	2.0466104
3	0x4002698c	2.037692
4	0x3fdcbfd0	1.7246037
5	0x3fed33c8	1.8531427
6	0x3ff6b4bc	1.9273906
7	0x3fe6e619	1.803897
8	0x40030972	2.0474515
9	0x4001da55	2.028951
10	0x3fdf004a	1.7421963
11	0x3fda1561	1.7037774
12	0x3ff847ef	1.9396952
13	0x3fd6997b	1.6765589
14	0x40000f54	2.0009356
15	0x3fcf5ee0	1.6200829

features_to_image.8.bias f4 [16]
0	0x3d54bc4a	0.05193738
1	0xbc0bc146	-0.008529967
2	0x3b4b791d	0.003104753
3	0xbd7f6da3	-0.062360417
4	0xbe3aafc7	-0.18231116
5	0x3e82743c	0.25479305
6	0xbc6d39d0	-0.014479116
7	0xbdc617c8	-0.09672505
8	0xbd6b5271	-0.05745167
9	0xbd8b37de	-0.06797765
10	0xbd9891d4	-0.074496895
11	0xbcbb217a	-0.022843111
12	0xbda14da0	-0.07876134
13	0xbc2febcd	-0.010737372
14	0xbcb52112	-0.022110496
15	0xbca7b660	-0.020472705

features_to_image.8.running_mean f4 [16]
0	0x3e3515b9	0.17684068
1	0x3d3eb3c4	0.046558157
2	0x3dc45efa	0.09588428
3	0x3d4d5d9d	0.050138105
4	0x3d21d926	0.03951373
5	0x3e0779c6	0.13230047
6	0x3e3bc202	0.18335727
7	0x3d47700d	0.048690844
8	0x3d5e0647	0.054205205
9	0x3e91fd57	0.28513595
10	0x3d30d584	0.043172374
11	0x3e10ba34	0.14133531
12	0x3d7dfb22	0.062007077
13	0x3e564819	0.2092594
14	0x3e36489a	0.17801133
15	0x3e73fbc9	0.23826517

features_to_image.8.running_var f4 [16]
0	0x3ddb4327	0.10706168
1	0x3d854139	0.06506581
2	0x3e01269a	0.12612382
3	0x3da8b368	0.08237344
4	0x3d4d4f63	0.050124537
5	0x3da1afd3	0.07894864
6	0x3ddc26b0	0.107495666
7	0x3d8bc53e	0.0682473
8	0x3dda3129	0.10653908
9	0x3e76ef33	0.24114685
10	0x3ddc51d2	0.107577935
11	0x3dd265a2	0.10273291
12	0x3d914d00	0.07094765
13	0x3e26bce4	0.16282994
14	0x3e237ed6	0.15966353
15	0x3e18397b	0.14865677
