trained_models/discriminator_epoch100.pth (torch, 698762 bytes, 9 tensors)

image_to_features.0.weight f4 [16, 3, 4, 4]
00000000: 5a1e 403d 1d23 97bd dfb7 853d 0479 de3c
00000010: 77a2 3cbd c92e 0dbb 7e33 473c bcfc dcbc
00000020: 5f6f 053e 6361 bdbd 65ec 10bd 8645 153e
00000030: 6680 f03d 0705 fdbd ff8a c53c 0edd c53d
00000040: 2d48 953d eebe da3d 9518 49bd 902c 2d3e
00000050: f2e9 313d 3e5a 2b3e 3938 bb3d bc41 dcbd
00000060: 38ad dcbc fe53 f439 f9df 503d be64 f6bc
00000070: b006 9e3c fd34 7e3d d36a acbd 12d3 e9bd
00000080: 81e0 003d cf97 1d3e 5b9d 9cbd e212 383d
00000090: c016 f8bd 2702 d13d 98ff dc3d 35ac fcbc
000000a0: bff4 89bb 6df3 3d3d 2e90 b83b 59cd f33d
000000b0: d2d8 67bd 1d29 06be 8dca 0b3e b443 f9bd
000000c0: caa6 e73c b6c0 a83c c739 47bb 62f4 2abc
000000d0: 2292 a13d 3aca af3d dcb5 af3c fc51 a13c
000000e0: d633 8abd 59aa 13bd c102 873c 5e0c 15be
000000f0: 58df a3bd 86ec 6abd cb6a 95bd ae41 f3bd
00000100: 7373 dcbd 83d3 eabd e637 f93c eb41 e7bd
00000110: 3580 293d 7b9b c73d d3c1 503d 3d35 e5bd
00000120: 92e5 cd3d a0c9 273e d43c d23d d3e0 953d
00000130: 8dfb e13d 82ae 023e df34 f83c 3d0e 8b3c
00000140: d8d9 573d 6292 d53d 2383 99bd d9cf bd3a
00000150: b11b 95bd 0c35 013e 454a 203e a6c4 38bd
00000160: 2214 393e 0a83 e53d 6e20 983c 081c cd3d
00000170: 8b1c 3e3e 7c53 e93d 5026 2d3e 942e 09bd
00000180: a7b0 033e f3bb be3d 1f80 edbc 9ad5 d3bc
00000190: a8dc 75bd 2c10 fd3d b81a 153d 0f5c e0bc
000001a0: ac23 7fbc 34e9 bdbd 0423 ddbc 5fda 173e
000001b0: cfea 93bc b07f fe3d 93fd e33d c2bd b83d
000001c0: 5bb1 da3d c16e c2bd 5e9c e33d 5684 893c
000001d0: 7d5c d43d 854f 9cbb cd4c 213e 0328 f23d
000001e0: 4dec 523d 90dc d0bd 9a82 193e 3378 cb3d
000001f0: 8d35 13bd cd0d 483d 2d18 9bbd 6c3f 3d3d
00000200: 7e37 b23d ca2a f43c 6cab 303e 7080 8a3c
00000210: 3d4f ca3d 0fe7 2dbc 6ef2 63bd fba4 ec3d
00000220: 7ddc 15bd 5f37 063e b634 373e 1cf2 abbd
00000230: d67a 59bd c71a 1a3d 8ed0 28bc bdd4 223e
00000240: bb8b ac3c 7e6c 7dbd d094 0ebe faa8 18be
00000250: 3771 9b3d 5204 42bd ceb7 e33d 703a 2cbe
00000260: b655 a93d 9ee9 bd3d 33af babc 24d2 afbc
00000270: d14b 183c 96b8 42bd be01 78bd ba3c d8bc
00000280: 4a3f c4bd 24a4 5fbd fafe 59bd 53e0 09be
00000290: 3be9 c6bd 3aed 2d3d 9d21 d93d 380f ba3c
000002a0: f339 0cbe 8bfa 733d ad89 fa3d b980 413d
000002b0: 1852 d8bd 0416 1b3d 2d1a b2bc 04cf df3d
000002c0: f118 0d3b 13d8 93bd d388 aabc 836a 00be
000002d0: 465b 393b 67ac 223c 358f 303c 9fb4 0dbd
000002e0: 54eb a23c 1867 d5bc ab54 18bd 42e3 f73c
000002f0: 4ca9 43bd ffdf 053e 1495 393d 0127 a5bc
00000300: 8a24 33bd 1a3f f43d 7097 a03d 8619 ab39
00000310: 0be6 c63d 4951 edbd bff8 ca3d 3811 103b
00000320: 3b17 76bc aa92 c93c 66eb 103e c1b4 bcbb
00000330: 2c5a 80bd 58d7 4cbd b92b 2f3d a432 aebd
00000340: 0e81 ffbd bec4 0cbc c036 3b3d 98cb d03c
00000350: ebf4 85bc 656f d2bd f331 35bd 9835 223e
00000360: e1e1 d33d 4628 d63d ba6a f5bc a982 743d
00000370: a378 e03c 4177 973d cfe9 6c3d bce4 9c3d
00000380: 827c 1bbd 1a57 5f3d 4d5b 0d3d 3289 4c3d
00000390: d580 413d a296 90bc 4e34 0c3e 60d2 9bbd
000003a0: 5db5 103c e25c b13c 65bc ffbd 4bf3 a7bd
000003b0: 7300 9e3d ae2c 53bd c232 563d 6b82 953c
000003c0: ac83 81bd 21c8 033e b19f e33d 91ab a1bd
000003d0: 4c2e 8abd 42c5 283d 82a5 a3bd 73ff 343d
000003e0: fd9f 003e 90bf 753c e92d 2cbd afa0 ef3d
000003f0: 569c 5d3d 952b a53d c0ac 053e cd8e a5bd
0.046903946 -0.07379744 0.06529211 0.027157314 -0.046053376 -0.0021542779 0.012158273 -0.026975982
0.13030766 -0.09247091 -0.035381693 0.14577302 0.1174324 -0.123544745 0.02411413 0.096613035
0.07289157 0.10680948 -0.04909571 0.1691153 0.043436 0.16733643 0.09141583 -0.10754725
-0.026938066 0.00046601886 0.050994847 -0.030077334 0.019290298 0.062062252 -0.084188126 -0.114172116
0.031464104 0.15389942 -0.07647201 0.044939883 -0.12113714 0.10205489 0.10790938 -0.030843833
-0.004210084 0.046374727 0.005632422 0.11904401 -0.05660326 -0.13101621 0.13651486 -0.121711165
0.028277773 0.020599704 -0.0030399428 -0.010434242 0.07889201 0.085834935 0.021449022 0.019692414
-0.06748168 -0.036051128 0.016480805 -0.14555499 -0.08001584 -0.057354473 -0.0729576 -0.11877762
-0.10764208 -0.11466124 0.030422162 -0.1129187 0.041382033 0.097464524 0.050966095 -0.11191795
0.10053553 0.16385508 0.10265508 0.073182724 0.11034308 0.12761882 0.030298648 0.016974563
0.052697986 0.10428311 -0.074957155 0.0014481499 -0.07280672 0.12617892 0.15653332 -0.045109414
0.18074086 0.11206634 0.018570151 0.10015112 0.18565576 0.113928765 0.16909146 -0.033491686
0.12860356 0.09313192 -0.028991757 -0.02585869 -0.060024887 0.123566 0.036402434 -0.027387647
-0.01557247 -0.092729956 -0.026994236 0.14829396 -0.018056301 0.12426698 0.1113235 0.090205684
0.10678359 -0.09493781 0.11113809 0.016786736 0.10369203 -0.0047702217 0.15751953 0.11824038
0.051494885 -0.10198319 0.14991227 0.099350356 -0.035939742 0.048841286 -0.075729705 0.046203062
0.087019905 0.02980556 0.17252892 0.016906947 0.09878395 -0.010614171 -0.05565112 0.11554905
-0.036587227 0.1310706 0.17891201 -0.08395788 -0.05309566 0.037623193 -0.01030363 0.15901466
0.021062722 -0.061871044 -0.13923955 -0.1490821 0.075899534 -0.0473674 0.11119042 -0.16819167
0.08268301 0.092730746 -0.02278862 -0.021462508 0.00929542 -0.047539316 -0.060548536 -0.026396144
-0.09582384 -0.054599896 -0.05322168 -0.13464479 -0.09712454 0.042462565 0.10602114 0.022712335
-0.13693981 0.05956511 0.12233291 0.0472419 -0.10562533 0.037862793 -0.021740997 0.10928157
0.0021529759 -0.07218947 -0.020817196 -0.12540631 0.0028283163 0.009928799 0.010776331 -0.03459608
0.019887604 -0.026050135 -0.03719012 0.030259732 -0.047768876 0.13073729 0.045308188 -0.0201602
-0.04373602 0.11926098 0.078413844 0.00032634678 0.09711846 -0.115877695 0.09910726 0.002198292
-0.015020187 0.024606068 0.14152297 -0.005758852 -0.06267199 -0.050010055 0.042766307 -0.08505753
-0.12475787 -0.008591829 0.04570651 0.025487706 -0.016352138 -0.10275153 -0.04423709 0.15840757
0.10345817 0.104569 -0.029958118 0.05969492 0.027401274 0.07395793 0.057840165 0.07660815
-0.037960537 0.054526426 0.0345109 0.049935527 0.047242004 -0.017649952 0.13691828 -0.07608485
0.008832303 0.021650735 -0.12487105 -0.08200701 0.077149294 -0.05155628 0.0522945 0.018250665
-0.063239425 0.12869312 0.11114443 -0.07894052 -0.06747112 0.041203745 -0.079905525 0.044188928
0.1256103 0.014999285 -0.04203597 0.1170057 0.05410417 0.08064953 0.1305418 -0.08083878

image_to_features.0.bias f4 [16]
00000000: 3645 05be 4baa 9abd 0b88 013e 2a6c e5bd
00000010: 826b 37be b62b 45be 8f5d 263e d34f 8ebd
00000020: 6eef 0a3e 9688 3a3e 87c7 b23d 59a1 eebd
00000030: 08e5 a43b cf4a 2abd ce6f 19bd 2ede c63d
-0.13014683 -0.07552012 0.12649553 -0.11202271 -0.17912105 -0.19254956 0.16246627 -0.06948819
0.13567898 0.18216166 0.08729463 -0.116518684 0.0050321855 -0.04157525 -0.03746014 0.09710346

image_to_features.2.weight f4 [32, 16, 4, 4]
00000000: 5248 f13c ef4d 51bd fd4b 663c 6ebf a2bd
00000010: 09d5 96bd cff3 58bd 05f8 cfbb 7e7c 24bd
00000020: 4543 1f3d b07e 22bc 40ad 00bb 000a b0bc
00000030: 734d 91bb cd8a 90bd 023d 96bd dfb8 a53c
00000040: 721b 77bc 2260 f1bc 5376 27bd 9daa 0ebd
00000050: 4dd8 653d 360c 47bc daa0 c6bb 9e14 68bd
00000060: 93e2 08bd 5bac 6a3c 1fdb e03c c0d8 b3bc
00000070: c7fa 72bd 0497 bb3c 73d6 8cbd dff9 0e3d
00000080: 1067 643d edc1 493d a6a1 8a3c c0cb 083d
00000090: e453 0cbd 0d77 113d e685 8a3c 5526 313d
000000a0: c325 e03c 0d27 1b3d d462 52bd 4a9b 98bc
000000b0: fc3a dabc 47b7 2fbd 8c83 213d f80c 513d
000000c0: 9bd8 b9bc 9ef4 e53a 58ec d1bc 8d5a 82bd
000000d0: 7311 50bd 3cd5 09bc 2bb9 e9bb 76ea 49bc
000000e0: 7ba6 a0bc 4f1e 89bd 1412 b83c 1edf 80bd
000000f0: 1429 7a3b d135 053d 159a 52bd ad33 06bd
00000100: c5ca 5abd 0368 b2bb 1a03 01bd 9c1b 14bd
00000110: fb65 91bd b945 20bd 7771 6abd 48cf eabc
00000120: 9b69 bb3c 8654 093d a6f3 a4bc 28f6 80bd
00000130: d19f e53c 29e3 1abc d220 bcbc f5b8 c43c
00000140: 6dc4 37bd a5c2 d8bb 015e 213b 0139 1ebd
00000150: b670 413c f4bb 3abd 4bb4 25bd 3c6d 8dbd
00000160: 374b f7bc 3cde 48bd ebb1 f33c 23c0 2fbd
00000170: f546 b93c 92d3 1cbd 1e52 2f3d 27d7 8f3c
00000180: 379a 64bd 8e48 533c a5ff f23c 02c4 ce3c
00000190: ccde 8cbb cd3d c23c ac2c 2cbd 708f 88bd
000001a0: a2d4 123d ed9e de3c d354 833c eb8b c93c
000001b0: f703 2bbd a4bf 1c3d 162a 5dbd e3fe 85bd
000001c0: 4730 cd3b 062b 7f3d 46d6 f03c 6fd4 e93b
000001d0: c5ad 1d3d 31f2 503d bdfa 0bbd 4dbb 423d
000001e0: baeb 0e3d c33d 1ebd b23d 3dbd e598 0abd
000001f0: 530f 7f3b 6e52 483d af8f 333b d1eb 50bd
00000200: f53a dfbc 270e 823d 0323 763d 09d3 133c
00000210: 01bf 873d eef6 3dbc 0a18 0cbd 7b44 a93c
00000220: 0648 903d 7112 b6bc bdce 893d 554c d3bc
00000230: 176d 823d 16fa 0e3d 9264 ac3c 5b77 d13c
00000240: 1bba 87ba 03ef cdbc e7ac acbc 5ede 2abd
00000250: ee4a a3bd 9ebb 86bb 2d17 86bd 0629 3f3c
00000260: f687 69bb 1bec 9dbd a6fd 82bd 972a 95bd
00000270: b33d 90bd 5057 acbd d568 c1bd f2d3 b9bd
00000280: d41e 9c3c f9a5 933c 500c 973d e964 0b3d
00000290: 5e6a 963d 1582 f13b 5e68 a0bc ec49 9dbc
000002a0: df9b 90bc ce8c 553d 3614 923d e552 7a3d
000002b0: 2ba1 523d 1b92 083d b9a8 993c df20 ef3b
000002c0: 3310 24bd 3bd3 8a3c a936 8cbc c551 21bd
000002d0: fbcd 85bd a097 ab3b 3191 31bd 6c03 a63c
000002e0: 320f 5b3c c02f 25bd 3262 7bbd 73b7 b73c
000002f0: b7c2 29bc 7c4d 1abd d918 7d3c a9a2 43bc
00000300: 09af 713d 3714 3a3d 02de 8c3d e402 ed3c
00000310: 9a99 1dbd cb53 e53c de67 36bc e4e4 433d
00000320: d711 893d b5ee 4dbd 0d6f 4cbd 2ed9 923d
00000330: aec8 4f3c afef 04bd 95a9 7a3c a8ec 24bd
00000340: aeeb d03c c593 1b3c d01e 3abd ff6d 9abd
00000350: 40de 863c cd5a 8c3c 6e43 96bd 4de6 e23c
00000360: 343a 98bd 33ad 22bd 0898 8ebd 275c 023d
00000370: eba1 4fbc 28a8 9bbd 37f4 f73c 6702 31bd
00000380: 9288 3ebd cd8e 9e3c a21b 02bd 7cf1 5cbd
00000390: db9a 90bc f77a 19bd f335 cbbc cb05 16bb
000003a0: 2e50 3ebd d028 393d 1a06 403d 3a67 913a
000003b0: 1bbe 31bc f373 f63b 0abb 4f3c effe 27bc
000003c0: 385a 4dbd 1913 a63c c3b0 bbba 7395 893c
000003d0: edd1 48bd 5c0a 45bd ee70 93bb 57c8 d43c
000003e0: e2ab 643d d8be 33bc 8c78 4b3d d5c8 013c
000003f0: cf6b 5fbc 46da a4bb c342 52bc e960 453d
0.02945343 -0.051099714 0.014056203 -0.079466686 -0.07364852 -0.05296689 -0.006346705 -0.040157788
0.038882513 -0.0099179 -0.0019634515 -0.021489143 -0.0044342815 -0.07057724 -0.07335855 0.020229755
-0.015082227 -0.029464785 -0.040884327 -0.03483068 0.056114484 -0.012148907 -0.0060616555 -0.056660287
-0.033419203 0.014323319 0.027448235 -0.02195394 -0.05932119 0.022899158 -0.068768404 0.034906264
0.05576235 0.049257208 0.016922783 0.033397436 -0.03425969 0.035513926 0.01690955 0.043249447
0.027361756 0.03787904 -0.05136378 -0.018628735 -0.026639454 -0.042899396 0.039432094 0.05103776
-0.022686293 0.0017544215 -0.025625393 -0.063649274 -0.05079789 -0.008412655 -0.0071326694 -0.012323966
-0.019610634 -0.06695234 0.022469558 -0.06292556 0.0038171457 0.032522026 -0.051416475 -0.032764126
-0.053416032 -0.005444528 -0.0314971 -0.036159143 -0.07099529 -0.039128993 -0.057237115 -0.028663293
0.022877505 0.033527873 -0.020135712 -0.062969506 0.028030308 -0.009453573 -0.022964869 0.024013976
-0.04486506 -0.0066150003 0.002462268 -0.038628582 0.011806658 -0.045589402 -0.040455144 -0.069056004
-0.030187232 -0.049040064 0.029747924 -0.042907845 0.022616843 -0.038287707 0.042802922 0.017558647
-0.055811133 0.012895716 0.029662916 0.025239948 -0.0042990204 0.02371111 -0.04203479 -0.066679835
0.035847314 0.027175391 0.016031658 0.02460285 -0.041751828 0.0382687 -0.053995214 -0.065427564
0.0062618586 0.06229689 0.029399049 0.0071359198 0.038495798 0.05101222 -0.03417467 0.047541905
0.034892775 -0.03863312 -0.046201415 -0.033837218 0.0038919046 0.048906736 0.0027398875 -0.051006142
-0.027249793 0.063503556 0.060091984 0.009022483 0.06628228 -0.011594517 -0.034202613 0.020662537
0.070449874 -0.02222559 0.06728885 -0.025793234 0.063684635 0.03490647 0.02104405 0.025569608
-0.0010355146 -0.025138384 -0.02107854 -0.041715972 -0.07973276 -0.004111721 -0.06547389 0.011667496
-0.0035634018 -0.07711049 -0.06396036 -0.07283514 -0.07043018 -0.08415091 -0.09443823 -0.090736285
0.019057669 0.018023478 0.07375395 0.034031782 0.07344507 0.0073702433 -0.019581016 -0.019200288
-0.01765245 0.052136235 0.07132761 0.06111421 0.051423233 0.033342462 0.018757211 0.0072976197
-0.04005451 0.016946426 -0.017115908 -0.039384622 -0.06533428 0.005236581 -0.043351356 0.020265304
0.013370322 -0.04032874 -0.061372943 0.022426343 -0.010361365 -0.03767155 0.015447819 -0.011940637
0.059004817 0.045429435 0.06878282 0.028932042 -0.038476564 0.027994057 -0.011133162 0.04782571
0.06692856 -0.050276477 -0.049910594 0.0717033 0.012682123 -0.032455143 0.015299221 -0.040264755
0.025503006 0.00949568 -0.04543954 -0.07540511 0.016463399 0.017133141 -0.0733708 0.027697707
-0.07432976 -0.039715957 -0.069625914 0.031826165 -0.012672882 -0.07600433 0.030267818 -0.04321518
-0.046516962 0.019355202 -0.031764634 -0.053941235 -0.017651966 -0.037470784 -0.024805998 -0.0022891636
-0.046463184 0.045204937 0.04688082 0.0011093386 -0.010848547 0.0075211464 0.012678871 -0.010253652
-0.050134867 0.020272778 -0.0014319647 0.016794896 -0.049028326 -0.048105583 -0.0044995463 0.025974436
0.055827983 -0.010970794 0.04967551 0.007921417 -0.013636543 -0.005030903 -0.0128333 0.048188124

image_to_features.2.bias f4 [32]
00000000: 3f14 133b 5e91 0cbd 442a 42bd 11ea 133c
00000010: aef0 cd3c 6849 61bd f9dc 523d fb28 02bd
00000020: 1799 833c 904d 433c 6b93 263d dd42 303d
00000030: 83df 69bd ed1e 03bd f6ae 10bd 45cb 993c
00000040: f1be a63d e55b 98bc f2b4 a6bd 9175 23bd
00000050: be9c a43c a2df 623d a6b1 373c 6fb4 b33c
00000060: 33e0 963a 5be8 57bc 4314 4c3c 33f3 023d
00000070: 272c 62bd e66f 26bd 8a78 37bd 7a9f b83b
0.0022442488 -0.03431832 -0.04740359 0.009027974 0.02513918 -0.055001646 0.051480267 -0.031777363
0.01606421 0.011920348 0.040667932 0.043032516 -0.057097923 -0.032011915 -0.035323106 0.018773684
0.08141888 -0.018598506 -0.08139981 -0.039907042 0.020094272 0.055389054 0.011211788 0.021936623
0.0011510908 -0.013177956 0.012456003 0.031970214 -0.05521789 -0.04063406 -0.04479269 0.0056342455

image_to_features.4.weight f4 [64, 32, 4, 4]
00000000: fd0f dc3c 5099 883d 2863 633d 1c6a 41bc
00000010: 6e4b 683d d0d8 dfbb 6b4e 20bc 2dd3 e23b
00000020: 87fd b13c c1c2 84bc 1a5b 62bd 56af 5bbd
00000030: 2599 843b 6acb e43c 2128 b83c 5f98 24bd
00000040: b961 4c3c 5580 203d 0623 3abd 07a2 803b
00000050: 8fdb 63bc 699b f33c 6691 3ebd ce8c 1aba
00000060: ab93 2c3b 103e c7bc f138 b03c 879e d5bc
00000070: f077 873b a283 36bd f0e0 b8bc 2a5d 0bbd
00000080: 6ad5 71bd ba5c ccbc e5eb bf3d be65 a13d
00000090: 99d9 aebc 18d0 803d 1b5b d93d c878 753d
000000a0: a5c9 653b 969e d43c 9204 023e 7cd4 c93d
000000b0: 2da7 4a3d 7ffe 463d dbdc d93c f6e8 653d
000000c0: d57e 85bb 5d64 79bc b13b 243c 65e9 cc3c
000000d0: 5cc2 7b3d 0dba 1e3d 903c ddbc 7b46 f53c
000000e0: c2ac 613b 576c 103d 28d3 1fbd 2c0f 4b3b
000000f0: 7c6f 13bd 0eb9 0ebd e18d 12bd ee13 ecbc
00000100: dfd7 3e3d d8d7 873d cd8f 113d b140 413d
00000110: 6b6e 0f3c f142 583d a5bf 743c bfe2 61bb
00000120: 4616 fb3c 944b 803c 551e 47bb 0870 863c
00000130: d13f 333c 09a5 82bc 090e 24bd 74d1 07bc
00000140: e24b e23b f0ca 803d c37f bd3d 43f2 bb3d
00000150: 099d 14bb 7f29 053d 5dbb b13d 0ae7 ce3b
00000160: 3f41 dcb9 934b aa3d 7392 e63d c648 2c3d
00000170: f911 093e e0f2 ae3d 5521 803d 19d3 663d
00000180: e8b0 24bc b066 53bd 6f9c fb3a a24e 913d
00000190: 9a7b 80bc e469 81bd 5ba5 e3bd 1fb4 763b
000001a0: 0db6 26bc 3875 903d 3805 4a3d 8cb0 9d3d
000001b0: 7f7b e13d e6a4 b23d 7818 303d 9785 313d
000001c0: 0264 853d 0094 4dbd 8ebb 1ebd 277b 803d
000001d0: 8cf8 573d 4cc3 eb3c db80 8cbc 6bd8 943c
000001e0: 6602 363d b7bd 6f3d 140f 1c3d e576 aa3d
000001f0: d566 2a3c e216 c83b 9281 0e3d 00bc 433d
00000200: 1135 bd3b 9ded 853d e322 673d 752c 813d
00000210: 6dd8 4bb9 540b 8e3d 0037 213d 9313 1d3d
00000220: 0e65 70bd 97a0 92ba 77c7 50bd 8f60 d43d
00000230: 8b8d 3fbc 28c1 ec3c 2338 383d 4635 ed3d
00000240: e329 2c3b 68cb 61ba b72e 6f3d e2d3 1cbd
00000250: b253 6b3d ee02 cdbb 8650 2e3d a18d 553c
00000260: 7024 0e3d 07cc 313d ff6b 703b 75e0 59bd
00000270: b972 42bc 3965 0bbd 5e05 50bd 46e7 00bc
00000280: 67d9 033d 3441 4c3d 3acc 893c 5ff8 d23a
00000290: ff17 92bc fc9b 433c 6593 bbbb 8378 03bd
000002a0: eb25 f23c 8b82 ec3c de2c f33b c9e4 a53b
000002b0: 1cfd 633c 7890 92bc 47d9 313c 2800 723c
000002c0: 2126 58bd aa1d 71bc d73e 2abc f3a8 073e
000002d0: bb62 c6bd 5420 c63c 313f c8bc 3f00 8e3d
000002e0: 925a b7bc cb34 90bd 87aa b1bb 5072 e93b
000002f0: 5fe8 113d 2052 dc3d 5def b7bc 66f2 c33d
00000300: fe26 63bd 7497 6f3d 30f0 853d 79cd afbb
00000310: a5e4 033c c066 843c 7c0c a53d ba2c a43d
00000320: 596d ccbd cc2a 5d3d c2c4 9f3d ebec dc3d
00000330: 54d4 713d 6391 e23d c241 da3d 2f1d 8d3d
00000340: e6a9 723d 5d1d 613d 56b8 793d 6431 33bc
00000350: 55b4 883a 5de0 ac39 2b77 4e3c cd07 02bd
00000360: 190f 7d3d c26f bb3c 102a ee3b afee 023d
00000370: f38c 0d3d b1f4 31bd f732 9cbc 0101 3fbd
00000380: 0dc7 a73d 4713 6b3a e717 43bc 442f 2ebd
00000390: 74fe 093d 4ef1 2d3d 0f71 623d a129 3f3d
000003a0: 697b d73d 2117 143e 3ce5 9f3d c8de 843d
000003b0: 5541 093e cf7e 0b3e 6878 633d 4f7e 083d
000003c0: 2f98 f5ba ce01 67bb 6b49 233d e8b8 2cbd
000003d0: ac82 49bc 552e 223d 3ac5 853c a532 f2bc
000003e0: 1922 fc3b 52ca 6b3c c59b a2bc 77e6 0abd
000003f0: e8fd 02bd bfc4 923c 4cb2 65bd 2e9d 48bd
0.026863093 0.06669867 0.055514485 -0.011805084 0.05671256 -0.006831266 -0.009784321 0.006922147
0.021727337 -0.016206147 -0.055262662 -0.05363401 0.0040465766 0.027929027 0.022480072 -0.040184375
0.012474471 0.039184887 -0.045443557 0.003925565 -0.013907327 0.029737191 -0.04652538 -0.00058956153
0.0026333134 -0.024321586 0.021511527 -0.026076568 0.0041341707 -0.04455913 -0.022568196 -0.034024395
-0.059041418 -0.02494656 0.09371165 0.07880734 -0.021343993 0.06289691 0.1061308 0.05992964
0.0035062816 0.025954526 0.12697056 0.09854981 0.049475837 0.04858255 0.02659457 0.056130372
-0.0040739574 -0.015221682 0.010023997 0.025013635 0.061464652 0.03875165 -0.027006418 0.029940834
0.0034435247 0.03525957 -0.039019734 0.0030984385 -0.03599499 -0.03484445 -0.035779838 -0.028818097
0.04659259 0.06632966 0.03553753 0.047180835 0.008754353 0.052798215 0.01493827 -0.0034467427
0.03065027 0.015661038 -0.003038307 0.016410843 0.010940508 -0.015947836 -0.040052447 -0.008289684
0.0069060186 0.06288707 0.09252884 0.09177067 -0.0022676608 0.032510277 0.08678315 0.006314163
-0.00042010282 0.08315196 0.11258402 0.04206159 0.13385762 0.085424185 0.062563576 0.056353662
-0.010051943 -0.051611602 0.0019196401 0.07095076 -0.015683938 -0.06319025 -0.111155234 0.0037643982
-0.01017524 0.07053608 0.049321383 0.07699689 0.11009883 0.08722858 0.042992085 0.04334029
0.065132156 -0.050189972 -0.038753085 0.062734894 0.052727267 0.028779648 -0.017151287 0.018169602
0.04443588 0.058530536 0.038100317 0.083234586 0.010400494 0.0061062435 0.034791537 0.047786713
0.0057741483 0.06539462 0.056429755 0.06307308 -0.00019440214 0.069357544 0.039359093 0.038348746
-0.058690123 -0.0011186776 -0.050971474 0.103699796 -0.011691461 0.028900698 0.04497541 0.11582427
0.0026270084 -0.0008613379 0.05839416 -0.038288005 0.057452865 -0.0062564528 0.042557262 0.013034255
0.03470272 0.043407466 0.0036685464 -0.053192575 -0.011868172 -0.03403208 -0.05078637 -0.00786764
0.032189753 0.04986687 0.016821016 0.0016095749 -0.017833708 0.011939045 -0.005724358 -0.03209735
0.029559096 0.028870841 0.00742112 0.0050626737 0.013915326 -0.017891154 0.010855026 0.014770545
-0.052770738 -0.014716545 -0.010390959 0.13248043 -0.096868 0.024185337 -0.024444195 0.06933641
-0.022382054 -0.070413195 -0.00542194 0.007124223 0.035621997 0.107578516 -0.022453004 0.09567718
-0.055457108 0.058494046 0.06539953 -0.0053650704 0.008050119 0.016162276 0.08059022 0.080163434
-0.09981794 0.053995892 0.078012004 0.10787376 0.059040383 0.110628866 0.106570736 0.06890332
0.05924406 0.054959644 0.060966812 -0.010937069 0.001042972 0.0003297356 0.012601654 -0.03174572
0.061781976 0.022880439 0.007268198 0.031965908 0.034558248 -0.043446247 -0.01906727 -0.046631817
0.08192263 0.0008967411 -0.011907554 -0.042525545 0.03368993 0.042466454 0.055283602 0.04667056
0.105215855 0.14461948 0.07807395 0.06487805 0.13403828 0.13622592 0.05553475 0.033323582
-0.0018737371 -0.0035248878 0.03986494 -0.042168528 -0.012299221 0.039594967 0.016329397 -0.029565165
0.0076944944 0.014391499 -0.019849667 -0.033911195 -0.031980425 0.017916081 -0.05607824 -0.048978023

image_to_features.4.bias f4 [64]
00000000: 9085 ed3c c525 6d3d 0124 223c 7d35 3abd
00000010: 9778 ab3c 9ba0 43bd 47bb 69bd 969c 1e3d
00000020: ea2d 0abd 2be3 7bbd eb19 50bd 22ef 753d
00000030: 8e55 42bd 3e68 043d 151e 6c3c da38 853c
00000040: 6a17 b9bc 409f 4abd f41d 0c3d 757f 41bd
00000050: 20c7 88bd d9cd fb3c 97ff 04bc adec de3b
00000060: f1a9 2a3c 3b41 83bc 3308 793a 202c bbbb
00000070: 59c4 80bc 5bf8 873d e83f e0bc e442 e43c
00000080: 1752 8e3c 5c4a 163d ae03 3c3c 5a14 6f3b
00000090: f0fa 833c f35d a33c 8671 153c 7e07 873c
000000a0: 835e 50bd b6b1 383d 347a 2abd 2ccb 71bb
000000b0: 0961 893c 67bf 84ba c4a1 70bd 36bc 0fbd
000000c0: 3f1c bebc 193c ebbb e8bb 833c 4433 0cbb
000000d0: 7185 2d3d 0dd2 903c 6000 68bd 9607 923b
000000e0: cbf9 1d3c b40c cf3c 57cb 07bd f653 8fbc
000000f0: d5bd 183d af31 c83c 60f1 b3bb 30c0 373d
0.028994352 0.057897348 0.009896279 -0.045461167 0.020931525 -0.047760587 -0.057063367 0.03872355
-0.033735193 -0.06149594 -0.050805967 0.060042508 -0.047444873 0.032325976 0.014411469 0.01626246
-0.022594173 -0.04946828 0.034208253 -0.047240693 -0.06678605 0.030737804 -0.008117578 0.0068031163
0.010416494 -0.016022315 0.0009499818 -0.005712047 -0.015718626 0.06639167 -0.027374223 0.027863927
0.017373128 0.03669201 0.011475487 0.0036480636 0.016110867 0.01994226 0.009121304 0.016483065
-0.050871383 0.045091353 -0.04162045 -0.0036894782 0.016769903 -0.0010127843 -0.05874802 -0.0350916
-0.023206828 -0.007178795 0.016080812 -0.0021392861 0.042363588 0.017678285 -0.056640983 0.0044564707
0.009642075 0.025274612 -0.033152904 -0.01749609 0.037290413 0.024437753 -0.0054914206 0.04486102

image_to_features.6.weight f4 [128, 64, 4, 4]
00000000: d5b7 82bd bf12 e5bd 46f9 0aba 68c1 a2bd
00000010: 7280 adbd f864 c8bd 607d 783b 916a c2bd
00000020: 14fe 99bc ada4 34bd 16aa 7e3c d285 34bd
00000030: 2e3b 2fbd c2da c1bd 2835 87bc 7041 c5bd
00000040: dc71 393d 8c72 dd3c 4e81 2b3d 4bd6 983c
00000050: 4a04 c13c 720a 8f3c f82a 753c a0f7 343d
00000060: bee8 aabb 6dd1 9cbc edbc e4ba cc21 b43b
00000070: d0b0 133d a226 f73c ae89 e23c 087d 173d
00000080: b760 b3bc 506a a8bd b628 5fbd 74cf 21bd
00000090: bb4c 98bd e606 94ba f90e e5bc 1f26 41bc
000000a0: f768 f1bc f569 b23a 6790 fb3b 7522 46bd
000000b0: 96c3 24bd 0831 5dbc 71d7 aebc 3dd2 63bd
000000c0: af0e f2bc 0904 c1bc 2b59 6abc 41d9 59bc
000000d0: a61b 07bd 6c57 d9bc 3dc9 3a3c 9d4f 92bb
000000e0: f970 36bd e58f a83c 8798 a83b 8f74 1fbd
000000f0: 6492 e4bc 283f f7bc 123c 68bd 6866 50bd
00000100: 2fc0 f73c a258 2b3d d2a0 363d b0d9 093d
00000110: eaac 813c 4140 c93c 52ef ee3c 7807 be3a
00000120: 3b1b 88bb 805a 613c e509 27bb d910 1e3c
00000130: c8cb 1dbc d646 ea3b c185 863b 7e19 d43b
00000140: 5800 a7bd dc55 17bd e41f dfbc 8611 5dbd
00000150: 519d eabc 2b7d bcbc 45cb 193b e2e5 21bc
00000160: 5ebb cabb 4796 7dbb d00f 97bc ed2f 3dbc
00000170: 2d6b 37bd 10ef 76bd 50d4 93bd 3f09 8dbd
00000180: 0dbd d8bc d1bd eabc 6c21 23bc 1c3b a6bc
00000190: ca37 593b d56a 12bd 087e 2b3c c4b4 3b3b
000001a0: 6ff4 f2bc 8428 4dbc d74f 34bd 8b19 20bc
000001b0: 7dc0 82bd 61d9 f8bb 2dce 0fbb 2a4d 0dbd
000001c0: 13ad 273d fd6b 48bc 41b2 193d ff36 093c
000001d0: 5f21 94bb 39cf d6bc d48a 9a3c 85ad bb3c
000001e0: 50fe d73c fb16 6ebc 6f37 11bc 3c18 463c
000001f0: 95f9 d1bb e43d aa3c 8ced 083d eafd 3fbb
00000200: 7ea6 aabd 96ba 9ebd 2df4 83bd e61e 76bd
00000210: a560 53bd e91c b4bd f8df 75bd 8d8b 29bd
00000220: 6046 52bc fde2 2dbd 492e 82bd 4cb5 29bc
00000230: dfa9 d4bc e377 81bc c201 b9bc 8d36 a2bc
00000240: 3185 eabb 91e4 b73b b38d c3bc d89c 75ba
00000250: eb1a 9c3a 0812 a83c ad84 683b 0bf1 9d3c
00000260: 78cb b9bc 0503 a4bb 5052 87bc 4f35 683c
00000270: 33dd 45bd 56bc 5d3c d26d 763c b12c 26bc
00000280: 3c6d b2bc a952 45bd ca54 14bd 2ef1 4ebd
00000290: ea0f 35bd 791a 1b3d b000 ec3b ee66 75bc
000002a0: a2eb 60bd 847e 43bd a802 06bc 8ba5 75bd
000002b0: a08d 37bd 9044 8c3b 30d9 c63a c703 25bd
000002c0: 1fbb 293d 9d7e ab3c 2f44 393a bc52 323c
000002d0: e5e2 273d e69c 643a 08e4 593c 3863 8a3c
000002e0: 3773 46bc 1729 7fba cca2 da3b 4ebe dd3a
000002f0: 7c28 033d 5af0 12bc 7912 a0bc 2b0a dd3c
00000300: e31d c4bc f95f 07bd 7fb8 35bb 5494 9bbc
00000310: cb98 7abd f0a4 21bc d750 b2bb b312 30bd
00000320: cd00 3cbc 25cc 9d3b 09db 3dbd 1a48 11bd
00000330: b962 5bbd e47e d2bc a3d0 2dbd 0d37 1abd
00000340: 540b 54ba 335b 173d f4c9 ee3c 921d ee3c
00000350: 4ca0 41bc 6a98 78bc ffba 1abc 4aa1 253c
00000360: 8990 f43c 8f9d b2bc 9fc7 a3bb 5b43 adbc
00000370: 05a8 733c 048d 773c 1ddb abbb 7941 ae3b
00000380: 51ef 373d 64f9 bdbb 390f 2d3c c2d0 1d3d
00000390: fbfa a3bc 14c1 a4bc bcfd a0ba ba79 d03b
000003a0: bc3a 01bc c83e 27bc a958 e8bb b483 3d3d
000003b0: b820 d7bb 7785 e63c 7093 5cbb 894b 9e3b
000003c0: 8a09 003b f3a0 0bbd 4857 16bd 997d 1bbc
000003d0: b1da 16bd 7990 49bc a33c 43bc 63b0 e3bc
000003e0: c357 f1bc a31f 49bc 4074 c6bb c126 33bc
000003f0: ea43 34bd 0d65 8bbc 4f63 6cbd abc9 68bd
-0.063827194 -0.11185216 -0.0005301427 -0.079470456 -0.084717646 -0.09784883 0.0037916526 -0.09492982
-0.018797912 -0.04410236 0.015543481 -0.044072933 -0.042781048 -0.09465553 -0.016504839 -0.09631622
0.0452746 0.02703216 0.04187136 0.01865687 0.023561615 0.017461035 0.014963858 0.044181466
-0.0052157333 -0.01914283 -0.0017451324 0.005497193 0.036057293 0.030169789 0.027653541 0.036984473
-0.021896703 -0.082234025 -0.054482184 -0.039504483 -0.0743651 -0.001129356 -0.027961241 -0.011788874
-0.029468996 0.00136119 0.007677126 -0.048372705 -0.040225588 -0.0135004595 -0.021342965 -0.05562042
-0.029548017 -0.023561494 -0.014303486 -0.013296426 -0.032985352 -0.026530944 0.011400518 -0.004465057
-0.044541333 0.020576427 0.005145136 -0.03892952 -0.027901836 -0.030181482 -0.056697913 -0.050878912
0.030243007 0.041832574 0.044586964 0.03365487 0.015829522 0.024566771 0.029166851 0.0014498075
-0.0041536367 0.013754487 -0.0025488075 0.0096475715 -0.009631105 0.0071495576 0.0041053 0.0064727655
-0.081543624 -0.036947116 -0.027236886 -0.05397179 -0.028639467 -0.023008903 0.0023467105 -0.0098814685
-0.0061868867 -0.0038694309 -0.018440157 -0.011547071 -0.044779945 -0.06028658 -0.0721823 -0.06886529
-0.026457334 -0.028654965 -0.009956699 -0.020291857 0.0033144825 -0.035746414 0.01046706 0.002864168
-0.02965757 -0.012521867 -0.044021454 -0.009771715 -0.063843705 -0.007594273 -0.0021942959 -0.034497418
0.04093654 -0.012232778 0.03752351 0.0083749285 -0.0045205797 -0.026221858 0.018865027 0.022909889
0.026366383 -0.014531846 -0.008863314 0.012090739 -0.0064079263 0.020781465 0.033429667 -0.0029295632
-0.08332537 -0.07750432 -0.06443057 -0.06008806 -0.05160584 -0.08794577 -0.060028046 -0.04139285
-0.0128341615 -0.0424528 -0.063564844 -0.010358166 -0.025959907 -0.015804237 -0.022583846 -0.019801402
-0.007156991 0.005611964 -0.023871278 -0.000936938 0.0011909878 0.02051641 0.0035479472 0.019279977
-0.02268003 -0.005005243 -0.016518742 0.014172866 -0.048306655 0.013533672 0.015040832 -0.010142491
-0.021780603 -0.048174534 -0.036213674 -0.050522976 -0.04420463 0.037867043 0.0072022304 -0.014978154
-0.054912217 -0.047728077 -0.008179344 -0.059972327 -0.0448128 0.004280634 0.0015170928 -0.040286805
0.04143822 0.020934397 0.000706735 0.010883983 0.040987868 0.00087208895 0.013298996 0.016893014
-0.01211243 -0.0009733601 0.006672239 0.0016917677 0.03202103 -0.008968437 -0.019540058 0.026982388
-0.023940032 -0.03305051 -0.0027728376 -0.018991627 -0.06118087 -0.009865984 -0.0054417658 -0.042986583
-0.0114748 0.0048155957 -0.046351466 -0.035469152 -0.053560946 -0.025695272 -0.0424353 -0.037650157
-0.0008088846 0.03695221 0.029149033 0.029066835 -0.011818003 -0.015173057 -0.009443997 0.010109255
0.029854076 -0.021803645 -0.004998162 -0.021150282 0.014871602 0.015109304 -0.005244626 0.0053178635
0.044905964 -0.005797552 0.010562711 0.038529165 -0.020017138 -0.020111598 -0.001228265 0.006362167
-0.0078875385 -0.010207839 -0.0070906472 0.04626818 -0.0065651797 0.028139813 -0.0033657216 0.004830782
0.0019536936 -0.03408904 -0.03670433 -0.009490394 -0.036829654 -0.012302511 -0.011916312 -0.027794069
-0.029460793 -0.012275609 -0.0060563385 -0.010934533 -0.04401008 -0.017015958 -0.057711896 -0.05683295

image_to_features.6.bias f4 [128]
00000000: 840a 7d3d 9836 41bd cc2e 0fbc 9cb9 04bc
00000010: 9569 183c 866f 9eb9 cb93 0abc 6e8e 843d
00000020: fc07 c03c 7f5d be3c 91c2 64bc 2e4b 663d
00000030: 1069 b03b f744 3ebd ab3a 6e3c 05cf 70bd
00000040: cc27 8a3c dc58 a4bd 4222 14bc bc1b 5d3d
00000050: 1b05 613c d84e eabc 1a60 323d ea46 94ba
00000060: 5990 f93c edd7 473d cd63 74bc 56df e43b
00000070: 3910 22bd 00d4 023d b720 06bd 4246 07bc
00000080: 6e39 20bc 32bb 3f3d 9969 abbb 7cef 5fbc
00000090: a4d9 543b 25cb 153d 42d7 3f3d 25a6 1fbc
000000a0: a998 e2bc 122f 14bd e34d 0a3d b107 c4bc
000000b0: 9242 92bc c152 41bd e75a 20bc 36af 343d
000000c0: 0e69 14bd 4ce5 65bd 3857 54bd 0b6f 13bb
000000d0: fd15 3abb a8fd 133d 6e33 fcbb b3e5 99bd
000000e0: 5a79 2c3d be2d 18bb bd6a 4fbd 036b 183b
000000f0: fa5e e33c e25d 093d 1653 66bd ca72 4d3a
00000100: d81d 21bd 6ccd 9fbc b5bb 1c3d 3f1f 433d
00000110: 10d3 98b9 220d 6b3d 9738 24bd ed55 0b3d
00000120: d9a8 8e3d 1b41 3fbd 0921 53bd 5611 aa3c
00000130: 720d e23b 25c1 5a3d 7a6f debc 433b 263d
00000140: 775e 78bd 6b2c 1b3d dec1 ecbc 7cfc aebc
00000150: 811c 0cbd f9eb 293d 2211 b2bc 9062 1cbd
00000160: 4299 123c 6d95 65b9 73b5 483d 9ed0 333a
00000170: 2d6d 173c ad77 4fbd c65c 8d3c d0d7 52bc
00000180: ba5f 18bd b3a5 40bd 0203 443d 58a0 263b
00000190: d62e 3cbd 187e 2ebd 6a79 88bc 2f35 963a
000001a0: e0a4 8eba 92c5 843c be8f ccbc 4d6f 1d3d
000001b0: 9c7f 473d 178b 4dba 31bc 29bd ad04 c1bc
000001c0: 995c 8f3c b9a0 c03c 8776 c8bc 6e1e 323d
000001d0: 8387 54bc 9342 f8bb ce28 6ebd 520a d0bc
000001e0: 7f2b 4ebd c273 13bd f206 903c 0281 ea3c
000001f0: 985a bdbc dd9b 293c d082 673c 93e6 6abc
0.061777607 -0.047171205 -0.008739185 -0.008100893 0.0093025165 -0.000302192 -0.008458088 0.06472479
0.023441307 0.023237942 -0.013962404 0.05622404 0.005383618 -0.04645249 0.014540355 -0.05879118
0.01686468 -0.08024761 -0.009041371 0.053981528 0.013734127 -0.028602049 0.04354868 -0.0011312638
0.030464338 0.048789907 -0.0149163725 0.0069846315 -0.039566252 0.03194046 -0.032746043 -0.008256497
-0.009779317 0.046809383 -0.005231094 -0.013667937 0.0032478357 0.036570687 0.046836145 -0.009744202
-0.027660685 -0.036177702 0.033765685 -0.023929449 -0.017854009 -0.04719806 -0.009787298 0.044112407
-0.036233 -0.056126878 -0.05184099 -0.0022496607 -0.0028394454 0.036130577 -0.0076965606 -0.07514515
0.042107917 -0.0023220624 -0.050638903 0.0023257143 0.02775525 0.0335368 -0.05623158 0.00078372343
-0.0393351 -0.019507132 0.03826495 0.04763722 -0.00029148953 0.05738557 -0.04009303 0.034017492
0.06965799 -0.04669295 -0.051545177 0.02076022 0.0068985755 0.053406853 -0.027152766 0.04058386
-0.060636964 0.037884157 -0.028901037 -0.021360628 -0.03420687 0.041484807 -0.021736685 -0.038179934
0.008947672 -0.00021894807 0.04900117 0.00068593945 0.009242338 -0.05065124 0.017256152 -0.0128688365
-0.037200667 -0.047033023 0.04785443 0.0025425162 -0.045943104 -0.04260072 -0.016659457 0.0011459942
-0.0010882877 0.01620749 -0.024970885 0.038436223 0.048705682 -0.00078408554 -0.04143924 -0.0235618
0.017500209 0.023514139 -0.02447058 0.04348605 -0.012971762 -0.0075762956 -0.058144383 -0.025395546
-0.05033445 -0.035999067 0.017581437 0.028625969 -0.023114488 0.010352102 0.014130309 -0.0143372

features_to_prob.0.weight f4 [1, 512]
00000000: 955d 19be 1e01 07be 91e8 18be 1b6e 12be
00000010: 44fe 9d3d e7ac b6bd 46f5 7e3d 3948 e73d
00000020: 5297 bf3d ab66 ac3d 438b ce3d ed05 a2bd
00000030: 1a41 a6bd 114e 023e 2155 a63d 9b3c c9bd
00000040: 07c2 08be cd4d 99bd a683 20be fc33 1fbe
00000050: 08da df3d f7d4 13be ae24 bb3d c61e 183e
00000060: 532a a83d 7e71 673d 41d0 803d e527 913d
00000070: cb10 083e b995 ff3d 35cc 24be 042d 24be
00000080: f9c0 03be 90c9 0fbe 4951 1dbe 267d 11be
00000090: d055 23be 1bcd b3bd 0de4 12be 9517 2ebe
000000a0: 34b6 863d a2c6 813d 4833 d23c 97a5 df3d
000000b0: 3bbb c53d e50b 0a3e 253c 30be 5162 2dbe
000000c0: ff35 793d 97de ae3d 33f1 aebd 5e34 d53d
000000d0: 5df6 813d db17 963d b1f8 8f3d f610 a03d
000000e0: c21a 25be 8c0c a7bd 19e7 35be 21ad ce3d
000000f0: 2a1b cd3d dd09 aa3d 4b5b a43d d31e a93d
00000100: 69be 21be 45d2 b2bd c41b 28be d255 bb3d
00000110: baf3 0dbe 11e3 c5bd 4bd3 b93d bf1e f83d
00000120: 2925 ef3d e752 0fbe be58 cb3d 1d69 5bbd
00000130: 2e71 1dbe 28a8 16be 6050 24be c425 1dbe
00000140: 8551 f1bd d5d4 7dbd d6f8 23be c940 12be
00000150: 3b7f ac3d d854 ecbd 2681 a23d 1405 f03d
00000160: 4ea2 03be c6de 01be 8bad 37be 8ca6 1dbe
00000170: a213 953d 39a4 b5bd 23a4 ce3d a8ff af3d
00000180: 0c9c 063e ef56 f4bd dad5 30be c87c 1bbe
00000190: aa53 12be 1df2 28be 37ea 013e 2d8b 053e
000001a0: 45c1 b13d 37cd e5bd c221 873d 8c9d ba3d
000001b0: df7f 24be 09a8 18be 3987 cb3d 80f7 db3d
000001c0: 4736 01be b019 d93d a327 9f3d db0d de3d
000001d0: 052b e93d 3317 18be 507a 36be fc9a 20be
000001e0: 8b29 023d 5abe 08be 961c dd3d 9ec7 9c3d
000001f0: 8cc5 d8bc 267f d43d 6986 f23d 5fc2 f0bd
00000200: 598b afbd dd97 97bd fd9c d73d 9efa e33d
00000210: 0267 23be b215 12bc 1d0d 2abe a63a 173e
00000220: d658 823d 4184 683d 244a 5cbd d979 ea3d
00000230: d3a8 08be 2fb1 07be 6318 a1bd 166e 0b3e
00000240: 6f54 8f3d 23b9 ce3d ff63 c73d 3819 063d
00000250: 5264 a7bd 70b6 1fbe 862c 2cbe 0a69 a73d
00000260: 96fc 34be d9af 10be 551e 1ebe 5c3e fa3d
00000270: 7b4d 36be 89b9 eb3d ebe0 d9bd f1b1 fd3d
00000280: 16b0 c03d db66 d23d 5926 2dbe 5077 903d
00000290: 6bfc a4bd 71af d23d 3f75 8c3d 994b d03d
000002a0: 7748 fdbd aaca 0ebe 0625 33be 77d9 1abe
000002b0: a225 573d 6c90 df3d 0d19 663d 2ffe ce3d
000002c0: 5f6b 8f3d 1876 ba3d 0ffd 623d 6fa5 b83d
000002d0: 4071 ae3d 84fb 583d f244 c43d 9424 be3d
000002e0: c4b6 663d def7 fabd d384 da3d 6d35 d03d
000002f0: 1791 0dbe 7c17 c6bd c9ce 013e 66e5 00be
00000300: 6c7d 303d 21de 243d 3264 b8bd 9d54 fe3d
00000310: f103 2fbe 05da 9c3d 96bf bf3d c69a 903d
00000320: 3773 713d 6348 cf3d b174 c43d 94f5 ba3d
00000330: 7433 983d 0280 fe3d a976 a4bd e53f e3bd
00000340: 3a90 db3d 76fb b83d 066b f4bd 0635 ec3d
00000350: ff5c 0fbe 1729 053e dc09 3fbe a9c8 adbd
00000360: 3c9f c83d 8526 27bd 1214 c53d f8b0 cd3d
00000370: 5855 e33d b799 38be 2d39 b23d acaa 403e
00000380: 888d 0ebe 38fb 0ebe 9a48 de3d a725 b1bd
00000390: ab77 6dbd 23c2 a93d d857 c23d df2d e23d
000003a0: 457a f23d f1e1 81bd 1fb2 7abd 9881 9c3d
000003b0: ae01 963d f1ec 21be b960 123e 03cc b4bd
000003c0: e738 35be bc09 2abe 1b0a dc3d cc4c c5bd
000003d0: bf39 06be cfab 12be 32a8 dc3d c1fb f8bd
000003e0: 35c5 08be edfe b73d 8003 a23d 8d0d 843d
000003f0: 58ba 2abe 27e5 b5bd 9b6a 9bbb 8251 37be
-0.14977105 -0.1318402 -0.14932467 -0.14299814 0.07714513 -0.08919697 0.06224563 0.11293072
0.09355034 0.0841802 0.10085156 -0.079112865 -0.08117886 0.12725092 0.08121706 -0.09826013
-0.13355266 -0.074855424 -0.1567522 -0.15547174 0.10930258 -0.14436708 0.091378555 0.14855489
0.08211198 0.05650472 0.06289721 0.070876874 0.13287656 0.12479729 -0.16093524 -0.16032797
-0.12866582 -0.14041734 -0.15363039 -0.14207897 -0.15950704 -0.08779355 -0.14344807 -0.17001183
0.06577721 0.06336714 0.025659218 0.10920256 0.09654852 0.134811 -0.17210443 -0.16932036
0.06084251 0.085385494 -0.08542099 0.10410379 0.06345818 0.07328769 0.07029856 0.07815735
-0.16123489 -0.0815669 -0.17763938 0.100916155 0.10014947 0.083026625 0.08025225 0.082578324
-0.15795292 -0.08731512 -0.16416842 0.09147228 -0.13862506 -0.0966245 0.09073504 0.12115239
0.116770096 -0.13996468 0.099290356 -0.05356704 -0.15375206 -0.14712584 -0.16046286 -0.15346438
-0.11783127 -0.06197055 -0.16012892 -0.14282526 0.08422705 -0.1153962 0.07934789 0.117197186
-0.12854883 -0.12682638 -0.17937295 -0.15395564 0.07279135 -0.088692136 0.100899 0.085936844
0.13145465 -0.11930644 -0.17269078 -0.15184319 -0.14289728 -0.16498609 0.12687002 0.13041373
0.08679441 -0.11220782 0.06598236 0.09112081 -0.16064404 -0.1490785 0.09937901 0.10740566
-0.12618361 0.106006026 0.07771232 0.108424865 0.113851584 -0.148526 -0.17820096 -0.15684122
0.0317779 -0.13353863 0.10796468 0.076552615 -0.026461385 0.10375814 0.11842043 -0.11755823
-0.085715 -0.074020125 0.1052799 0.11131786 -0.15957263 -0.008916305 -0.16606565 0.14768466
0.063646 0.056766752 -0.053781644 0.11449022 -0.13345651 -0.13251184 -0.078659795 0.13616213
0.06998526 0.10093906 0.097358696 0.032738894 -0.081734315 -0.15596938 -0.1681386 0.081743315
-0.17674479 -0.1412958 -0.15441258 0.12218925 -0.17802994 0.115099974 -0.10638603 0.12387455
0.09408586 0.102735244 -0.1690916 0.07054007 -0.080559574 0.10287369 0.068583004 0.10170669
-0.12367337 -0.13944498 -0.17494592 -0.15122019 0.052526124 0.10916218 0.056176234 0.101070754
0.07002901 0.09104556 0.055417117 0.09015929 0.085176945 0.05297424 0.09583463 0.092843205
0.056326643 -0.12254308 0.106698655 0.1016644 -0.13824879 -0.09672448 0.12676539 -0.12587509
0.04308836 0.0402509 -0.09003486 0.124184825 -0.17091347 0.076587714 0.09362714 0.07060771
0.058947768 0.101212285 0.095925696 0.091288716 0.07431689 0.12426759 -0.08030445 -0.11096171
0.107208684 0.09032337 -0.119344756 0.11533551 -0.14000319 0.13003956 -0.18656105 -0.084855385
0.097959965 -0.04080822 0.09622969 0.1004352 0.111002624 -0.18027388 0.08702312 0.18815106
-0.13921177 -0.1396302 0.108536914 -0.0864976 -0.057975452 0.08288982 0.09489411 0.110439055
0.11839727 -0.06341923 -0.061205026 0.076419055 0.07324539 -0.15813042 0.1429471 -0.08827975
-0.17697488 -0.16605276 0.10744115 -0.096337885 -0.13107966 -0.14323352 0.10774268 -0.12157393
-0.13356479 0.0898417 0.07910824 0.06447897 -0.16672647 -0.08881598 -0.004742933 -0.17902187
