trained_models/generator_epoch100.pth (torch, 909322 bytes, 22 tensors)

latent_to_features.0.weight f4 [512, 100]
-0.04900992 -0.037323415 0.09595346 0.037498116 0.022783995 -0.09809303 -0.09644908 -0.04392425
0.07705412 -0.0839407 -0.062615134 0.096796885 0.021455038 0.009067786 -0.060422685 -0.0124309305
-0.060943365 -0.01755079 -0.038076818 0.02611177 0.04860227 0.07549941 0.088714756 0.09298068
-0.009715176 -0.04150739 0.09601443 -0.093567185 -0.045482554 0.06922052 0.034860995 -0.051745296
-0.086457744 -0.0059927227 0.063563995 0.08275207 -0.07234116 0.09130098 0.06020521 -0.041499402
-0.026535248 0.07629396 -0.01519227 0.08035513 0.07560716 -0.049396884 0.012767327 0.06176858
0.06797202 -0.013050246 0.0029473067 -0.05137762 -0.01109047 0.08787701 -0.027289188 0.024172664
0.04123434 -0.054313004 0.005668938 0.03734659 0.048453547 -0.013117122 -0.024432957 0.087977186
0.043341365 0.02435565 -0.07199591 0.09398695 -0.083496474 -0.028165484 -0.08369436 0.056314945
0.038956728 -0.04888561 0.05260537 -0.0077234865 0.07909062 0.05328847 0.07320777 0.006411493
-0.0529971 -0.053039778 0.07605701 0.02243793 -0.044909157 -0.022345066 0.092043184 -0.009500384
-0.051767208 -0.07109094 0.03878255 -0.06429388 -0.05389856 -0.037475538 0.07283403 -0.06803534
0.048560787 0.0033432245 0.051582087 0.049214553 0.04396197 -0.019545747 0.04653094 0.07150886
-0.008776701 -0.018078828 -0.019906104 -0.021717524 -0.061318673 -0.08381746 -0.09595752 -0.0021763444
-0.03134347 0.024805367 0.09011602 0.040648844 -0.063207746 -0.03211404 -0.06717706 0.071093895
-0.04734689 0.07795667 0.01196003 -0.023659397 -0.08685527 -0.073666 0.04974426 -0.038449384
0.07265051 0.0145594245 -0.079034746 -0.04793731 -0.001677084 -0.03413073 0.062371947 0.016996587
-0.025207533 -0.07796367 0.09282954 -0.09296379 0.024040317 -0.058742024 0.086663894 -0.028560543
0.085634075 -0.0060088756 -0.030750025 0.06510537 0.054973196 -0.053569414 0.034475576 0.099867046
0.07530047 0.05343485 -0.089105204 0.05839144 -0.009783506 0.054262925 -0.015635753 0.032752123
-0.017552054 -0.06003963 -0.07441013 -0.029061949 -0.029787088 0.042403545 -0.02605685 0.07242256
-0.07565047 0.09849087 0.059166398 -0.08657034 -0.05966122 0.013678121 0.07351009 0.07150258
0.06531495 0.07596 -0.056198575 -0.069074586 0.045263935 0.041508604 0.08132992 0.05244709
-0.013697541 0.07104148 0.08379998 0.055936635 0.031671535 0.02456311 -0.016178763 0.051723983
0.0074957493 0.07897877 -0.0055535436 0.09978676 -0.0003921628 0.084028475 -0.015343726 0.038769927
0.08466025 -0.08443256 -0.089286104 2.503395e-06 -0.07016484 -0.04224738 -0.0571931 0.08529937
0.04462236 0.09715287 0.032889497 0.09687406 0.08045979 -0.08481236 -0.034046866 -0.040557552
-0.051487233 -0.036913563 -0.012286854 0.09263884 0.0105397105 0.00393337 -0.046186995 -0.08413028
0.062768534 0.042986035 0.0093647605 -0.094569616 -0.07541063 0.028859366 -0.045316078 0.06906048
-0.082003295 0.015900446 -0.033863366 0.03519074 -0.0035620213 0.03642205 0.015112746 0.0663733
-0.025918424 0.007485175 -0.09265764 -0.05822697 0.0419711 -0.033125997 -0.0034941554 0.014755905
0.013780964 -0.018732226 0.07032181 -0.068313815 0.0308419 -0.039766528 0.07461613 -0.051377118
00000000: a0be 48bd 70e0 18bd 3f83 c43d a097 193d
00000010: 80a5 ba3c 00e5 c8bd 1887 c5bd eae9 33bd
00000020: 8dce 9d3d 1ae9 abbd 5d3c 80bd 723d c63d
00000030: 7ac2 af3c 0d91 143c c77d 77bd 1aab 4bbc
00000040: c09f 79bd adc6 8fbc 70f6 1bbd 5ae8 d53c
00000050: 2d13 473d 6f9f 9a3d 15b0 b53d a86c be3d
00000060: 672c 1fbc a703 2abd 37a3 c43d 27a0 bfbd
00000070: ea4b 3abd 7dc3 8d3d 67ca 0e3d e0f2 53bd
00000080: c210 b1bd 9a5e c4bb d72d 823d eb79 a93d
00000090: 9a27 94bd 02fc ba3d bd99 763d 47fb 29bd
000000a0: 7360 d9bc 0240 9c3d 00e9 78bc 3b91 a43d
000000b0: edd7 9a3d 6354 4abd 0d2e 513c 0d01 7d3d
000000c0: ea34 8b3d b3d0 55bc 9a27 413b 5771 52bd
000000d0: cdb4 35bc ddf8 b33d 938d dfbc c005 c63c
000000e0: 57e5 283d 5077 5ebd 80c2 b93b bdf8 183d
000000f0: 3a77 463d 33e9 56bc a027 c8bc 622d b43d
00000100: b786 313d 8085 c73c 9772 93bd 3b7c c03d
00000110: 3300 abbd 4dbb e6bc f367 abbd 80aa 663d
00000120: 1791 1f3d 473c 48bd ba78 573d 4d15 fdbb
00000130: 43fa a13d 0345 5a3d f5ed 953d 8017 d23b
00000140: 7d13 59bd 3d40 59bd c7c3 9b3d c0cf b73c
00000150: aaf2 37bd 000d b7bc 2381 bc3d 80a7 1bbc
00000160: da09 54bd 2098 91bd 73da 1e3d 82ac 83bd
00000170: bdc4 5cbd f37f 19bd 022a 953d 1d56 8bbd
00000180: ade7 463d 001a 5b3b bd47 533d 3395 493d
00000190: 7711 343d 671e a0bc 3a97 3e3d 3d73 923d
000001a0: 27cc 0fbc 0d1a 94bc 2012 a3bc f3e8 b1bc
000001b0: 4a29 7bbd 7da8 abbd 6085 c4bd 00a1 0ebb
000001c0: 0362 00bd a034 cb3c bf8e b83d 677f 263d
000001d0: 1073 81bd 038a 03bd 2094 89bd ad99 913d
000001e0: d0ee 41bd bfa7 9f3d 00f4 433c 5ad1 c1bc
000001f0: 2de1 b1bd 33de 96bd a3c0 4b3d 1a7d 1dbd
00000200: cac9 943d a78a 6e3c f8dc a1bd ea59 44bd
00000210: 9ad1 dbba aacc 0bbd ba79 7f3d 6d3c 8b3c
00000220: 0780 cebc 6bab 9fbd 6a1d be3d cd63 bebd
00000230: 33f0 c43c 7a9b 70bd d77c b13d cdf7 e9bc
00000240: eb60 af3d 1ae6 c4bb 7ae7 fbbc f755 853d
00000250: 932b 613d 9a6b 5bbd 4336 0d3d 1887 cc3d
00000260: 2237 9a3d 80de 5a3d ca7c b6bd dd2b 6f3d
00000270: 004b 20bc cd42 5e3d 8d16 80bc 1727 063d
00000280: 53c9 8fbc 1dec 75bd 5764 98bd 5313 eebc
00000290: 0d04 f4bc 57af 2d3d 2d75 d5bc 4752 943d
000002a0: a2ee 9abd 95b5 c93d 7758 723d ca4b b1bd
000002b0: 535f 74bd 331a 603c 758c 963d f26f 923d
000002c0: d8c3 853d eb90 9b3d 7a30 66bd fa76 8dbd
000002d0: ad66 393d ed04 2a3d 4d90 a63d c3d2 563d
000002e0: a76b 60bc 327e 913d 539f ab3d d01d 653d
000002f0: 03ba 013d 9338 c93c 5389 84bc 87dc 533d
00000300: e79e f53b 9fbf a13d 80fa b5bb 005d cc3d
00000310: 339b cdb9 1f17 ac3d 4064 7bbc 37cd 1e3d
00000320: 5a62 ad3d faea acbd a2db b6bd 0000 2836
00000330: 95b2 8fbd 970b 2dbd 5043 6abd 70b1 ae3d
00000340: f0c5 363d 15f8 c63d 23b7 063d e865 c63d
00000350: 1ac8 a43d 1ab2 adbd ba74 0bbd ad1f 26bd
00000360: 47e4 52bd ad32 17bd cd4e 49bc 6fb9 bd3d
00000370: c0ae 2c3c 80e3 803b 932e 3dbd 7f4c acbd
00000380: ca8c 803d 2012 303d a76e 193c b7ad c1bd
00000390: e370 9abd 7a6a ec3c 5a9d 39bd 956f 8d3d
000003a0: 58f1 a7bd a741 823c 50b4 0abd 2a24 103d
000003b0: cd70 69bb 4a2f 153d 739b 773c baee 873d
000003c0: e052 d4bc 3346 f53b 4ac3 bdbd 677f 6ebd
000003d0: e3e9 2b3d 20af 07bd 33fe 64bb c0c2 713c
000003e0: 8dc9 613c 5374 99bc e204 903d 1de8 8bbd
000003f0: 27a8 fc3c 3ae2 22bd 57d0 983d d070 52bd

latent_to_features.0.bias f4 [512]
0.023638487 -0.030675638 -0.05580845 0.07847338 0.0935603 -0.04907788 0.025300372 -0.06295147
0.0014656425 0.01956327 -0.090965904 0.023511602 -0.09727516 0.04141244 -0.065879956 0.013749028
-0.09714248 0.06820136 0.050368693 -0.012421918 0.07344468 0.03851675 -0.015540457 -0.07203157
0.049363624 -0.014763141 -0.07136623 -0.067899 0.088816874 -0.08266713 -0.036751103 -0.09292134
-0.037885796 -0.075435154 0.07356069 -0.04763956 0.059120297 -0.05972154 -0.036795475 0.09722312
0.088163964 0.07614448 0.03807156 -0.020809067 -0.092121914 0.061408807 -0.035764243 -0.03872044
0.058275796 -0.08914844 0.010355175 0.09231963 -0.0913504 -0.07701891 0.05770227 -0.047890462
0.0028890015 0.016567206 0.031421673 -0.06969245 0.049799085 0.00023589135 0.06902118 -0.09873903
0.07238424 0.053771626 0.09544392 0.08840547 -0.0749407 -0.052342203 -0.089931086 -0.05810051
0.0932467 0.036477745 -0.08940686 -0.08197971 0.017707992 -0.02909875 -0.056717873 0.050450243
0.008603513 -0.08771864 0.09511834 0.08536687 -0.09259653 -0.083588175 0.042999517 -0.061256576
0.031569242 -0.026434457 0.08980667 0.080916084 0.040062156 -0.0499998 0.006376255 0.097974315
0.027914917 -0.06782281 0.033032168 -0.09490396 0.030502463 0.058149397 0.029314686 -0.016034365
-0.01843207 0.07967675 0.039886545 -0.03519255 -0.06362875 0.07467357 0.009802759 -0.002927363
0.054061927 0.06137718 -0.09191568 0.010402381 0.082271695 -0.0043200376 -0.08568146 0.032045007
0.07141606 0.015867138 0.00039305686 0.008373857 0.0498582 -0.04536861 0.09388786 -0.08783066
-0.05944376 0.058705904 -0.07996815 -0.07948414 0.006821239 0.013349784 0.091925584 -0.023682464
0.02435944 0.02243693 0.09772648 0.016443837 -0.094524555 -0.009941923 -0.08520412 -0.0689009
-0.04806565 -0.008950258 -0.0025484324 0.08609875 -0.0852504 0.050196137 0.019809365 -0.047985293
0.038842894 -0.092302635 0.054710377 0.037682902 0.029553188 -0.04448868 0.032356407 0.03552673
-0.03790089 0.05005319 0.004555905 0.08927273 0.0016153693 0.070675485 -0.05852245 0.013525522
-0.013101435 -0.0337031 0.024137748 0.043364238 0.08570748 -0.0043107155 -0.034915626 0.042129826
-0.04355849 0.02479359 0.02257483 -0.09869863 -0.084104456 0.07627299 0.028539253 -0.083543435
-0.0029725076 -0.018827988 0.038170554 -0.074304916 -0.046508767 -0.031690326 0.03669579 0.051350344
-0.069123924 0.039244782 -0.04451528 -0.008131194 0.020716358 -0.006734097 0.09428131 0.02663288
-0.064627424 -0.06487268 0.016371751 0.011139357 -0.026021207 -0.07778942 0.06557027 -0.08489176
-0.066759564 -0.07245511 -0.047437 0.066186845 0.030936373 -0.0022597553 0.094666556 -0.057951164
0.05854733 -0.047183324 -0.07854165 -0.07660419 0.08345622 -0.06614827 -0.0780496 0.09691725
-0.049130537 0.08772892 -0.085366584 0.066922545 0.063953735 -0.073456846 0.023189116 0.037733972
-0.02075764 0.09135636 -0.06839601 -0.07315495 -0.019139362 0.08775343 -0.001211238 -0.034429517
-0.036948193 0.08100032 -0.042207327 0.0051882267 0.06504273 -0.02791567 -0.04694295 0.033119906
-0.0042875293 -0.054807663 0.0023839236 -0.04110992 0.09480976 -0.025296379 -0.030310238 0.0695843
00000000: 80a5 c13c 7a4b fbbc 6797 64bd a7b6 a03d
00000010: 8b9c bf3d e305 49bd ba42 cf3c b3ec 80bd
00000020: cd1a c03a 2743 a03c 554c babd 679b c03c
00000030: 3338 c7bd 17a0 293d 12ec 86bd 9a43 613c
00000040: a3f2 c6bd 28ad 8b3d 674f 4e3d 4d85 4bbc
00000050: 2a6a 963d bdc3 1d3d 679d 7ebc 4a85 93bd
00000060: 8331 4a3d 1ae1 71bc 7528 92bd a20e 8bbd
00000070: 9fe5 b53d 624d a9bd 5388 16bd 8b4d bebd
00000080: 232e 1bbd bf7d 9abd fda6 963d b321 43bd
00000090: 2028 723d 939e 74bd dab6 16bd ea1c c73d
000000a0: 4f8f b43d a3f1 9b3d edf0 1b3d c777 aabc
000000b0: 6aaa bcbd cd87 7b3d 877d 12bd 5399 1ebd
000000c0: 9ab2 6e3d 7593 b6bd c0a8 293c 1312 bd3d
000000d0: eb15 bbbd 17bc 9dbd 3759 6c3d ca28 44bd
000000e0: 6755 3d3b f3b7 873c 03b4 003d eaba 8ebd
000000f0: 20fa 4b3d 9a59 7739 fa5a 8d3d b037 cabd
00000100: 303e 943d a33f 5c3d 1a78 c33d ed0d b53d
00000110: 827a 99bd c764 56bd ca2d b8bd cdfa 6dbd
00000120: 20f8 be3d b069 153d f21a b7bd fae4 a7bd
00000130: 5a10 913c 8060 eebc 0051 68bd eaa4 4e3d
00000140: c0f5 0c3c d5a5 b3bd 67cd c23d d3d4 ae3d
00000150: 40a3 bdbd 4730 abbd 4320 303d 2de8 7abd
00000160: c04e 013d 138d d8bc 8fec b73d 55b7 a53d
00000170: 3718 243d 97cc 4cbd e7ef d03b c2a6 c83d
00000180: d3ad e43c afe6 8abd bd4c 073d 025d c2bd
00000190: 4de0 f93c 102e 6e3d 5a25 f03c 805a 83bc
000001a0: dafe 96bc 902d a33d 1360 233d 1026 10bd
000001b0: ca4f 82bd 75ee 983d c09b 203c 00d9 3fbb
000001c0: 0a70 5d3d a366 7b3d 4a3e bcbd c06e 2a3c
000001d0: 107e a83d 1a8f 8dbb c379 afbd a041 033d
000001e0: 9542 923d cdfb 813c 3313 ce39 8032 093c
000001f0: 1d38 4c3d 70d4 39bd 4748 c03d 90e0 b3bd
00000200: 4d7b 73bd 9a75 703d 57c6 a3bd 95c8 a2bd
00000210: b384 df3b 0db9 5a3c 7b43 bc3d ba01 c2bc
00000220: 738d c73c a7cd b73c d224 c83d 3ab5 863c
00000230: 1796 c1bd 73e3 22bc 7f7f aebd ea1b 8dbd
00000240: 7de0 44bd 1aa4 12bc 9a03 27bb 8b54 b03d
00000250: c397 aebd 779a 4d3d 4047 a23c 3a8c 44bd
00000260: ba19 1f3d 2a09 bdbd fd17 603d 6359 1a3d
00000270: 8719 f23c c339 36bd 2788 043d 7a84 113d
00000280: f73d 1bbd 9304 4d3d b349 953b 9fd4 b63d
00000290: cdba d33a 4fbe 903d 3db5 6fbd 279a 5d3c
000002a0: 67a7 56bc 430c 0abd 87bc c53c b39e 313d
000002b0: 6787 af3d e740 8dbb b003 0fbd 5390 2c3d
000002c0: 636a 32bd ed1b cb3c daee b83c 8222 cabd
000002d0: f53e acbd 0335 9c3d 27cb e93c d218 abbd
000002e0: 67ce 42bb 273d 9abc ba58 1c3d 2d2d 98bd
000002f0: fa7f 3ebd b7cd 01bd 534e 163d bd54 523d
00000300: d890 8dbd 23bf 203d a755 36bd b338 05bc
00000310: 5ab5 a93c b3a9 dcbb 8f16 c13d 332d da3c
00000320: 625b 84bd f8db 84bd 0d1e 863c da81 363c
00000330: 6d2a d5bc 0f50 9fbd b549 863d bbdb adbd
00000340: 3db9 88bd 5863 94bd 4d4d 42bd f88c 873d
00000350: 476e fd3c 6718 14bb 8ae0 c13d 335e 6dbd
00000360: 53cf 6f3d 4d43 41bd 72da a0bd a8e2 9cbd
00000370: 18eb aa3d bf78 87bd 78d8 9fbd 8d7c c63d
00000380: 1a3d 49bd 38ab b33d add4 aebd b00e 893d
00000390: 2dfa 823d 8b70 96bd 1af7 bd3c f08e 1a3d
000003a0: ed0b aabc 0b19 bb3d 3513 8cbd 43d2 95bd
000003b0: 27ca 9cbc 12b8 b33d 67c2 9eba f705 0dbd
000003c0: fd56 17bd 7fe3 a53d 97e1 2cbd 0002 aa3b
000003d0: 1f35 853d 67af e4bc 4047 40bd bda8 073d
000003e0: 677e 8cbb 007e 60bd 9a3b 1c3b e062 28bd
000003f0: 9f2b c23d 5a3a cfbc 2d4d f8bc 3782 8e3d

features_to_image.0.weight f4 [128, 64, 4, 4]
0.012510803 -0.0037816055 -0.025234025 -0.01945639 0.024414 0.028178386 -0.012850195 0.019798886
-0.0029514916 0.017986465 0.0021941587 -0.014073864 -0.014959466 0.0024774894 -0.003819678 -0.021361299
0.023944221 0.012034953 -0.02795459 -0.0151122585 0.024364553 0.030090604 0.017729428 0.021205623
-0.021230604 -0.0035228282 0.031132333 0.0017614849 -0.00023795292 0.026070505 -0.00035251677 -0.011773281
-0.023015741 -0.019207668 0.015211262 0.012978032 -0.022333354 -0.026272103 0.0020356216 -0.017830074
0.01972562 -0.02704738 0.015278209 0.0032070875 -0.00086256117 -0.027000692 0.015817963 0.006348733
-0.014666695 -0.0119904205 -0.0051130727 -0.025209893 -0.009496603 0.02750361 0.028274715 0.021094523
0.031009633 -0.027154714 0.017439611 -0.014300302 0.018613786 0.018990144 -0.024380077 -0.0025282912
0.028026741 0.029054865 0.020627327 0.0057789795 0.009335335 0.010372609 0.020996992 0.024865013
-0.029358953 -0.0026309863 0.010118213 -0.00192618 -0.0046820417 0.024581768 -0.010284036 0.026373733
-0.024374079 0.027523857 0.0053886957 -0.0090620145 0.029042467 0.024140045 0.027124658 0.0007952899
-0.012594156 0.030183371 0.015294619 0.026549336 0.011189405 -0.025000166 0.029044103 0.029979259
-0.00013204291 0.006616026 2.4199486e-05 0.018533029 0.015872426 -0.013955485 0.005572904 -0.013230521
0.00033618137 -0.010107547 0.023793701 -0.0025564618 -0.00832684 -0.025786255 -0.026015144 0.030853614
-0.027921423 0.017906606 -0.021325 0.0033549406 -0.0042278357 -0.02578694 -0.023827061 -0.0080096945
-0.00494783 0.025213558 -0.029406734 -0.0033312403 -0.02567089 -0.03035719 -0.03076639 -0.028061278
-0.0060199797 -0.013409041 -0.023486972 -0.013831701 -0.009025656 0.021975555 -0.010900293 0.0068577453
-0.012084503 0.00840278 -0.02597174 -0.0043591745 -0.017299041 -0.026017558 -0.0077062696 0.0066517144
-0.027276158 -0.02903711 0.028866518 0.017850466 0.018148579 -0.023587085 0.03060827 -0.01120542
-0.026989307 -0.012441408 0.028021399 0.0030206218 0.015623279 -0.012386516 0.02447223 -0.0011583455
-0.010422561 0.029907387 0.030826285 0.0071299225 -0.027514301 -0.016379554 0.020028763 -0.029411413
-0.0292834 0.012144096 -0.00038512424 0.021327183 -0.008802913 -0.0020042993 -0.022141304 -0.013016179
-0.02619879 -0.029856674 0.01640113 0.00033662096 0.0012350678 -0.015825972 -0.026660375 0.026371643
-0.010639712 0.0012768246 -0.02728561 0.017942581 0.006180633 0.0295772 -0.0023815967 0.007881112
-0.015187979 -0.019213665 0.0045851804 0.030556563 0.028179336 0.028201364 -0.007757105 0.022098962
0.0074237473 0.0016014762 -0.0008513741 0.025976107 0.009366848 0.024367325 -0.020031605 -0.010896828
0.004301198 -0.0147365555 0.028603543 0.01702508 -0.028722752 -0.028389793 0.028108284 -0.024488945
0.0014488138 -0.01666867 0.015002489 0.027988154 -0.008634299 -0.017569859 0.018639185 -0.013486609
-0.0038015842 -0.0011282265 -0.00797708 -0.0049873255 -0.018802434 -0.006328039 0.023111522 -0.007418681
0.006318938 0.010274135 0.013715688 -0.015420239 0.018990051 -0.018833663 0.020832192 -0.0062338784
0.006823104 -0.013563968 -0.026151944 0.011545431 0.015735436 -0.004962757 -0.030559871 -0.024284013
0.006759383 0.007510204 -0.022640161 -0.002800975 -0.018740479 0.030793179 -0.005313769 0.029743496
00000000: 1cfa 4c3c d0d4 77bb 96b7 cebc 0263 9fbc
00000010: deff c73c 5cd6 e63c a089 52bc 4631 a23c
00000020: d06d 41bb 5a58 933c e0cb 0f3b 1096 66bc
00000030: 8c18 75bc 605d 223b 9053 7abb e4fd aebc
00000040: ac26 c43c 402e 453c 0601 e5bc 6899 77bc
00000050: 2c98 c73c 9280 f63c 4e3d 913c 6ab7 ad3c
00000060: ceeb adbc 40df 66bb 3c09 ff3c a0e1 e63a
00000070: 0083 79b9 d091 d53c 00d2 b8b9 b8e4 40bc
00000080: 828b bcbc 6659 9dbc a838 793c d0a1 543c
00000090: 70f4 b6bc 9838 d7bc 1068 053b 6010 92bc
000000a0: a097 a13c 7892 ddbc 7451 7a3c 002e 523b
000000b0: 801d 62ba 8e30 ddbc ac94 813c 0809 d03b
000000c0: 944c 70bc 7873 44bc 908b a7bb fa84 cebc
000000d0: a497 1bbc 404f e13c 60a0 e73c 6cce ac3c
000000e0: ea07 fe3c 9073 debc 84dd 8e3c d04b 6abc
000000f0: f07b 983c 3891 9b3c bab8 c7bc b0b1 25bb
00000100: 5698 e53c 7804 ee3c a4fa a83c 985d bd3b
00000110: 3cf3 183c e0f1 293c e201 ac3c b6b1 cb3c
00000120: 3082 f0bc a06c 2cbb dcc6 253c e077 fcba
00000130: d06b 99bb b45f c93c 607e 28bc ba0d d83c
00000140: 26ac c7bc b679 e13c a893 b03b d878 14bc
00000150: 78ea ed3c 58c1 c53c 8834 de3c 007b 503a
00000160: b857 4ebc 1e43 f73c 4896 7a3c fe7d d93c
00000170: c453 373c 26cd ccbc e6ed ed3c 1097 f53c
00000180: 0075 0ab9 40cb d83b 0000 cb37 94d2 973c
00000190: e406 823c 8ca5 64bc e89c b63b d4c4 58bc
000001a0: 8041 b039 209a 25bc 02eb c23c 508a 27bb
000001b0: 4c6d 08bc b23d d3bc b61d d5bc b8c0 fc3c
000001c0: 78bb e4bc e0b0 923c c4b1 aebc 90de 5b3b
000001d0: a889 8abb 223f d3bc f830 c3bc 183b 03bc
000001e0: 6821 a2bb aa8c ce3c 64e6 f0bc f050 5abb
000001f0: c24b d2bc a4af f8bc cc09 fcbc c4e0 e5bc
00000200: 4043 c5bb 98b1 5bbc c067 c0bc 5c9e 62bc
00000210: 58e0 13bc 1406 b43c 2497 32bc f0b6 e03b
00000220: 14fe 45bc d0ab 093c b0c2 d4bc 68d7 8ebb
00000230: b8b6 8dbc c622 d5bc e084 fcbb a0f6 d93b
00000240: 4072 dfbc 3cdf edbc 7a79 ec3c 243b 923c
00000250: 54ac 943c b439 c1bc 32be fa3c f096 37bc
00000260: ae18 ddbc 0cd7 4bbc 228d e53c a0f5 453b
00000270: c8f8 7f3c d0f0 4abc fc79 c83c a0d3 97ba
00000280: 64c3 2abc 5600 f53c 6887 fc3c 20a2 e93b
00000290: ac65 e1bc 6a2e 86bc 5c13 a43c 34f0 f0bc
000002a0: bee3 efbc 08f8 463c 80ea c9b9 58b6 ae3c
000002b0: 183a 10bc 905a 03bb ae61 b5bc d041 55bc
000002c0: d89e d6bc fc95 f4bc aa5b 863c 807c b039
000002d0: 00e2 a13a 78a5 81bc dc66 dabc 5809 d83c
000002e0: 3052 2ebc 205b a73a 1286 dfbc 52fc 923c
000002f0: e886 ca3b e24b f23c 9014 1cbb c81f 013c
00000300: 00d7 78bc fa65 9dbc 483f 963b c251 fa3c
00000310: 5ad8 e63c 8c06 e73c 502f febb e208 b53c
00000320: e842 f33b a0e8 d13a c02e 5fba d8cb d43c
00000330: 6877 193c fc9d c73c 5219 a4bc 9c88 32bc
00000340: 10f1 8c3b 9871 71bc fa51 ea3c 2e78 8b3c
00000350: fa4b ebbc b691 e8bc 5843 e63c 0a9d c8bc
00000360: 20e6 bd3a bc8c 88bc 00cd 753c 6a47 e53c
00000370: e076 0dbc aaee 8fbc 34b1 983c f0f6 5cbc
00000380: 0024 79bb 00e1 93ba 4cb2 02bc b86c a3bb
00000390: 9007 9abc 705b cfbb 6054 bd3c 6818 f3bb
000003a0: 180f cf3b d854 283c c4b7 603c 2ca5 7cbc
000003b0: 0691 9b3c 0e49 9abc 46a8 aa3c 9045 ccbb
000003c0: 5894 df3b 683b 5ebc 9a3c d6bc 0c29 3d3c
000003d0: 9ae7 803c a09e a2bb b258 fabc 44ef c6bc
000003e0: d07d dd3b 2818 f63b dc77 b9bc 9090 37bb
000003f0: a285 99bc fa41 fc3c 201f aebb a2a8 f33c

features_to_image.0.bias f4 [64]
0.0012063757 -0.004553139 0.0035679527 0.019499898 -0.023003131 0.016783375 0.0140371695 -0.030755524
-0.027647957 0.00024964288 -0.016490992 0.009232808 -0.020667516 -0.02240447 0.023815446 -0.004537359
-0.006111238 0.016058844 -0.02630473 -0.012082171 -0.02838457 -0.018213041 0.0221088 0.016765013
0.0042646565 0.0033709109 -0.016636051 0.021641213 0.019984853 0.015375391 -0.0033009388 0.01420239
0.02896789 -0.011894025 0.02666051 0.026752874 0.02366338 -0.01586559 0.02853728 0.026794758
0.017859899 -0.02564894 0.023217518 -0.0058320425 0.017802991 -0.015046772 0.023827612 0.01593167
-0.0053575337 -0.024847154 -0.021799665 -0.019922934 -0.0069176666 0.010492932 -0.0054875426 -0.023600299
0.017588794 -0.009499233 0.012217652 -0.0033878498 -0.014005296 -0.022802327 -0.018001754 -0.031208996
00000000: 401f 9e3a 8032 95bb 50d4 693b 40be 9f3c
00000010: 1071 bcbc 4a7d 893c 28fc 653c 02f3 fbbc
00000020: f87d e2bc 80e2 8239 1e18 87bc 3445 173c
00000030: ec4e a9bc 9489 b7bc 9c18 c33c 20ae 94bb
00000040: c840 c8bb d68d 833c 047d d7bc 4cf4 45bc
00000050: c286 e8bc 8433 95bc 841d b53c c856 893c
00000060: 88be 8b3b 80ea 5c3b 5448 88bc ea48 b13c
00000070: 46b7 a33c 10e9 7b3c 9054 58bb 24b1 683c
00000080: 124e ed3c 28df 42bc 2467 da3c d828 db3c
00000090: b4d9 c13c 8ef8 81bc 04c7 e93c ae80 db3c
000000a0: ec4e 923c ba1d d2bc aa32 be3c b81a bfbb
000000b0: 94d7 913c bc86 76bc 2032 c33c 2283 823c
000000c0: 408e afbb 428c cbbc 3695 b2bc 6c35 a3bc
000000d0: 98ad e2bb 8cea 2b3c d8d0 b3bb 6a55 c1bc
000000e0: 6016 903c aca2 1bbc 8c2c 483c b006 5ebb
000000f0: 7876 65bc f2cb babc 6a78 93bc 02aa ffbc

features_to_image.2.weight f4 [64]
1.0 1.0 1.0 1.0 1.0 1.0 1.0 1.0
1.0 1.0 1.0 1.0 1.0 1.0 1.0 1.0
1.0 1.0 1.0 1.0 1.0 1.0 1.0 1.0
1.0 1.0 1.0 1.0 1.0 1.0 1.0 1.0
1.0 1.0 1.0 1.0 1.0 1.0 1.0 1.0
1.0 1.0 1.0 1.0 1.0 1.0 1.0 1.0
1.0 1.0 1.0 1.0 1.0 1.0 1.0 1.0
1.0 1.0 1.0 1.0 1.0 1.0 1.0 1.0
00000000: 0000 803f 0000 803f 0000 803f 0000 803f
00000010: 0000 803f 0000 803f 0000 803f 0000 803f
00000020: 0000 803f 0000 803f 0000 803f 0000 803f
00000030: 0000 803f 0000 803f 0000 803f 0000 803f
00000040: 0000 803f 0000 803f 0000 803f 0000 803f
00000050: 0000 803f 0000 803f 0000 803f 0000 803f
00000060: 0000 803f 0000 803f 0000 803f 0000 803f
00000070: 0000 803f 0000 803f 0000 803f 0000 803f
00000080: 0000 803f 0000 803f 0000 803f 0000 803f
00000090: 0000 803f 0000 803f 0000 803f 0000 803f
000000a0: 0000 803f 0000 803f 0000 803f 0000 803f
000000b0: 0000 803f 0000 803f 0000 803f 0000 803f
000000c0: 0000 803f 0000 803f 0000 803f 0000 803f
000000d0: 0000 803f 0000 803f 0000 803f 0000 803f
000000e0: 0000 803f 0000 803f 0000 803f 0000 803f
000000f0: 0000 803f 0000 803f 0000 803f 0000 803f

features_to_image.2.bias f4 [64]
0.0 0.0 0.0 0.0 0.0 0.0 0.0 0.0
0.0 0.0 0.0 0.0 0.0 0.0 0.0 0.0
0.0 0.0 0.0 0.0 0.0 0.0 0.0 0.0
0.0 0.0 0.0 0.0 0.0 0.0 0.0 0.0
0.0 0.0 0.0 0.0 0.0 0.0 0.0 0.0
0.0 0.0 0.0 0.0 0.0 0.0 0.0 0.0
0.0 0.0 0.0 0.0 0.0 0.0 0.0 0.0
0.0 0.0 0.0 0.0 0.0 0.0 0.0 0.0
00000000: 0000 0000 0000 0000 0000 0000 0000 0000
00000010: 0000 0000 0000 0000 0000 0000 0000 0000
00000020: 0000 0000 0000 0000 0000 0000 0000 0000
00000030: 0000 0000 0000 0000 0000 0000 0000 0000
00000040: 0000 0000 0000 0000 0000 0000 0000 0000
00000050: 0000 0000 0000 0000 0000 0000 0000 0000
00000060: 0000 0000 0000 0000 0000 0000 0000 0000
00000070: 0000 0000 0000 0000 0000 0000 0000 0000
00000080: 0000 0000 0000 0000 0000 0000 0000 0000
00000090: 0000 0000 0000 0000 0000 0000 0000 0000
000000a0: 0000 0000 0000 0000 0000 0000 0000 0000
000000b0: 0000 0000 0000 0000 0000 0000 0000 0000
000000c0: 0000 0000 0000 0000 0000 0000 0000 0000
000000d0: 0000 0000 0000 0000 0000 0000 0000 0000
000000e0: 0000 0000 0000 0000 0000 0000 0000 0000
000000f0: 0000 0000 0000 0000 0000 0000 0000 0000

features_to_image.2.running_mean f4 [64]
0.045468397 0.04960873 0.03490174 0.032139115 0.043963734 0.03088731 0.056017794 0.036543388
0.05422853 0.0357023 0.04528572 0.058043994 0.057545334 0.06437723 0.09185297 0.054111764
0.069698274 0.044490512 0.04706983 0.028374394 0.047165807 0.05398408 0.058617298 0.059383277
0.0481302 0.028037144 0.021272056 0.04674515 0.053465046 0.08343365 0.03932231 0.072784655
0.05567963 0.041335545 0.027360305 0.059725188 0.053387787 0.038733378 0.035556674 0.072506085
0.03342113 0.02659846 0.0760595 0.047433544 0.060544036 0.046635374 0.05398511 0.03846099
0.0611359 0.019334447 0.032170516 0.05656127 0.040883567 0.05437079 0.06616168 0.044139925
0.055029377 0.039346684 0.07991296 0.038114756 0.046901103 0.015131975 0.026776958 0.043845728
00000000: 123d 3a3d 8632 4b3d 20f5 0e3d 4ea4 033d
00000010: 5113 343d 6207 fd3c ea72 653d 85ae 153d
00000020: bc1e 5e3d 933c 123d 857d 393d 8abf 6d3d
00000030: a8b4 6b3d 36d8 833d 691d bc3d 4ca4 5d3d
00000040: f8bd 8e3d af3b 363d 4bcc 403d 6b71 e83c
00000050: ef30 413d 691e 5d3d b118 703d e13b 733d
00000060: 2c24 453d 27ae e53c bc42 ae3c d877 3f3d
00000070: 2afe 5a3d 43df aa3d 6e10 213d 1f10 953d
00000080: 5310 643d 764f 293d b822 e03c 66a2 743d
00000090: 27ad 5a3d e4a6 1e3d e0a3 113d 127e 943d
000000a0: 98e4 083d 03e5 d93c 15c5 9b3d ad49 423d
000000b0: 06fd 773d bc04 3f3d 7e1f 5d3d 4589 1d3d
000000c0: a369 7a3d 4663 9e3c 3bc5 033d caac 673d
000000d0: 8775 273d e8b3 5e3d c67f 873d 11cc 343d
000000e0: 7c66 613d fd29 213d 68a9 a33d 381e 1c3d
000000f0: 5f1b 403d 1aec 773c 5a5b db3c 9497 333d

features_to_image.2.running_var f4 [64]
0.0041900245 0.0049732653 0.003887819 0.003118411 0.005388731 0.0029518658 0.006095584 0.0039119576
0.006530691 0.003326688 0.0052511133 0.006576232 0.005656029 0.008657753 0.010371852 0.0066258693
0.0094397515 0.0048479354 0.0050325673 0.0030123931 0.0054040444 0.00593627 0.006510217 0.006655245
0.004697476 0.0029528195 0.0024599615 0.0051226057 0.005978998 0.007355435 0.0038159564 0.008918236
0.005303037 0.004266354 0.0028990468 0.0063238703 0.006136268 0.0041947 0.0035628334 0.0074445363
0.004297899 0.0026698266 0.008724412 0.005543519 0.0073168124 0.005841161 0.0056090555 0.0043636193
0.00680816 0.0020488182 0.0035811786 0.0051915105 0.0047207815 0.0058452818 0.006212327 0.006555353
0.0051254025 0.0038917633 0.008169141 0.0040663076 0.005264859 0.0013637847 0.0027780256 0.0053759306
00000000: 794c 893b c6f6 a23b c7ca 7e3b 415e 4c3b
00000010: f493 b03b 1774 413b 77bd c73b e12f 803b
00000020: 68ff d53b 9004 5a3b 8811 ac3b 6f7d d73b
00000030: 3656 b93b 3fd9 0d3c b3ee 293c d21d d93b
00000040: 30a9 1a3c 6edb 9e3b 3ce8 a43b 926b 453b
00000050: 6914 b13b 0b85 c23b a953 d53b 3e14 da3b
00000060: 49ed 993b 1784 413b 4e37 213b 88db a73b
00000070: 78eb c33b dc05 f13b 2015 7a3b cb1d 123c
00000080: 19c5 ad3b c5cc 8b3b effd 3d3b 7838 cf3b
00000090: bf12 c93b b273 893b 6d7e 693b 4cf1 f33b
000000a0: 64d5 8c3b 42f8 2e3b d6f0 0e3c 68a6 b53b
000000b0: dfc1 ef3b 3667 bf3b 2bcc b73b b1fc 8e3b
000000c0: fc16 df3b 7745 063b 35b2 6a3b 8c1d aa3b
000000d0: c9b0 9a3b c789 bf3b c790 cb3b 49ce d63b
000000e0: fef2 a73b f40c 7f3b dcd7 053c a93e 853b
000000f0: d784 ac3b 05c1 b23a 890f 363b 9328 b03b

features_to_image.3.weight f4 [64, 32, 4, 4]
-0.003078079 -0.015366435 0.02379946 -0.04186541 0.017706877 -0.023644567 0.04152994 0.019941559
-0.004420456 0.032557596 0.009848938 -0.025884608 0.00079159153 -0.027344238 -0.0330195 -0.0002064458
-0.007623917 -0.006595534 0.041220248 -0.039642766 0.012427925 0.00724684 0.025712533 0.0135762
0.0032149246 -0.033418387 0.042783543 0.043201685 -0.030375475 -0.037604466 -0.008151401 0.008410973
-0.032857366 -0.029613892 0.03624252 -0.0011643172 -0.031967495 0.042685438 0.03262826 0.04133137
0.019419324 -0.043884076 -0.015043664 0.013905715 -0.017416827 0.041935395 -0.0033279308 -0.041276056
0.0019729624 0.022730844 0.0269695 -0.033669863 -0.019042172 -0.01814251 -0.038666837 -0.03200768
-0.032779504 -0.040567268 -0.011246939 0.025361534 -0.0035170808 0.027454816 0.008578865 -0.029616626
0.007481835 -0.038737774 0.04223487 0.015940353 0.039469905 -0.0056290487 0.029993441 0.036574118
-0.029505285 -0.027907904 -0.020092508 -0.021978853 -0.0127269365 -0.030832727 -0.03883561 0.0289394
0.0037976839 0.0196395 -0.03667241 -0.022999182 -0.041169092 -0.016368344 -0.021493027 0.025650281
0.01322401 -0.008353753 0.035355326 -0.0431656 0.025292581 -0.0047763917 -0.04107086 -0.0057114246
-0.023028817 0.017150342 -0.031307574 0.026405748 0.019379051 -0.0079859 -0.009682727 0.0037526658
-0.035547532 -0.028444633 0.012205422 -0.024918724 -0.016614335 0.018569965 0.009817892 -0.009998455
0.013887391 0.007970237 0.027160367 0.01649067 -0.0025255603 -0.04187345 -0.03850928 0.024725702
0.020324085 0.0001478248 0.007620087 -0.031829022 -0.025730014 0.036313713 -0.013466144 -0.038316283
0.00970046 0.038379632 -0.027416093 -0.012714066 0.0010522171 -0.022631066 0.010150921 0.023678748
-0.0071099624 0.028340437 -0.043706343 -0.031108541 0.010100376 0.032060612 -0.0021012258 -0.031212859
-0.030096306 0.035901677 -0.04045932 -0.021460485 -0.0282762 0.0231032 0.017484045 0.013532147
-0.012410761 0.04381865 -0.043237414 -0.042124145 0.019498022 0.030018477 0.0031770135 0.00096659054
-0.040438384 -0.017881906 0.04052884 0.039812203 0.040589668 0.015069547 0.04220232 0.009934317
0.03861432 0.04405551 0.01605004 -0.027475351 -0.015030878 -0.0040852623 0.028658671 -0.02143223
-0.007275199 0.015992543 0.03761403 0.002213816 0.023137577 0.026980104 0.006024365 0.039755784
0.009763333 -0.037899 -0.026130218 0.0240739 0.014058023 -0.04232317 0.01654622 0.035447337
0.0020479732 -0.033203002 -0.041651927 -0.024510484 -0.03567264 -0.002879931 0.029658515 -0.0015130349
0.03134043 -0.041027665 -0.043425456 0.014510343 -0.037503697 0.02186403 -0.0035797372 0.016062059
0.013700686 0.019434964 0.0047425795 0.03921462 -0.025673004 0.0366724 -0.037435975 0.03499631
0.040507738 0.0035345769 0.023749964 0.03824371 0.041422307 -0.024386682 -0.0049296534 0.019143477
0.016032778 0.01327219 -0.026840046 -0.035231516 -0.027278509 0.024409626 0.024110973 -0.00351638
0.0007994414 0.0024188182 0.021412343 0.03334683 -0.012948276 0.03415439 0.041580036 -0.011097686
0.009759498 -0.031563826 -0.030710991 -0.026250549 0.024154121 -0.004234915 -0.013337971 0.014465741
-0.022791661 0.014918719 -0.007931826 -0.011853611 -0.043750223 0.027532708 0.043720815 -0.01919319
00000000: 99b9 49bb 80c3 7bbc 16f7 c23c 107b 2bbd
00000010: 030e 913c 40b2 c1bc 4c1b 2a3d 7b5c a33c
00000020: 79d9 90bb 1d5b 053d 715d 213c f50b d4bc
00000030: cf82 4f3a 0601 e0bc 753f 07bd 5f79 58b9
00000040: 0dd2 f9bb 591f d8bb 90d6 283d 7460 22bd
00000050: 7f9e 4b3c e676 ed3b 17a3 d23c b66e 5e3c
00000060: 7cb1 523b b8e1 08bd cc3d 2f3d 40f4 303d
00000070: fdd5 f8bc 2407 1abd 748d 05bc 2dce 093c
00000080: 7295 06bd d598 f2bc 0973 143d 019c 98ba
00000090: 59f0 02bd edd6 2e3d 36a5 053d 154b 293d
000000a0: 4615 9f3c cabf 33bd b379 76bc ccd4 633c
000000b0: bcad 8ebc 73c4 2b3d 6a19 5abb 1511 29bd
000000c0: d14c 013b 0936 ba3c 24ef dc3c 69e9 09bd
000000d0: 54fe 9bbc 9a9f 94bc 1e61 1ebd 7c1a 03bd
000000e0: cd43 06bd dd29 26bd 1545 38bc fec2 cf3c
000000f0: d37e 66bb ece8 e03c 5e8e 0c3c 919e f2bc
00000100: 2e2a f53b 80ab 1ebd 79fe 2c3d 5895 823c
00000110: 32ab 213d e273 b8bb ceb4 f53c bece 153d
00000120: 11b5 f1bc 1e9f e4bc 0b99 a4bc ff0c b4bc
00000130: a484 50bc ea94 fcbc 1712 1fbd 5212 ed3c
00000140: 90e2 783b 04e3 a03c cf35 16bd c868 bcbc
00000150: eca0 28bd e816 86bc 2512 b0bc 8a20 d23c
00000160: 85a9 583c 2ede 08bc bfd0 103d 6ace 30bd
00000170: 6332 cf3c 4783 9cbb eb39 28bd e726 bbbb
00000180: eea6 bcbc e07e 8c3c 5f3c 00bd de50 d83c
00000190: d1c0 9e3c 4bd7 02bc 4da4 1ebc 49ef 753b
000001a0: 4a9a 11bd b804 e9bc 40f9 473c 5a22 ccbc
000001b0: c91a 88bc 0a20 983c 39db 203c 8fd0 23bc
000001c0: f187 633c 9995 023c 6b7f de3c 7117 873c
000001d0: df83 25bb 7f83 2bbd e8bb 1dbd 8e8d ca3c
000001e0: b27e a63c 6b01 1b39 ecb1 f93b 265f 02bd
000001f0: c0c7 d2bc b0bd 143d 1aa1 5cbc 89f1 1cbd
00000200: aeee 1e3c f633 1d3d b797 e0bc a84e 50bc
00000210: 8cea 893a c964 b9bc 0c50 263c eff9 c13c
00000220: b0fa e8bb 342a e83c 6c05 33bd 57d7 febc
00000230: 0c7c 253c fd51 033d b8b4 09bb 1cb2 ffbc
00000240: 878c f6bc a30d 133d acb8 25bd e6cd afbc
00000250: 7da3 e7bc ec42 bd3c b33a 8f3c f0b5 5d3c
00000260: 8156 4bbc 2f7b 333d b719 31bd 5e8a 2cbd
00000270: 51ba 9f3c 4fe9 f53c 7135 503b cb62 7d3a
00000280: b8a2 25bd 137d 92bc 9201 263d 1f12 233d
00000290: 5a41 263d 43e6 763c 57dc 2c3d 8cc3 223c
000002a0: 0d2a 1e3d 8d73 343d 607b 833c fd13 e1bc
000002b0: 1244 76bc aadd 85bb 97c5 ea3c a592 afbc
000002c0: cb64 eebb cb02 833c 2b11 1a3d ab15 113b
000002d0: 048b bd3c 6105 dd3c 0968 c53b f6d6 223d
000002e0: 63f6 1f3c fb3b 1bbd 0a0f d6bc a136 c53c
000002f0: 9f53 663c 0f5b 2dbd f08b 873c 3a31 113d
00000300: 4a37 063b dfff 07bd 369b 2abd 36ca c8bc
00000310: 791d 12bd 39bd 3cbb 6af6 f23c 0751 c6ba
00000320: d35e 003d a00c 28bd e4de 31bd cabc 6d3c
00000330: 7a9d 19bd 321c b33c 069a 6abb 9494 833c
00000340: d878 603c 1336 9f3c a467 9b3b 829f 203d
00000350: 3150 d2bc cc35 163d 7756 19bd 4a58 0f3d
00000360: 71eb 253d 5ca4 673b 498f c23c 70a5 1c3d
00000370: 70aa 293d 94c6 c7bc ee88 a1bb c8d2 9c3c
00000380: 2c57 833c 9973 593c a8df dbbc ec4e 10bd
00000390: 2e77 dfbc b2f6 c73c 6084 c53c 1173 66bb
000003a0: 9b91 513a 0985 1e3b f068 af3c b096 083d
000003b0: 0125 54bc 79e5 0b3d d44f 2a3d 12d3 35bc
000003c0: 4de6 1f3c 1249 01bd 9e95 fbbc 640b d7bc
000003d0: ddde c53c 0bc5 8abb 8187 5abc b701 6d3c
000003e0: 94b5 babc a56d 743c 7df4 01bc a635 42bc
000003f0: 6f33 33bd 468c e13c 9914 333d 093b 9dbc

features_to_image.3.bias f4 [32]
-0.015916705 -0.010306743 0.014399776 -0.008428316 0.033927906 -0.010785204 -0.042956404 -0.02652987
-0.033821486 0.024007903 0.022161223 -0.033333052 -0.04035744 -0.03338279 -0.03968514 0.032794084
0.02773496 -0.024375845 0.03820852 -0.0032787665 -0.0020657014 0.034981042 0.025259612 -0.03244855
0.006478181 0.031612713 -0.040763795 -0.030124664 -0.040332142 -0.0047919597 0.034644105 -0.0143166045
00000000: c063 82bc 9ddd 28bc 0aed 6b3c eb16 0abc
00000010: fdf7 0a3d 6db4 30bc 0ef3 2fbd 2c55 d9bc
00000020: 6688 0abd 39ac c43c 748b b53c 3d88 08bd
00000030: d84d 25bd 64bc 08bd e38c 22bd 1753 063d
00000040: 6d34 e33c daaf c7bc 8980 1c3d 93e0 56bb
00000050: b860 07bb 4848 0f3d 3fed ce3c c5e8 04bd
00000060: ec46 d43b 557c 013d f0f7 26bd 00c8 f6bc
00000070: 5133 25bd df05 9dbb fae6 0d3d 3190 6abc

features_to_image.5.weight f4 [32]
1.0 1.0 1.0 1.0 1.0 1.0 1.0 1.0
1.0 1.0 1.0 1.0 1.0 1.0 1.0 1.0
1.0 1.0 1.0 1.0 1.0 1.0 1.0 1.0
1.0 1.0 1.0 1.0 1.0 1.0 1.0 1.0
00000000: 0000 803f 0000 803f 0000 803f 0000 803f
00000010: 0000 803f 0000 803f 0000 803f 0000 803f
00000020: 0000 803f 0000 803f 0000 803f 0000 803f
00000030: 0000 803f 0000 803f 0000 803f 0000 803f
00000040: 0000 803f 0000 803f 0000 803f 0000 803f
00000050: 0000 803f 0000 803f 0000 803f 0000 803f
00000060: 0000 803f 0000 803f 0000 803f 0000 803f
00000070: 0000 803f 0000 803f 0000 803f 0000 803f

features_to_image.5.bias f4 [32]
0.0 0.0 0.0 0.0 0.0 0.0 0.0 0.0
0.0 0.0 0.0 0.0 0.0 0.0 0.0 0.0
0.0 0.0 0.0 0.0 0.0 0.0 0.0 0.0
0.0 0.0 0.0 0.0 0.0 0.0 0.0 0.0
00000000: 0000 0000 0000 0000 0000 0000 0000 0000
00000010: 0000 0000 0000 0000 0000 0000 0000 0000
00000020: 0000 0000 0000 0000 0000 0000 0000 0000
00000030: 0000 0000 0000 0000 0000 0000 0000 0000
00000040: 0000 0000 0000 0000 0000 0000 0000 0000
00000050: 0000 0000 0000 0000 0000 0000 0000 0000
00000060: 0000 0000 0000 0000 0000 0000 0000 0000
00000070: 0000 0000 0000 0000 0000 0000 0000 0000

features_to_image.5.running_mean f4 [32]
0.15014705 0.13149817 0.15005702 0.1398241 0.1626207 0.13880078 0.12824894 0.14594808
0.12290256 0.14775176 0.15347125 0.12129789 0.12866795 0.13128464 0.12587419 0.15615189
0.1609044 0.133734 0.16418424 0.13885498 0.14288262 0.15095901 0.13625702 0.12952751
0.14027983 0.15627876 0.12069895 0.121974096 0.122680485 0.14752716 0.15097453 0.12350152
00000000: 26c0 193e 75a7 063e 8ca8 193e 0d2e 0f3e
00000010: 0a86 263e cb21 0e3e b153 033e 6a73 153e
00000020: 56b4 fb3d 3d4c 173e 9127 1d3e 076b f83d
00000030: 88c1 033e 7b6f 063e 2ae5 003e 48e6 1f3e
00000040: 1fc4 243e 91f1 083e ea1f 283e 0030 0e3e
00000050: d24f 123e 0095 1a3e f686 0b3e dca2 043e
00000060: 84a5 0f3e 8a07 203e 0331 f73d 8ecd f93d
00000070: e83f fb3d 5c11 173e 1199 1a3e 5dee fc3d

features_to_image.5.running_var f4 [32]
0.060414247 0.045021847 0.055781804 0.04829389 0.060467016 0.0530462 0.049333703 0.06206947
0.042579956 0.050977536 0.054594945 0.043189805 0.04722865 0.046585724 0.046365395 0.057912227
0.058095638 0.049541757 0.05543716 0.04511381 0.050581757 0.052005056 0.043534447 0.048152573
0.05504542 0.052292954 0.041611068 0.043947455 0.04811535 0.050357226 0.050337423 0.042918343
00000000: ee74 773d d468 383d 767b 643d d0cf 453d
00000010: 43ac 773d f946 593d 2312 4a3d 8e3c 7e3d
00000020: 5268 2e3d d2cd 503d f39e 5f3d cbe7 303d
00000030: d472 413d acd0 3e3d a4e9 3d3d 5f35 6d3d
00000040: b1f5 6d3d 4cec 4a3d 1312 633d 42c9 383d
00000050: d12e 4f3d 4103 553d 2d51 323d a23b 453d
00000060: 4e77 613d 2331 563d 5e70 2a3d 3f02 343d
00000070: 9a14 453d 6143 4e3d 9d2e 4e3d 25cb 2f3d

features_to_image.6.weight f4 [32, 16, 4, 4]
-0.03455145 0.02333071 -0.059889086 0.044685982 0.03336095 0.032947704 -0.0010686591 0.0223637
0.013546422 0.049923107 0.030253083 -0.053221628 -0.058202446 -0.02144552 0.028300956 0.0042873025
-0.01164224 -0.051698774 -0.018553108 0.05630385 -0.0030451715 0.012484051 -0.04017274 -0.009846307
0.04889507 -0.0108511895 0.007953927 -0.047870442 -0.015604734 0.015222833 -0.020847939 -0.035162657
-0.03707362 -0.044640288 0.061145708 -0.059505217 0.006718613 -0.0101775825 -0.057155356 0.033191137
0.04363861 -0.014763653 -0.0063867494 0.0005227849 -0.0048267394 -0.021918602 0.062191606 0.011140764
0.0376288 -0.00062666833 -0.044038743 -0.04998353 -0.05318567 -0.014959805 0.004541293 0.025237456
0.004951209 0.026845314 0.043741547 -0.048627615 -0.03615436 -0.038767032 0.020949237 0.0074796006
0.040506914 0.03285031 0.033371113 -0.032347575 -0.04408387 0.0065534115 -0.060978226 -0.046172738
0.050296903 0.0014002472 0.024525255 -0.028230384 0.016061902 0.0074069723 -0.019028187 0.00157509
-0.052559093 -0.05816999 0.027993664 0.060993537 0.017644577 0.029845104 -0.018657096 0.055034213
0.023121715 0.03471168 0.030655101 -0.049719073 -0.015374072 -0.025315575 -0.048661605 -0.043779835
-0.037605673 0.039353944 0.04421235 -0.047656044 0.051235937 0.06036421 0.038234934 0.02862741
-0.01827661 -0.055786632 0.030043624 0.05330044 0.059392028 -0.05733393 -0.032299787 -0.037290648
-0.055453315 0.043483466 -0.035948396 -0.010789759 -0.021852173 0.057635754 -0.038396448 -0.024535336
-0.047392197 -0.011238217 -0.061699137 0.030401714 -0.028030872 0.050863735 0.040904917 0.06209155
0.055612348 -0.023737833 0.031749636 -0.011210948 0.05258701 -0.013192825 -0.017845362 0.04683067
0.05605506 0.017577179 -0.016482376 0.038175315 -0.043428667 -0.007718727 -0.033515133 0.012411207
-0.017247774 -0.01315558 -0.025209464 0.059209697 0.04278902 0.051192738 0.05342932 -0.0055691227
-0.02073837 -0.05936695 0.040659398 0.02286277 -0.010132737 -0.05731655 0.03888899 0.020902023
-0.0042520612 0.050095953 0.030725613 -0.039565668 0.006953962 0.014435194 0.049577095 0.053835012
-0.003841631 -0.056963317 -0.025116153 0.050169766 0.007824242 -0.049712516 0.013736486 0.012387373
-0.02784603 0.042787574 0.04974328 0.057386003 0.036503747 -0.054771043 -0.060470037 0.03016477
-0.058923416 0.01919879 -0.05336657 0.021096475 0.008193888 -0.059875347 0.030398555 0.026934966
-0.045377396 0.047798395 -0.05215162 0.01824534 -0.032918215 0.0015282482 0.029009432 0.05658897
0.019767322 -0.05336888 0.04847265 0.034849472 -0.038420245 -0.029546343 0.04932642 -0.018581197
0.042790644 0.052680664 -0.026774175 -0.0053168014 0.041980326 0.05221837 0.05758903 -0.011814788
0.014062732 0.015329212 0.031401716 -0.048499145 0.019043319 0.032262683 0.011639811 -0.033504255
-0.04640902 0.03338255 -0.010740608 -0.055310026 -0.03028901 0.0023321882 0.061154604 0.0079187155
-0.042479306 0.018041924 0.024620987 -0.034453407 0.0046647266 0.045272455 0.026707806 -0.059475273
0.052937023 0.016999714 -0.046535574 -0.050704554 0.026397616 0.03726933 -0.061187036 0.018212192
-0.02294413 -0.04686231 -0.034744136 -0.03692735 -0.020868294 -0.030110836 -0.016647324 0.033950463
00000000: d285 0dbd 0c20 bf3c 424e 75bd a608 373d
00000010: 7ea5 083d 2cf4 063d 4012 8cba 1434 b73c
00000020: d0f1 5d3c 2c7c 4c3d 50d5 f73c ecfe 59bd
00000030: b065 6ebd 84ae afbc 68d7 e73c 807c 8c3b
00000040: 18bf 3ebc 18c2 53bd b0fc 97bc de9e 663d
00000050: 8091 47bb e889 4c3c 2c8c 24bd 6852 21bc
00000060: 3246 483d 30c9 31bc 3051 023c cc13 44bd
00000070: 00ab 7fbc 3069 793c 4cc9 aabc b806 10bd
00000080: 82da 17bd bcd8 36bd ec73 7a3d bebb 73bd
00000090: d027 dc3b e0bf 26bc bc1b 6abd 6ef3 073d
000000a0: 66be 323d 40e3 71bc f047 d1bb 800b 093a
000000b0: a029 9ebb a48e b3bc a0bc 7e3d c087 363c
000000c0: a820 1a3d 0047 24ba f861 34bd 88bb 4cbd
000000d0: 38d9 59bd f819 75bc 20cf 943b c8be ce3c
000000e0: c03d a23b b4ea db3c 562a 333d c02d 47bd
000000f0: 9816 14bd 2eca 1ebd bc9d ab3c 7017 f53b
00000100: 94ea 253d 0c8e 063d 26b0 083d e47e 04bd
00000110: 4a91 34bd 00be d63b 4ec4 79bd a01f 3dbd
00000120: 2004 4e3d 8088 b73a 30e9 c83c 6843 e7bc
00000130: 4094 833c 30b6 f23b 00e1 9bbc 4073 ce3a
00000140: 3448 57bd a843 6ebd f852 e53c 5cd4 793d
00000150: 5c8b 903c b87d f43c c4d6 98bc 8e6b 613d
00000160: c069 bd3c d62d 0e3d 6820 fb3c 3aa6 4bbd
00000170: 88e3 7bbc 9c62 cfbc 6451 47bd 7c52 33bd
00000180: 6808 1abd 9a31 213d 0218 353d fc32 43bd
00000190: c6dc 513d 7640 773d 3c9c 1c3d 0884 ea3c
000001a0: d4b8 95bc 8680 64bd 0c1e f63c 9051 5a3d
000001b0: 0e45 733d fcd6 6abd c84c 04bd 14be 18bd
000001c0: 0423 63bd b81b 323d a03e 13bd 88c7 30bc
000001d0: 5403 b3bc 7813 6c3d 9845 1dbd 54fe c8bc
000001e0: 521e 42bd 8020 38bc 3cb8 7cbd 040d f93c
000001f0: 00a1 e5bc 7e56 503d ea8b 273d b653 7e3d
00000200: c6c9 633d d875 c2bc e80b 023d 20ae 37bc
00000210: 7a65 573d b826 58bc 7030 92bc 84d1 3f3d
00000220: fe99 653d 04fe 8f3c 0c06 87bc b85d 1c3d
00000230: 42e2 31bd 60ed fcbb 2a47 09bd 6058 4b3c
00000240: 344b 8dbc 808a 57bc 1484 cebc de85 723d
00000250: 8a43 2f3d 7aaf 513d b4d8 5a3d 307d b6bb
00000260: 84e3 a9bc c22a 73bd 788a 263d b44a bb3c
00000270: c803 26bc c2c4 6abd 104a 1f3d b83a ab3c
00000280: e054 8bbb 6a31 4d3d 48b4 fb3c 9c0f 22bd
00000290: 10de e33b 9881 6c3c 5a11 4b3d 1a82 5c3d
000002a0: e0c3 7bbb 5e52 69bd 64c0 cdbc d07e 4d3d
000002b0: 4031 003c 5a9f 4bbd 000f 613c 68f4 4a3c
000002c0: 5c1d e4bc 0642 2f3d 9cbf 4b3d 960d 6b3d
000002d0: f484 153d 9a57 60bd 6eaf 77bd 1c1c f73c
000002e0: ae59 71bd c846 9d3c e896 5abd 84d2 ac3c
000002f0: a83f 063c da3f 75bd 6406 f93c b8a6 dc3c
00000300: a6dd 39bd 40c8 433d f09c 55bd 4077 953c
00000310: 40d5 06bd 804f c83a 30a5 ed3c d6c9 673d
00000320: 14ef a13c 5499 5abd 428b 463d 52be 0e3d
00000330: 8c5e 1dbd 2c0b f2bc 800a 4a3d 9837 98bc
00000340: 3e45 2f3d aec7 573d 8455 dbbc 9038 aebb
00000350: 90f3 2b3d eee2 553d 7ae2 6b3d d092 41bc
00000360: 6067 663c 6027 7b3c 169f 003d 0aa7 46bd
00000370: bc00 9c3c e025 043d e8b4 3e3c c23b 09bd
00000380: 6217 3ebd 24bc 083d 60f9 2fbc c48c 62bd
00000390: a820 f8bc a0d7 183b 407d 7a3d 80bd 013c
000003a0: c8fe 2dbd a8cc 933c f4b1 c93c 041f 0dbd
000003b0: 90da 983b 9c6f 393d 54ca da3c 589c 73bd
000003c0: 7ed4 583d fc42 8b3c 169c 3ebd 94af 4fbd
000003d0: d03f d83c baa7 183d 429f 7abd bc31 953c
000003e0: 54f5 bbbc b2f2 3fbd de4f 0ebd 2241 17bd
000003f0: fcf3 aabc 00ab f6bc f85f 88bc a40f 0b3d

features_to_image.6.bias f4 [16]
0.01384607 -0.020458132 -0.040023662 -0.020192847 -0.05319108 0.060840353 0.013992049 -0.05713109
-0.013512611 0.013154693 0.039852276 -0.024192072 -0.055138633 0.010562018 0.027958773 0.062404968
00000000: a0da 623c d097 a7bc daef 23bd 786b a5bc
00000010: e4de 59bd bc33 793d e83e 653c 4a02 6abd
00000020: 0064 5dbc c886 573c 243c 233d 742e c6bc
00000030: 0cd9 61bd 500c 2d3c cc09 e53c 5a9c 7f3d

features_to_image.8.weight f4 [16]
1.0 1.0 1.0 1.0 1.0 1.0 1.0 1.0
1.0 1.0 1.0 1.0 1.0 1.0 1.0 1.0
00000000: 0000 803f 0000 803f 0000 803f 0000 803f
00000010: 0000 803f 0000 803f 0000 803f 0000 803f
00000020: 0000 803f 0000 803f 0000 803f 0000 803f
00000030: 0000 803f 0000 803f 0000 803f 0000 803f

features_to_image.8.bias f4 [16]
0.0 0.0 0.0 0.0 0.0 0.0 0.0 0.0
0.0 0.0 0.0 0.0 0.0 0.0 0.0 0.0
00000000: 0000 0000 0000 0000 0000 0000 0000 0000
00000010: 0000 0000 0000 0000 0000 0000 0000 0000
00000020: 0000 0000 0000 0000 0000 0000 0000 0000
00000030: 0000 0000 0000 0000 0000 0000 0000 0000

features_to_image.8.running_mean f4 [16]
0.15888228 0.14069766 0.13587837 0.13926154 0.13738082 0.18641768 0.15694141 0.1244817
0.13142902 0.16663511 0.16454877 0.14426018 0.13528885 0.15352201 0.16891515 0.17432632
00000000: 09b2 223e 0c13 103e b323 0b3e 949a 0e3e
00000010: 8fad 0c3e 47e4 3e3e 40b5 203e 43f0 fe3d
00000020: 5495 063e 65a2 2a3e 797f 283e f1b8 133e
00000030: 2989 0a3e e034 1d3e 18f8 2c3e 9982 323e

features_to_image.8.running_var f4 [16]
0.06476581 0.05489642 0.057490278 0.05189469 0.060674492 0.07370443 0.06075593 0.05416389
0.044795904 0.06851929 0.053741764 0.06426065 0.062045578 0.061986353 0.07281531 0.06017392
00000000: f0a3 843d 12db 603d ed7a 6b3d 878f 543d
00000010: d185 783d 59f2 963d 36db 783d f5da 5d3d
00000020: e97b 373d d753 8c3d 5320 5c3d 169b 833d
00000030: 8123 7e3d 67e5 7d3d 3120 953d ee78 763d

features_to_image.9.weight f4 [16, 3, 4, 4]
-0.0696901 0.06016914 0.10401667 -0.029159546 -0.08998779 -0.04928442 -0.14312004 0.08743141
-0.09329804 0.08937697 0.015419324 0.08194591 -0.081522085 -0.095450476 0.12808822 -0.10197248
0.10636367 0.10262221 -0.022715466 0.06064345 0.094791554 0.091896534 -0.001531058 -0.095771216
-0.10715647 -0.02825609 0.13589057 -0.087719806 -0.03520088 0.053410612 0.0846545 0.09966309
0.118454546 -0.035164624 -0.06425968 -0.12207869 0.023789695 0.075602055 -0.0111104855 0.11861697
-0.0673049 -0.098220564 -0.035270117 -0.064313024 0.07578159 0.08474659 -0.05786999 -0.07118747
0.11836829 -0.12629119 0.13013814 -0.061791927 -0.009325358 -0.079987496 -0.07545799 0.018010313
-0.05291588 -0.08940283 -0.089334 0.101236306 -0.010101624 -0.039277498 -0.03630365 -0.09371427
-0.05644427 0.004842718 0.10177363 -0.013557577 0.031835705 0.03297019 -0.11673612 -0.06171723
0.068540424 -0.09988351 0.05320228 -0.0056796363 0.14325212 -0.11448397 0.11795168 0.01342994
0.09755487 -0.013073252 0.12920995 0.006576708 -0.0329518 0.04533423 0.062719986 0.13446166
0.1208894 -0.07360672 0.0666391 -0.047142345 -0.12648715 -0.012641819 0.026459454 -0.01996439
-0.13555318 -0.025568541 -0.05971711 -0.018395856 0.103173114 -0.09510869 0.090150654 0.031820185
-0.026599117 -0.09179954 0.13802695 0.06631431 0.0105051305 -0.002964143 -0.017533867 -0.06498104
-0.09397381 0.08614273 -0.04026463 -0.024622329 0.13598347 0.0347548 -0.08860545 0.0007828042
0.1286853 -0.11785979 0.079745695 0.01355928 -0.049458962 -0.054377936 -0.11233585 -0.12557155
0.07656587 -0.11544819 -0.05235094 -0.13027343 0.12013827 -0.12120298 -0.09263463 0.104495056
0.11563378 0.051281065 -0.030592907 -0.102854416 0.055442788 -0.109377556 0.14417776 -0.06913743
0.07937999 -0.13670988 0.12981428 -0.07488724 -0.034708466 -0.037169855 0.03876162 0.044640522
-0.13854763 -0.041342005 -0.06406275 0.012368289 -0.12055524 0.11072552 0.12956676 0.13569541
-0.04997472 0.14207426 0.12638459 -0.01871075 -0.07918694 -0.111285575 -0.060454868 0.11919571
-0.11359235 -0.101387866 -0.0602099 -0.13695815 0.14189889 0.11892706 -0.015011395 0.01686688
0.083743 -0.0766443 0.08652716 -0.037073586 0.06904049 -0.07960166 -0.12088214 0.07353022
-0.056198288 -0.01700878 -0.10010454 -0.10494742 0.069391795 0.10431577 -0.0060617384 -0.038716022
-0.10909959 -0.0024601852 -0.10897166 -0.08548132 -0.025777806 0.09638731 -0.028222797 0.114744656
-0.12044319 0.017375397 -0.08153967 0.10313548 -0.039770685 0.06790666 0.13738777 0.060153224
0.038437054 0.01330115 -0.046099845 -0.026034335 0.015757602 0.07719002 0.100739785 -0.017828578
-0.009267734 -0.02281521 -0.102500975 0.13358523 0.096498415 0.13798401 -0.02332667 -0.032837994
-0.061208405 -0.0757448 -0.1325535 0.038678322 -0.034279406 0.09458336 0.13731602 0.04734822
-0.12812546 -0.024902517 -0.0330608 -0.096803 -0.015401206 -0.0031304252 -0.098129384 0.095585406
-0.10821078 0.07325712 0.019931009 -0.03650581 -0.09784135 0.030969778 0.005809338 -0.050276883
-0.12842044 -0.1415336 0.06702681 -0.010584452 -0.087125756 -0.098509714 0.022508886 0.075690225
00000000: afb9 8ebd eb73 763d b106 d53d 00e0 eebc
00000010: 854b b8bd 76de 49bd 0f8e 12be 3d0f b33d
00000020: 0b13 bfbd 460b b73d 55a1 7c3c 42d3 a73d
00000030: 0df5 a6bd 8a7b c3bd 8f29 033e f3d6 d0bd
00000040: 32d5 d93d 982b d23d c915 babc 4465 783d
00000050: 1322 c23d 4034 bc3d c8ad c8ba b323 c4bd
00000060: da74 dbbd 5179 e7bc e626 0b3e 71a6 b3bd
00000070: cc2e 10bd 16c5 5a3d 575f ad3d 2a1c cc3d
00000080: 4c98 f23d c808 10bd 949a 83bd 6404 fabd
00000090: 9be2 c23c 40d5 9a3d c108 36bc 74ed f23d
000000a0: 27d7 89bd dd27 c9bd 6677 10bd 8cb6 83bd
000000b0: 6133 9b3d 9f8f ad3d 1509 6dbd bcca 91bd
000000c0: 136b f23d 7a52 01be ef42 053e 8819 7dbd
000000d0: 63c9 18bc 7cd0 a3bd b889 9abd 5d8a 933c
000000e0: 52be 58bd d518 b7bd bff4 b6bd fb54 cf3d
000000f0: 4881 25bc 71e1 20bd 23b3 14bd 44ed bfbd
00000100: 1b32 67bd aaaf 9e3b b16e d03d 9920 5ebc
00000110: 2866 023d c00b 073d 5913 efbd 35cb 7cbd
00000120: ec5e 8c3d ba8f ccbd a2ea 593d 3e1c babb
00000130: afb0 123e 9276 eabd a790 f13d 4009 5c3c
00000140: d9ca c73d 3131 56bc 9d4f 043e 6d81 d73b
00000150: 77f8 06bd 63b0 393d 5673 803d 51b0 093e
00000160: dd94 f73d 1fbf 96bd 157a 883d 5518 41bd
00000170: d985 01be a21f 4fbc 7fc1 d83c 5c8c a3bc
00000180: 74ce 0abe 1e75 d1bc ee99 74bd e8b2 96bc
00000190: 6d4c d33d 58c8 c2bd e8a0 b83d e255 023d
000001a0: 64e6 d9bc 6601 bcbd f056 0d3e cccf 873d
000001b0: b61d 2c3c 1142 42bb 2fa3 8fbc c814 85bd
000001c0: 5775 c0bd 9a6b b03d 86ec 24bd c4b4 c9bc
000001d0: 403f 0b3e 0d5b 0e3d c676 b5bd 1a35 4d3a
000001e0: 14c6 033e 7960 f1bd b651 a33d be27 5e3c
000001f0: 7b95 4abd 66bb 5ebd 5710 e6bd d495 00be
00000200: 91ce 9c3d 1a70 ecbd f06d 56bd 6666 05be
00000210: 0e0b f63d 4539 f8bd 3ab7 bdbd 8101 d63d
00000220: 67d1 ec3d 180c 523d fa9d fabc 56a5 d2bd
00000230: fa17 633d 5701 e0bd 56a3 133e ed97 8dbd
00000240: fa91 a23d adfd 0bbe 09ee 043e 7b5e 99bd
00000250: 772a 0ebd 6b3f 18bd 81c4 1e3d fbd8 363d
00000260: 6edf 0dbe 3c56 29bd 5533 83bd 5da4 4a3c
00000270: aae5 f6bd 10c4 e23d 26ad 043e bdf3 0a3e
00000280: 4bb2 4cbd ea7b 113e f66a 013e 4947 99bc
00000290: c32c a2bd b1e9 e3bd 869f 77bd e11c f43d
000002a0: 1ba3 e8bd 71a4 cfbd a89e 76bd c23e 0cbe
000002b0: f14d 113e 0890 f33d 5bf2 75bc 692c 8a3c
000002c0: 7381 ab3d b0f7 9cbd 2735 b13d 79da 17bd
000002d0: 1a65 8d3d 3206 a3bd 0e91 f7bd 0397 963d
000002e0: 2d30 66bd ff55 8bbc 9c03 cdbd acee d6bd
000002f0: 491d 8e3d 82a3 d53d 8ca1 c6bb b194 1ebd
00000300: 9b6f dfbd 0f3b 21bb 892c dfbd d510 afbd
00000310: fa2b d3bc b666 c53d 7f33 e7bc 3fff ea3d
00000320: ebaa f6bd d956 8e3c 45fe a6bd b238 d33d
00000330: 96e6 22bd a612 8b3d 61af 0c3e 3a63 763d
00000340: 2c70 1d3d 11ed 593c 31d3 3cbd f545 d5bc
00000350: 1616 813c cd15 9e3d a950 ce3d 3d0d 92bc
00000360: b2d7 17bc f7e6 babc 08ec d1bd 91ca 083e
00000370: f6a0 c53d ae4b 0d3e 9317 bfbc 2281 06bd
00000380: aab5 7abd 1720 9bbd 1bbc 07be 296d 1e3d
00000390: 9068 0cbd ecb4 c13d 929c 0c3e 35f0 413d
000003a0: 5233 03be 5d00 ccbc c36a 07bd a740 c6bd
000003b0: 5755 7cbc d227 4dbb 0ff8 c8bd 48c2 c33d
000003c0: 9d9d ddbd d407 963d 5b46 a33c 1e87 15bd
000003d0: 0c61 c8bd 55b4 fd3c 425c be3b 22ef 4dbd
000003e0: a680 03be 2fee 10be 5a45 893d 696a 2dbc
000003f0: fd6e b2bd 76bf c9bd 8e64 b83c 7a03 9b3d

features_to_image.9.bias f4 [3]
-0.114100076 -0.14105189 0.044896983
00000000: 4dad e9bd e86f 10be e6e5 373d
