trained_models/WGANCPdiscriminator_epoch100.pth (torch, 698846 bytes, 9 tensors)

image_to_features.0.weight f4 [16, 3, 4, 4]
0.00087829184 0.0085035395 0.010909689 0.009243148 0.00014030367 0.023883259 0.053871904 0.027230076
-0.0022026184 0.03939469 0.09988383 0.050767593 -0.00054412097 0.011707403 0.05169842 0.02371418
-0.01175527 -0.010215428 -0.0039837817 -0.007074137 -0.018528849 -0.0036052437 0.017397307 -0.00033263612
-0.017617952 0.01045331 0.054209508 0.023251824 -0.015176856 -0.0048387614 0.01950806 0.007973621
-0.009674907 -0.0084244255 -0.006171595 -0.0008799895 -0.023885587 -0.016385164 0.0065674847 0.003949224
-0.024571259 -0.0070797564 0.03515782 0.012926468 -0.015499414 -0.012027385 0.008340474 0.0064547476
0.007958632 -0.01770291 0.012125788 -0.024157913 0.0008212857 -0.050756417 -0.0024074719 -0.05664318
0.031023202 -0.029164273 0.04546577 0.002215028 0.011136099 -0.022929434 0.033199348 0.014295789
-0.003723727 -0.033022646 0.015369184 -0.017558485 -0.0151987495 -0.07232118 0.018912734 -0.030507647
0.02940406 -0.031153828 0.052495178 -0.0022693926 0.028705696 -0.01214015 0.031266242 -0.018633453
0.030838633 -0.014763508 0.03493127 0.014370695 0.041018505 -0.0077849897 0.04857994 0.009857552
0.027557662 -0.0006800164 0.07847893 -0.036750212 0.013589187 -0.008405199 0.042962506 -0.056007992
0.023256687 0.03922179 0.017311119 0.0008645626 0.046730258 0.057182863 0.009683126 -0.0069969497
0.02323559 0.019556537 -0.024013646 -0.020432113 0.0016429382 -0.0026686497 -0.020904573 -0.0167954
0.015271297 0.025919674 0.009472879 0.0010530726 0.036971025 0.037963465 -0.0059784735 -0.011506164
0.019861178 0.0030991759 -0.049172886 -0.033128463 0.0026089235 -0.01172038 -0.03501148 -0.019782035
0.0075801 0.005199959 -0.011578032 -0.007175769 0.015775295 -0.0019294145 -0.042283226 -0.02899595
0.0010958837 -0.034456763 -0.11177344 -0.0691005 -0.0011933285 -0.028405923 -0.08205909 -0.04009367
0.0013890816 -0.0067986953 -0.016719613 -0.009483331 0.0049120462 0.005809801 0.0029552483 -0.0038939032
0.00853557 0.024362566 0.036712583 0.01595584 -0.00293527 0.020003404 0.030975875 0.009277912
0.008703343 0.0016968717 -0.012817694 -0.0038775573 0.013205926 0.014721235 0.0033041635 7.132588e-05
0.022149526 0.058164384 0.06685543 0.031418573 0.0090416735 0.047449943 0.066392355 0.027898964
-0.0044253943 -0.024391504 -0.036716867 -0.021227537 -0.0020512075 -0.015401575 -0.032403637 -0.02682085
0.004421256 0.006648778 0.015011591 0.0014691377 0.0030556887 0.009128257 0.026478281 0.008825296
-0.02218431 -0.07158322 -0.0439599 -0.001201888 -0.050778665 -0.12876205 -0.08109334 -0.013467241
-0.016549028 -0.054193847 -0.044351477 -0.010380894 0.0070923073 0.0007685011 -0.005325741 -0.00016872027
-0.017440423 -0.037601914 -0.009957743 0.009280668 -0.031948503 -0.075769894 -0.025748419 0.011510062
0.005893123 -0.013926609 0.0018690834 0.009914053 0.013466737 0.021375714 0.019073334 0.006250622
-0.008090204 -0.026173053 -0.0008839265 0.014378513 -0.015270664 -0.046914622 -0.009614875 0.01884053
0.016833518 0.0015977786 0.014004462 0.015098912 0.014619908 0.022432135 0.025393026 0.01039814
0.00011772085 0.009206938 0.005427319 -0.003339488 0.009398991 0.027966863 0.011318568 -0.006548419
0.009429682 0.012181217 -0.012985843 -0.01714594 0.0011528905 -0.011388869 -0.02235979 -0.010952144
00000000: 2b3d 663a 6e52 0b3c 8dbe 323c 9370 173c
00000010: 7b1e 1339 d3a6 c33c c9a8 5c3d 9c11 df3c
00000020: ce59 10bb 545c 213d e58f cc3d aef1 4f3d
00000030: 57a3 0eba 68d0 3f3c b9c1 533d 3d44 c23c
00000040: 2d99 40bc 9c5e 27bc 628a 82bb 2ace e7bb
00000050: d0c9 97bc f445 6cbb cc84 8e3c aa65 aeb9
00000060: 8653 90bc 5c44 2b3c ca0a 5e3d 9c7a be3c
00000070: 59a8 78bc 798e 9ebb 5ecf 9f3c caa3 023c
00000080: 8083 1ebc 9a06 0abc 173b cabb 18af 66ba
00000090: b5ab c3bc 2e3a 86bc 0e34 d73b 7e68 813b
000000a0: aa49 c9bc 4dfd e7bb a501 103d 89c9 533c
000000b0: 41f1 7dbc 820e 45bc 7ca6 083c 5982 d33b
000000c0: ec64 023c b105 91bc 3eab 463c d1e6 c5bc
000000d0: 8d4b 573a f6e5 4fbd adc6 1dbb ae02 68bd
000000e0: 5f24 fe3c eae9 eebc 513a 3a3d 012a 113b
000000f0: 2f74 363c 82d6 bbbc 0afc 073d e338 6a3c
00000100: c609 74bb c142 07bd 08cf 7b3c d0d6 8fbc
00000110: 2d04 79bc 201d 94bd e1ee 9a3c 2ceb f9bc
00000120: c9e0 f03c 5036 ffbc 2f05 573d 17ba 14bb
00000130: 3528 eb3c 7be7 46bc 0811 003d 2fa5 98bc
00000140: 4da1 fc3c a4e2 71bc 1714 0f3d 1073 6b3c
00000150: 0503 283d 3a19 ffbb c2fb 463d 9281 213c
00000160: 9bc0 e13c 2143 32ba 90b9 a03d 6487 16bd
00000170: 2ea5 5e3c f6b5 09bc 74f9 2f3d a368 65bd
00000180: cf84 be3c 07a7 203d 0cd0 8d3c d0a3 623a
00000190: 3a68 3f3d 9438 6a3d f9a5 1e3c ab46 e5bb
000001a0: 9058 be3c 0835 a03c 44b8 c4bc 3f61 a7bc
000001b0: dc57 d73a 83e4 2ebb 1140 abbc 8296 89bc
000001c0: 7634 7a3c 7f55 d43c 2234 1b3c 4107 8a3a
000001d0: ee6e 173d 947f 1b3d 12e7 c3bb 5a84 3cbc
000001e0: e9b3 a23c 8b1b 4b3b 8269 49bd b6b1 07bd
000001f0: 79fa 2a3b d606 40bc 3368 0fbd ef0d a2bc
00000200: 7d62 f83b 6b64 aa3b c9b1 3dbc b722 ebbb
00000210: 313b 813c 68e4 fcba 2d31 2dbd ea88 edbc
00000220: c1a3 8f3a 8922 0dbd 79e9 e4bd 9084 8dbd
00000230: 7669 9cba 8ab3 e8bc 990e a8bd 4339 24bd
00000240: d811 b63a 97c7 debb 92f7 88bc f95f 1bbc
00000250: 3bf5 a03b 2560 be3b d7ac 413b db30 7fbb
00000260: c7d8 0b3c 0194 c73c ef5f 163d d2b5 823c
00000270: a95d 40bb 2ede a33c 1ec1 fd3c 6202 183c
00000280: 7798 0e3c 9169 de3a 4e01 52bc 9e1e 7ebb
00000290: ab5d 583c 5631 713c aa8a 583b ca94 9538
000002a0: ec72 b53c c73d 6e3d 80eb 883d c3b0 003d
000002b0: 8723 143c df5a 423d b7f8 873d 5e8c e43c
000002c0: e602 91bb b1d0 c7bc 6d64 16bd 5fe5 adbc
000002d0: 8d6d 06bb e356 7cbc adb9 04bd 66b7 dbbc
000002e0: 2fe0 903b fedd d93b 2df3 753c 1590 c03a
000002f0: f341 483b af8e 153c fbe8 d83c f997 103c
00000300: dfbb b5bc 399a 92bd 4c0f 34bd ab88 9dba
00000310: 4afd 4fbd 33da 03be 4414 a6bd b4a5 5cbc
00000320: d491 87bc 5efa 5dbd e5a9 35bd a014 2abc
00000330: 9666 e83b 3c75 493a 8e83 aebb 81ea 30b9
00000340: 38df 8ebc 7704 1abd cd25 23bc f10d 183c
00000350: 6fdc 02bd 3f2d 9bbd 59ee d2bc b394 3c3c
00000360: 191b c13b 6f2c 64bc 08fc f43a 8d6e 223c
00000370: 97a3 5c3c 1f1c af3c ae3f 9c3c 05d2 cc3b
00000380: c68c 04bc df68 d6bc 4eb7 67ba db93 6b3c
00000390: cf31 7abc 8c29 40bd b587 1dbc 7557 9a3c
000003a0: 72e6 893c 8e6c d13a f972 653c 6d61 773c
000003b0: 5788 6f3c 99c3 b73c 0905 d03c f65c 2a3c
000003c0: e6e0 f638 b2d8 163c a7d7 b13b 50db 5abb
000003d0: 3afe 193c c31a e53c 8471 393c 1f94 d6bb
000003e0: f47e 1a3c ba93 473c 93c2 54bc a475 8cbc
000003f0: 961c 973a 6198 3abc e12b b7bc 9f70 33bc

image_to_features.0.bias f4 [16]
-0.052223645 0.46772444 0.021786256 -0.043786667 0.08517754 -0.06911031 0.10674339 -0.07609347
0.07592858 -0.119998366 -0.009904897 0.32439882 0.053568523 0.023337146 0.08240545 -0.024380922
00000000: 76e8 55bd 9479 ef3e 1779 b23c a659 33bd
00000010: 9071 ae3d b589 8dbd 479c da3d e5d6 9bbd
00000020: 7180 9b3d b4c1 f5bd 2648 22bc 9a17 a63e
00000030: ab6a 5b3d 8b2d bf3c 30c4 a83d 80ba c7bc

image_to_features.2.weight f4 [32, 16, 4, 4]
0.023364222 -0.04111746 0.05566367 0.06236971 0.04416841 -0.06885615 -0.004025368 0.066071056
0.04964721 -0.06890986 -0.08279039 -0.0080165155 0.12514322 0.11237879 0.07290076 0.05172998
-0.082927786 0.10572606 0.039690785 -0.0832253 -0.12686296 0.17775674 0.061683137 -0.18492892
-0.0917606 0.2502786 0.18533932 -0.045784034 -0.29242438 -0.16702145 -0.14156456 -0.299372
0.023076791 -0.05096739 0.048096616 0.06764032 0.026136022 -0.11969407 0.038840156 0.10249016
0.042534597 -0.1011261 -0.059082862 0.017180031 0.072048165 0.043404005 0.023931475 0.049055472
0.04366581 -0.05775013 0.018341491 0.044849202 0.043987818 -0.089498304 -0.022625372 0.0126055395
0.071986906 -0.030666422 -0.029987235 -0.039877903 0.07509523 0.02959351 0.025009347 0.018405301
0.01264932 -0.055624824 0.051715557 0.064422615 0.0716719 -0.113063194 0.0073337546 0.10376641
0.07808826 -0.1029366 -0.11795715 -0.0029867375 0.09332366 0.07659822 0.030363718 0.012962707
0.027380336 -0.03351488 0.016404647 0.005303816 0.056549143 -0.082292445 -0.015517088 0.01990657
0.044815093 -0.013826422 -0.016911779 -0.03043051 0.06159227 0.043582972 0.048360012 0.051160958
0.009838695 -0.017862424 0.054940186 0.0010505768 0.025374988 -0.014671665 0.08110168 0.055793744
0.050479263 -0.053252347 0.017626742 -0.0012067653 0.06446798 0.04129229 0.09216004 -0.0034259534
-0.014924592 0.022199247 0.03492037 -0.008209623 -0.030229758 0.06932327 0.095013656 -0.019339269
-0.030381354 0.02815996 0.10121949 0.015885735 -0.08673931 -0.08504303 -0.029258298 -0.053352427
0.041683353 -0.10419875 -0.002154839 0.08049662 0.07562966 -0.13435988 -0.08433607 0.0690608
0.054775417 -0.13592772 -0.18167743 -0.07573829 0.14191079 0.07113193 0.022420608 -0.0006934871
-0.009831763 0.021905057 -0.009465535 -0.058743514 0.002100518 0.10812655 0.0883834 -0.04377006
-0.04808286 0.02533185 0.09741195 0.01840124 -0.09253846 -0.10990132 -0.040237952 -0.06960556
0.034571815 -0.047179267 -0.02090577 0.047396526 0.020990903 -0.06912538 -0.03129405 0.036269713
0.053441323 0.0040537138 0.0064256657 0.02512413 0.05335235 0.029522996 0.022560095 0.039980263
-0.07886704 0.106302276 0.03437065 -0.08101242 -0.10527019 0.15568948 0.045387562 -0.16013353
-0.08291057 0.21550307 0.14958313 -0.036073033 -0.2627499 -0.13749243 -0.14040558 -0.27887455
0.005425701 -0.0073595797 0.04621045 0.003182894 0.032813285 -0.0069256686 0.05274482 0.00032130512
0.018899167 -0.017625837 -0.0041764597 -0.04020018 0.05185061 0.021639843 0.025415642 -0.0036208108
0.0082810195 -0.034435242 0.037508115 0.06360086 0.042966086 -0.066192426 0.0065726535 0.05673635
0.04185039 -0.05564045 -0.07148547 -0.020861764 0.10698098 0.13471837 0.10943597 0.067257784
0.018803013 -0.061503977 0.05844689 0.099718586 0.032962706 -0.09530418 0.0101059545 0.11546047
0.046551593 -0.14882264 -0.10854857 -0.03633103 0.15599126 0.10079288 0.12102932 0.076700196
0.012959318 -0.050080135 0.0021083332 0.025554175 0.034765452 -0.082736775 -0.019364195 0.0439938
0.035831407 -0.07673689 -0.09677964 -0.018747138 0.10631765 0.07518288 0.04680074 0.031130226
00000000: 5366 bf3c c86a 28bd 97ff 633d 6277 7f3d
00000010: efe9 343d 7404 8dbd 3ce7 83bb 4350 873d
00000020: df5a 4b3d 9d20 8dbd 028e a9bd b457 03bc
00000030: 8b25 003e da26 e63d fe4c 953d d1e2 533d
00000040: 0bd6 a9bd e886 d83d ce92 223d 0772 aabd
00000050: 5de8 01be dd05 363e 75a7 7c3d 025e 3dbe
00000060: fbec bbbd 8424 803e 97c9 3d3e 0a88 3bbd
00000070: a6b8 95be ac07 2bbe 4df6 10be 4947 99be
00000080: 8a0b bd3c 2fc3 50bd f500 453d 0287 8a3d
00000090: 361b d63c 2a22 f5bd db16 1f3d 5ce6 d13d
000000a0: c238 2e3d 331b cfbd df00 72bd 23bd 8c3c
000000b0: fd8d 933d 66c8 313d f10b c43c 64ee 483d
000000c0: ecda 323d 668b 6cbd e540 963c ccb3 373d
000000d0: 922c 343d e34a b7bd d858 b9bc 7787 4e3c
000000e0: df6d 933d 2638 fbbc caa7 f5bc 0357 23bd
000000f0: 87cb 993d 176e f23c 67e0 cc3c b7c6 963c
00000100: 183f 4f3c dbd6 63bd b1d3 533d 01f0 833d
00000110: b8c8 923d ad8d e7bd fe4f f03b 7c83 d43d
00000120: bdec 9f3d 6dd0 d2bd 8593 f1bd 24bd 43bb
00000130: 7a20 bf3d 87df 9c3d 55bd f83c 8961 543c
00000140: ba4c e03c e646 09bd 0a63 863c a2cb ad3b
00000150: 13a0 673d f188 a8bd 623b 7ebc 1a13 a33c
00000160: 0890 373d 3888 62bc 928a 8abc 6849 f9bc
00000170: 2d48 7c3d 0f84 323d 2615 463d 278e 513d
00000180: 7a32 213c 3854 92bc f608 613d 82b3 893a
00000190: 35df cf3c 6c61 70bc a318 a63d fb87 643d
000001a0: 58c3 4e3d 221f 5abd f565 903c 532c 9eba
000001b0: ca07 843d 1b22 293d 67be bc3d f685 60bb
000001c0: 4786 74bc 32db b53c a908 0f3d a881 06bc
000001d0: 66a4 f7bc 5cf9 8d3d 8596 c23d 636d 9ebc
000001e0: 51e2 f8bc b7af e63c 2a4c cf3d cd22 823c
000001f0: 61a4 b1bd 0a2b aebd 19af efbc 1388 5abd
00000200: 2abc 2a3d 2766 d5bd 3338 0dbb 69db a43d
00000210: b9e3 9a3d a395 09be 64b8 acbd c06f 8d3d
00000220: 305c 603d a330 0bbe a609 3abe ad1c 9bbd
00000230: 1051 113e 9ead 913d 6cab b73c 22cb 35ba
00000240: 6715 21bc 3c72 b33c 5515 1bbc 0a9d 70bd
00000250: d8a8 093b 7471 dd3d 5b02 b53d 3c48 33bd
00000260: 88f2 44bd bd84 cf3c eb7f c73d 33be 963c
00000270: ce84 bdbd f113 e1bd 8dd0 24bd 5c8d 8ebd
00000280: 2d9b 0d3d 0c3f 41bd 9442 abbc dc22 423d
00000290: 1df5 ab3c 9b91 8dbd 312e 00bd 8d8f 143d
000002a0: 4ae5 5a3d 04d5 843b 648e d23b 1fd1 cd3c
000002b0: fe87 5a3d 36da f13c f3cf b83c 58c2 233d
000002c0: 0b85 a1bd 02b5 d93d 3dc8 0c3d d7e9 a5bd
000002d0: e697 d7bd 106d 1f3e 4fe8 393d 0bfa 23be
000002e0: 04cd a9bd d6ac 5c3e 522c 193e 51c1 13bd
000002f0: 2887 86be d1ca 0cbe 7bc6 0fbe a5c8 8ebe
00000300: 14ca b13b a128 f1bb 2b47 3d3d 1a98 503b
00000310: 3967 063d b8f0 e2bb f40a 583d d874 a839
00000320: 6dd2 9a3c 0f64 90bc afda 88bb f2a8 24bd
00000330: 4e61 543d 0a46 b13c 7734 d03c 204b 6dbb
00000340: 1dad 073c f80b 0dbd 1ca2 193d 2b41 823d
00000350: 35fd 2f3d e58f 87bd 6a5f d73b 6064 683d
00000360: 516b 2b3d 3ee7 63bd f966 92bd 4ae6 aabc
00000370: d818 db3d 9df3 093e f71f e03d 73be 893d
00000380: c708 9a3c 98eb 7bbd 0266 6f3d 4239 cc3d
00000390: e703 073d d72e c3bd 7293 253c 8a76 ec3d
000003a0: e2ac 3e3d f664 18be b64e debd d9cf 14bd
000003b0: 2cbc 1f3e 7f6c ce3d 38de f73d fe14 9d3d
000003c0: 5253 543c d420 4dbd f62b 0a3b fd56 d13c
000003d0: 3866 0e3d e671 a9bd a9a1 9ebc d832 343d
000003e0: f4c3 123d 3b28 9dbd 6734 c6bd 9993 99bc
000003f0: 11bd d93d 7bf9 993d 22b2 3f3d d104 ff3c

image_to_features.2.bias f4 [32]
0.4912644 -0.072017156 0.301456 -0.28519416 -0.10481421 -0.06240038 0.9005388 0.11014237
-0.22693647 -0.066883706 -0.0606908 -0.1294937 0.071814895 -0.0010958388 0.57004094 0.01654468
-0.11831799 0.10532406 -0.11303721 0.056035515 -0.1485024 0.998652 0.6195705 0.9819655
-0.009927311 0.061739482 0.021867916 -0.044340074 0.179499 -0.13999857 0.10866432 -0.04101324
00000000: 0287 fb3e bb7d 93bd 7158 9a3e f804 92be
00000010: d5a8 d6bd 8a97 7fbd b689 663f 5392 e13d
00000020: 0962 68be 53fa 88bd eb96 78bd ff99 04be
00000030: b013 933d 40a2 8fba 34ee 113f b588 873c
00000040: b450 f2bd 24b4 d73d 0e80 e7bd 7f85 653d
00000050: 0311 18be a8a7 7f3f 2c9c 1e3f 1762 7b3f
00000060: 29a6 22bc 8ae2 7c3d 5824 b33c f09d 35bd
00000070: 96ce 373e c95b 0fbe 668b de3d 80fd 27bd

image_to_features.4.weight f4 [64, 32, 4, 4]
-0.60840696 0.010024371 0.03183773 -0.7030771 -0.3729221 0.8835229 0.60036033 -0.53711396
-0.3631511 0.9331731 0.95493066 -0.3652493 -0.5456299 -0.01239664 0.021224651 -0.77647936
-0.62853616 -0.1429573 -0.14131957 -0.47641003 -0.5235609 0.22461985 -0.072344095 -0.2882638
-0.1704846 0.12891534 0.052999478 -0.26400432 -0.53977716 -0.31186837 -0.4147478 -0.7914962
-0.50615185 -0.06635217 -0.30797067 -0.7121215 0.10318105 1.3383518 0.87284225 -0.0769587
-0.33546674 0.7961874 -0.016039502 -0.3684764 -0.6391769 0.0017894022 -0.51306236 -0.8770712
0.22079784 0.2976912 0.15683481 -0.022431143 0.23062396 0.19632484 0.14907165 0.07354035
-0.036001056 -0.070655346 -0.026787886 -0.104220815 -0.09680415 -0.13309734 -0.06682007 -0.1828678
0.18326399 0.099400714 0.111236416 0.12073046 0.12524599 0.1608207 0.23112194 0.2431989
-0.08112199 -0.11030031 -0.02185148 0.08710427 0.14830782 -0.10584188 0.041178618 0.1932525
-0.3924016 0.0030851713 0.11870366 -0.62759334 0.23947404 0.6001145 0.45884964 -0.120674804
0.20475222 0.7232185 0.4818097 -0.0893477 -0.3580343 0.1891716 0.13862443 -0.45032895
-0.55699044 -0.19511658 0.32815352 -0.8798268 0.32533562 1.7675722 2.0325284 0.15092619
-0.04906455 1.4540344 1.7715526 -0.10481338 -0.6348836 0.094869085 0.5035885 -0.6908125
0.39134035 0.32192546 0.16308662 0.21636893 0.6476221 1.423784 1.3832321 0.48294413
0.14576541 0.4352027 -0.04156796 -0.11962513 0.14875868 0.1388319 -0.12531972 -0.30492878
-0.0047782753 0.05679493 -0.024718495 0.14207466 -0.07952215 -0.18970613 -0.14316864 -0.17527284
-0.37010792 -0.2631503 -0.13995664 -0.23018767 -0.21756786 -0.22539522 -0.019994428 -0.11186386
0.09811865 0.034655653 0.016414795 0.21240759 -0.02935448 -0.0043191276 0.011981538 0.09586166
0.16175245 0.23491731 0.07313957 0.18311125 -0.0060729375 0.09151285 0.079932794 0.047740202
-0.23489578 -0.13997017 -0.07734776 -0.32105806 0.031493615 0.03666454 0.053191837 -0.0912941
-0.06800177 -0.08796073 -0.045053117 -0.20422259 0.014859096 -0.047073133 -0.0016393367 -0.15306842
-0.6244597 -0.31847394 -0.5224253 -0.76358443 -0.5007297 -0.10401002 -0.35468426 -0.6689271
-0.61831397 -0.2836155 -0.4700597 -0.6997177 -0.4951387 -0.41426933 -0.5244301 -0.72593045
0.21344502 0.09994952 0.18173307 0.42050877 0.17025079 0.09778378 0.14813371 0.12069214
0.16859342 0.12089425 0.10216674 0.18024848 0.3066169 0.1442625 0.001256783 0.2005235
-0.5697657 -0.38660783 -0.17294337 -0.7543222 -0.42360178 -0.41884792 -0.22854945 -0.703991
-0.43280536 -0.6934277 -0.34967783 -0.61689526 -0.74050903 -0.73927283 -0.55365896 -0.85438156
-0.06954991 -0.027517285 0.41652423 -0.6123423 0.39924127 1.5800673 1.9856867 0.36303768
0.09603997 0.8974731 1.4370354 -0.16780508 -0.041333362 0.2927459 0.5770035 -0.365777
-0.32059792 -0.122714594 -0.18473227 -0.36828673 -0.25622237 -0.31997156 -0.3162083 -0.33967796
-0.23130056 -0.13744184 -0.050798092 -0.21863562 -0.34987754 -0.20478061 -0.24019517 -0.4190281
00000000: 8fc0 1bbf 423d 243c 4868 023d dcfc 33bf
00000010: a5ef bebe 8f2e 623f 37b1 193f 4d80 09bf
00000020: f1ee b9be 6fe4 6e3f 5676 743f f501 bbbe
00000030: 67ae 0bbf 471b 4bbc 52df ad3c 5ac7 46bf
00000040: bfe7 20bf 6663 12be 14b6 10be 04ec f3be
00000050: 1608 06bf bf02 663e 2429 94bd 5097 93be
00000060: 8493 2ebe 6202 043e fb15 593d 932b 87be
00000070: d62e 0abf 36ad 9fbe d359 d4be 7f9f 4abf
00000080: 2b93 01bf a6e3 87bd 55ae 9dbe 984d 36bf
00000090: 9650 d33d 1d4f ab3f 9772 5f3f 869c 9dbd
000000a0: 4cc2 abbe f0d2 4b3f 4665 83bc f0a8 bcbe
000000b0: 19a1 23bf 608a ea3a 0e58 03bf bd87 60bf
000000c0: d418 623e fb6a 983e 4e99 203e 84c1 b7bc
000000d0: b028 6c3e 6109 493e 3da6 183e 539c 963d
000000e0: d875 13bd c0b3 90bd 4572 dbbc b971 d5bd
000000f0: 4141 c6bd ab4a 08be f6d8 88bd b241 3bbe
00000100: 8ea9 3b3e 9a92 cb3d ebcf e33d 8841 f73d
00000110: 7c40 003e 2eae 243e 3bab 6c3e 2209 793e
00000120: 4923 a6bd 21e5 e1bd e001 b3bc b963 b23d
00000130: 01de 173e a1c3 d8bd e9aa 283d fce3 453e
00000140: dde8 c8be 9630 4a3b e81a f33d f5a9 20bf
00000150: af38 753e 1ba1 193f 57ee ea3e 5a24 f7bd
00000160: 91aa 513e d924 393f c3af f63e edfb b6bd
00000170: 4650 b7be 33b6 413e 90f3 0d3e 8491 e6be
00000180: ed96 0ebf a4cc 47be bd03 a83e 543c 61bf
00000190: 6492 a63e ce3f e23f f214 0240 658c 1a3e
000001a0: e9f7 48bd cd1d ba3f 3cc2 e23f 66a8 d6bd
000001b0: bb87 22bf b94a c23d 2deb 003f 17d9 30bf
000001c0: c35d c83e 6ad3 a43e 2e00 273e d18f 5d3e
000001d0: 90ca 253f 8e3e b63f c00d b13f 7444 f73e
000001e0: 8743 153e e3d2 de3e 2a43 2abd 05fe f4bd
000001f0: 3254 183e f329 0e3e d053 00be a01f 9cbe
00000200: 1493 9cbb cda1 683d 717e cabc 057c 113e
00000210: 82dc a2bd 5342 42be cd9a 12be b97a 33be
00000220: c97e bdbe a3bb 86be cb50 0fbe 51b6 6bbe
00000230: 1cca 5ebe 01ce 66be 5bcb a3bc e118 e5bd
00000240: 6ef2 c83d 16f3 0d3d 5278 863c 6081 593e
00000250: ce78 f0bc 7887 8dbb 364e 443c 1e53 c43d
00000260: 6fa2 253e 2a8e 703e 33ca 953d 8481 3b3e
00000270: 7eff c6bb 176b bb3d ceb3 a33d 3b8b 433d
00000280: 8588 70be 5754 0fbe 8168 9ebd b961 a4be
00000290: 73ff 003d 8f2d 163d afdf 593d 67f8 babd
000002a0: 8344 8bbd c124 b4bd 9e89 38bd ba1f 51be
000002b0: 9173 733c c2cf 40bd 03df d6ba f8bd 1cbe
000002c0: 97dc 1fbf 040f a3be aabd 05bf 457a 43bf
000002d0: d22f 00bf 3503 d5bd 2d99 b5be ce3e 2bbf
000002e0: d349 1ebf 0d36 91be aaab f0be b320 33bf
000002f0: d282 fdbe 1c1b d4be 0d41 06bf 94d6 39bf
00000300: 5591 5a3e 55b2 cc3d 3c18 3a3e ed4c d73e
00000310: 3956 2e3e dd42 c83d 5db0 173e 712d f73d
00000320: c1a3 2c3e 6897 f73d cc3c d13d 0f93 383e
00000330: e4fc 9c3e 8cb9 133e a4ba a43a 0856 4d3e
00000340: 2adc 11bf 76f1 c5be 1118 31be 421b 41bf
00000350: 55e2 d8be 3c73 d6be de08 6abe c138 34bf
00000360: aa98 ddbe 7a84 31bf f908 b3be d9ec 1dbf
00000370: 0092 3dbf fc40 3dbf 98bc 0dbf c0b8 5abf
00000380: 2f70 8ebd ee6b e1bc aa42 d53e 77c2 1cbf
00000390: 5a69 cc3e a53f ca3f fb2a fe3f 13e0 b93e
000003a0: 9bb0 c43d ccc0 653f c7f0 b73f 18d5 2bbe
000003b0: 2c4d 29bd cae2 953e 80b6 133f 1f47 bbbe
000003c0: 6925 a4be ca51 fbbd 752a 3dbe 1490 bcbe
000003d0: 942f 83be 50d3 a3be 0ee6 a1be 45ea adbe
000003e0: 0eda 6cbe 8ebd 0cbe a911 50bd 04e2 5fbe
000003f0: 2623 b3be 02b2 51be b9f5 75be da8a d6be

image_to_features.4.bias f4 [64]
0.40707392 -0.06210702 0.135504 -0.06298475 -0.048695285 0.16946204 -0.062754475 0.045235317
-0.1558951 0.26404917 0.30786905 0.6086376 0.32593608 -0.19330792 0.27299094 -0.15430667
-0.016330857 0.09145755 -0.22660948 0.12731743 -0.111532815 0.13691483 0.07887405 0.06364096
0.152617 0.0064778877 0.12133955 -0.20500314 -0.09660376 0.045213483 0.4009315 0.19251323
-0.12663865 0.5474077 -0.046036527 0.058978148 0.13053624 0.20999606 0.23590098 -0.081179835
-0.016886216 0.060869772 0.060093477 -0.0380627 -0.031003918 0.13775463 -0.012728935 0.09815189
0.6872929 0.0005416798 0.11671691 0.14390679 0.05973205 0.34236255 -0.07761987 0.2917098
0.11307647 0.16621475 0.4611232 0.48558268 0.17416382 0.1890287 -0.11693218 -0.060124863
00000000: fe6b d03e ee63 7ebd 90c1 0a3e 26fe 80bd
00000010: b574 47bd 7587 2d3e 6b85 80bd ab48 393d
00000020: f7a2 1fbe 7431 873e 03a1 9d3e accf 1b3f
00000030: 18e1 a63e 83f2 45be 78c5 8b3e 9102 1ebe
00000040: 4ac8 85bc 194e bb3d 510c 68be 805f 023e
00000050: 516b e4bd 6733 0c3e b888 a13d 3156 823d
00000060: a147 1c3e 7644 d43b df80 f83d 58ec 51be
00000070: 31d8 c5bd c631 393d e546 cd3e 3022 453e
00000080: 90ad 01be e922 0c3f cc90 3cbd 1293 713d
00000090: 4bab 053e 3509 573e 0790 713e 9d41 a6bd
000000a0: f654 8abc 9552 793d 9424 763d a2e7 1bbd
000000b0: eefb fdbc 8d0f 0d3e 068d 50bc dc03 c93d
000000c0: 6df2 2f3f 84ff 0d3a 4609 ef3d 4d5c 133e
000000d0: 98a9 743d 254a af3e 2bf7 9ebd fd5a 953e
000000e0: a394 e73d 3334 2a3e 5718 ec3e 4b9e f83e
000000f0: 0058 323e bd90 413e 247a efbd 7d45 76bd

image_to_features.6.weight f4 [128, 64, 4, 4]
0.009855965 0.008554222 0.034087818 -0.9900496 0.0036967725 0.048756406 0.07600619 0.018741362
0.046553753 -0.0798249 0.0193025 -0.04781928 -0.011239721 0.017054228 0.017385857 -0.033660192
0.092978306 -0.12046117 0.06611763 0.24135715 0.08556346 0.0309644 0.4289013 0.17412484
-0.09323566 0.20267014 -0.24633516 -0.10550387 -0.050342232 -0.014135767 -0.38807955 0.0057396856
0.11577392 0.1055673 0.01762622 0.74357545 0.032529913 -0.32972908 -0.0028561319 0.15449233
0.13057947 -0.18964486 -0.15880194 -0.12200043 -0.19580175 -0.16150783 -0.16036467 0.10229871
-0.14663254 -0.0038868329 0.18785356 1.3470787 -0.09626179 0.2621107 -0.1435654 -0.03347546
-0.068665825 0.04743845 -0.06543946 0.10539311 0.0388909 0.115942545 -0.17476694 -0.04564287
0.08865293 0.07116091 0.03511636 0.40933248 0.013776762 0.007885935 -0.12665041 -0.094862185
0.042542223 0.094194375 0.0925777 0.07566793 -0.035823002 -0.021021616 0.14928366 -0.20959412
0.11418546 0.08180022 -0.12855949 0.66767776 -0.045024417 -0.0015203996 -0.13178484 0.2707584
-0.057662286 0.17912512 0.03128501 -0.08512696 0.08121507 -0.00025571176 0.08757624 0.01120095
-0.18829603 -0.0618585 0.10242325 0.94235307 -0.023135697 0.2728722 -0.037999846 0.29255474
-0.32239848 0.0020190259 0.24529985 0.12815775 0.186048 -0.17522158 -0.026310518 -0.53622764
0.0647329 -0.085657336 0.1379755 -0.764797 -0.008982756 -0.1262015 0.06153686 0.37319043
0.15135905 -0.016742442 0.08663157 -0.12512691 0.030979864 0.07324966 -0.0068258066 -0.022020519
0.06355451 0.0076046004 -0.018814359 -0.13695477 -0.033676144 0.22829676 -0.03996288 0.11445076
-0.22479321 -0.15773228 -0.11414292 -0.20184341 -0.09355726 0.13736103 0.06570979 0.044119082
0.10756648 0.11176585 -0.016347814 0.66983485 -0.08146814 0.024964586 0.07898882 -0.067178726
-0.30976453 -0.014422458 -0.30686477 -0.20172381 -0.05173315 -0.17235294 -0.19742553 0.021941327
-0.080120206 -0.057885103 0.023081126 -0.57171386 -0.045579024 -0.05934335 -0.13674651 0.025778426
0.01631587 -0.043786902 -0.04355156 -0.071737714 -0.10987627 0.027911693 -0.013903047 0.058831085
-0.004860869 -0.0825537 -0.14123057 0.26047412 0.0034436774 0.016670104 -0.06456367 -0.0053086113
0.28849304 0.04927579 0.2257645 0.07298276 -0.022959614 -0.045951795 -0.13919087 -0.29313007
0.14276089 0.024337063 -0.04849887 -0.20063071 0.11108364 0.15907587 0.23905286 -0.14586566
-0.06692744 0.07511547 -0.103428304 -0.042877976 -0.14991884 -0.1605779 0.09731879 -0.16677165
0.031766176 -0.039694894 0.13871047 1.050475 0.1834434 0.16544764 -0.09678076 -0.06214267
0.20730758 0.24387044 -0.1466471 0.39747834 -0.07405364 0.30060357 -0.09118842 -0.07909044
-0.023498992 0.060919795 -0.08136072 -0.4278984 0.011757076 -0.003833712 0.15454067 0.048573613
0.083482176 -0.043403696 0.056374256 0.0771097 -0.09134687 0.10161495 0.065288916 0.04832745
-0.06732629 -0.0025455696 0.14203903 -0.634673 -0.15683942 0.18152219 -0.21734972 0.17248026
0.16614181 0.08220942 0.4061487 0.1331171 0.015197902 -0.0038507923 0.15516526 0.034262903
00000000: ea7a 213c 0227 0c3c ab9f 0b3d e473 7dbf
00000010: 8d45 723b ccb4 473d 22a9 9b3d 7c87 993c
00000020: 26af 3e3d 3d7b a3bd 4720 9e3c 26de 43bd
00000030: cf26 38bc 4fb5 8b3c c96c 8e3c 45df 09bd
00000040: 696b be3d 59b4 f6bd ae68 873d 5426 773e
00000050: e53b af3d 0ea9 fd3c f498 db3e c84d 323e
00000060: 56f2 bebd c388 4f3e 493f 7cbe 6a12 d8bd
00000070: a833 4ebd b499 67bc 5db2 c6be f913 bc3b
00000080: e11a ed3d ab33 d83d dd64 903c f65a 3e3f
00000090: 163e 053d 40d2 a8be f12d 3bbb 3d33 1e3e
000000a0: a0b6 053e 4332 42be fa9c 22be 5ddb f9bd
000000b0: 4180 48be 4f62 25be a336 24be fc81 d13d
000000c0: d726 16be 3cba 7ebb af5c 403e 136d ac3f
000000d0: e724 c5bd 6033 863e cf02 13be 901d 09bd
000000e0: aba0 8cbd d24e 423d 2005 86bd 58d8 d73d
000000f0: 104c 1f3d 4973 ed3d 1bf6 32be 05f4 3abd
00000100: ab8f b53d d0bc 913d 2cd6 0f3d 0794 d13e
00000110: eeb7 613c 0234 013c a5b0 01be 1b47 c2bd
00000120: c140 2e3d fbe8 c03d 6199 bd3d caf7 9a3d
00000130: 24bb 12bd 8635 acbc d1dd 183e d79f 56be
00000140: 11da e93d e086 a73d 19a5 03be eeec 2a3f
00000150: 866b 38bd 2548 c7ba 9bf2 06be d8a0 8a3e
00000160: 4a2f 6cbd 936c 373e b624 003d 0b57 aebd
00000170: 1654 a63d 0d11 86b9 2c5b b33d 3084 373c
00000180: add0 40be 575f 7dbd 48c3 d13d 0d3e 713f
00000190: 1387 bdbc e8b5 8b3e baa5 1bbd bcc9 953e
000001a0: 6a11 a5be a251 043b e22f 7b3e c93b 033e
000001b0: 5e83 3e3e 496d 33be 2889 d7bc 3746 09bf
000001c0: af92 843d 1d6d afbd 7349 0d3e bcc9 43bf
000001d0: 692c 13bc f73a 01be 130e 7c3d d112 bf3e
000001e0: defd 1a3e 7227 89bc e46b b13d 4521 00be
000001f0: 7cc9 fd3c eb03 963d 04ab dfbb 6064 b4bc
00000200: de28 823d 0330 f93b 9220 9abc df3d 0cbe
00000210: ffef 09bd a0c6 693e 1eb0 23bd 2965 ea3d
00000220: 3130 66be 9284 21be c3c3 e9bd 0ab0 4ebe
00000230: f39a bfbd 5fa8 0c3e db92 863d 36b6 343d
00000240: d14b dc3d 7ee5 e43d daeb 85bc 4c7a 2b3f
00000250: c5d8 a6bd 8882 cc3c e4c4 a13d 0095 89bd
00000260: 7599 9ebe 2c4c 6cbc 611d 9dbe b090 4ebe
00000270: 24e6 53bd 4a7d 30be eb29 4abe 4cbe b33c
00000280: 1016 a4bd ee18 6dbd a114 bd3c d75b 12bf
00000290: 12b1 3abd 0312 73bd 4707 0cbe 472d d33c
000002a0: dca8 853c e559 33bd 1f63 32bd 39eb 92bd
000002b0: cf06 e1bd 10a7 e43c 9bc9 63bc ddf8 703d
000002c0: ed47 9fbb ea11 a9bd bf9e 10be dd5c 853e
000002d0: 52af 613b be8f 883c f539 84bd dcf3 adbb
000002e0: 5cb5 933e 69d5 493d cf2e 673e fc77 953d
000002f0: cd15 bcbc f337 3cbd 0d88 0ebe 2515 96be
00000300: e92f 123e 855e c73c c0a6 46bd 2372 4dbe
00000310: d27f e33d c9e4 223e 46ca 743e cf5d 15be
00000320: 4111 89bd 24d6 993d 38d2 d3bd d1a0 2fbd
00000330: 5384 19be 886e 24be 134f c73d 30c6 2abe
00000340: 401d 023d 1d97 22bd 1e0a 0e3e f775 863f
00000350: 96d8 3b3e 1b6b 293e fe34 c6bd 5089 7ebd
00000360: 7048 543e 2cb9 793e a82a 16be 4882 cb3e
00000370: 6fa9 97bd b6e8 993e ffc0 babd 2bfa a1bd
00000380: f580 c0bc 0987 793d 73a0 a6bd 8015 dbbe
00000390: c0a0 403c 043f 7bbb e93f 1e3e 20f5 463d
000003a0: b4f8 aa3d 13c8 31bd b1e8 663d b1eb 9d3d
000003b0: 1114 bbbd 801b d03d 32b6 853d 01f3 453d
000003c0: 5ee2 89bd 92d3 26bb ae72 113e ee79 22bf
000003d0: 839a 20be f4e0 393e ed90 5ebe aa9e 303e
000003e0: 1421 2a3e 6a5d a83d b9f2 cf3e d94f 083e
000003f0: 9f00 793c 935d 7cbb a4e3 1e3e 4257 0c3d

image_to_features.6.bias f4 [128]
0.1840241 -0.044072676 -0.045095738 -0.15693201 -0.49359292 -0.3830052 -0.8241726 -1.1440897
-0.039260305 0.10496641 -0.21573891 -0.14352287 0.27468067 -0.2778635 0.98162967 -0.77721465
0.85512346 -0.5860745 0.38551837 0.41507444 -1.021825 0.004270362 -0.7373666 -0.21665521
-0.48812902 -0.66245943 0.44908255 0.6536573 0.8198295 -0.36321166 0.035611577 0.81701165
0.4780274 -0.34276915 0.10800848 0.29044682 -0.016297108 0.7974004 -0.75239724 0.95199263
-0.1837415 -0.49849287 1.1972263 -0.62422156 -0.6081603 -0.22760661 0.7306408 0.3663903
0.36210874 0.16735332 0.5340935 0.5200196 0.45741704 1.1674372 0.10810577 0.8755469
-0.5151261 -0.088089794 0.11870391 -0.71170175 -0.06425911 -0.82599664 -0.03827321 -0.046752885
-0.49980468 0.0823435 0.09236366 -0.5123701 1.0482686 0.014983549 -0.91021323 -0.0435338
-0.6031688 0.7777296 -0.13643909 0.8021722 0.40105438 0.7640985 0.15536432 0.22623704
-0.21489495 0.5408642 -0.50827086 0.67087346 0.6082967 0.39064106 0.59898347 -0.39116174
-1.0619324 0.60836715 0.33681652 -1.0355911 0.014702215 -0.72826236 0.43590403 0.0045155133
-0.09878494 -0.15966798 -0.87074435 -0.331134 0.44161582 -0.12791173 0.28578764 -0.72530043
0.004627177 -1.2224946 -0.6809959 0.5418002 -0.49081415 0.22086912 -0.21238646 -0.88345516
0.5774417 -0.8350119 -0.37356803 -0.29017368 1.2118102 1.0010049 -0.245529 0.023280557
0.2941844 0.8205082 -0.15017138 0.022456173 0.72141606 0.119670756 0.28378683 -0.7871677
00000000: d070 3c3e 8d85 34bd 4fb6 38bd c9b2 20be
00000010: 36b8 fcbe 4219 c4be fafc 52bf 8871 92bf
00000020: 6acf 20bd a1f8 d63d a9ea 5cbe a9f7 12be
00000030: f2a2 8c3e 2044 8ebe 154c 7b3f 8af7 46bf
00000040: 5fe9 5a3f fa08 16bf aa62 c53e a384 d43e
00000050: 29cb 82bf 65ee 8b3b 0fc4 3cbf ddda 5dbe
00000060: 0cec f9be f196 29bf 26ee e53e 1656 273f
00000070: 59e0 513f e1f6 b9be 72dd 113d ad27 513f
00000080: 02c0 f43e 707f afbe 8d33 dd3d 72b5 943e
00000090: 8381 85bc 6f22 4c3f 1b9d 40bf cab5 733f
000000a0: bb26 3cbe 753a ffbe b63e 993f fccc 1fbf
000000b0: 65b0 1bbf b511 69be 470b 3b3f 8297 bb3e
000000c0: 5166 b93e ab5e 2b3e 5aba 083f 0120 053f
000000d0: 9132 ea3e 956e 953f 8f66 dd3d d723 603f
000000e0: 4edf 03bf 6c68 b4bd 091b f33d 1632 36bf
000000f0: 489a 83bd 8474 53bf 5fc4 1cbd f47f 3fbd
00000100: 66e6 ffbe b5a3 a83d 2929 bd3d b02a 03bf
00000110: aa2d 863f 8f7d 753c bc03 69bf 7f50 32bd
00000120: 4569 1abf 4919 473f b0b6 0bbe 285b 4d3f
00000130: 0057 cd3e f69b 433f d317 1f3e afaa 673e
00000140: 6c0d 5cbe 1476 0a3f 0a1e 02bf 5dbe 2b3f
00000150: 55b9 1b3f 1b02 c83e fb56 193f 5a46 c8be
00000160: 67ed 87bf f3bd 1b3f 3773 ac3e 408e 84bf
00000170: 8fe1 703c 676f 3abf d02e df3e dff6 933b
00000180: c24f cabd 0180 23be 1ae9 5ebf 658a a9be
00000190: 781b e23e 4bfb 02be c252 923e 4aad 39bf
000001a0: 939f 973b b47a 9cbf bf55 2ebf 6bb3 0a3f
000001b0: fe4b fbbe 842b 623e d67b 59be 1e2a 62bf
000001c0: 38d3 133f 57c3 55bf 4f44 bfbe a591 94be
000001d0: 991c 9b3f ee20 803f f46b 7bbe deb6 be3c
000001e0: 569f 963e d30c 523f 87c6 19be 02f6 b73c
000001f0: b9ae 383f f115 f53d 824c 913e d383 49bf

features_to_prob.0.weight f4 [1, 512]
-1.3128633 -1.5252267 -0.94646037 1.8568006 -0.78727204 -0.83828783 -0.9114482 1.3536861
1.8514186 -1.6796602 -1.7508259 1.666642 0.8557883 1.3321782 0.9914523 -1.385499
0.54352087 0.76996034 1.2655232 0.6841401 1.0786701 -0.9181158 1.2721921 -1.8007016
0.3793834 1.8354597 1.4676746 0.31006396 1.794192 1.1620721 -1.3625076 1.019684
0.595925 -1.505809 -0.64188254 -1.4680488 -1.0913386 -0.7047662 -0.9271299 0.79791594
0.5071615 1.5588233 0.8327943 0.9657854 -1.0870359 2.0986514 -1.0003477 -1.5294504
1.1016308 1.4836471 -1.0507131 0.5005303 0.769068 -1.3082882 1.3597655 -2.026407
1.5794172 2.3846912 -0.4122277 -0.74116343 1.0117265 1.2547523 1.3184049 0.61191803
-0.44413576 -0.83862936 -1.0706363 2.2718027 1.0947298 1.1784134 0.9647152 0.46709633
2.572491 1.3781075 -1.5273458 -0.34117505 2.0758252 1.3389378 1.4780325 -0.3363403
-1.9735361 0.66746604 -2.4790459 1.1105287 0.8055092 0.93274164 0.2073317 -0.69394994
1.4047776 0.47676727 1.1752254 2.0362437 -2.260573 -2.3913288 0.70399827 -1.0149899
1.3603559 0.5201617 0.9757764 0.64971334 -2.3531399 1.2203513 -2.727696 -2.7321167
-1.2159269 -1.4403932 -1.7565846 1.6920241 -1.1270595 -1.1891953 -0.93466276 -0.69274694
-1.1326075 -1.3358977 -0.8563996 -2.6460922 -1.3435346 0.8024742 -1.8444688 -2.787956
-1.4871528 0.57817787 -0.9312538 1.1781788 -0.8328011 -2.0104837 -1.3352786 -1.4574478
-0.5277916 -0.8817465 -1.7931737 -0.6662785 -1.7822492 -1.3199269 -1.7514204 0.9092974
-1.632252 1.5448129 -1.6879243 1.8770052 0.74333334 1.1508154 -0.9400715 0.6597278
-1.2771066 1.7577522 -0.62323457 -2.1792746 -1.5650376 -0.82746005 -0.36514592 -1.1192702
1.6319034 0.54255295 0.61834306 1.0148126 1.9521554 -0.23506667 -1.6070418 -1.0756342
0.8093666 -0.92155474 2.288797 -0.7857058 1.3283356 1.5327159 -1.8649079 2.0145738
-1.5042173 1.1461104 -2.763915 -1.454568 1.1021063 0.545498 1.2693576 1.2830709
-1.4111103 0.86396736 -1.465223 1.9727925 -2.094903 1.7159822 -0.5297811 -2.0220165
0.7424404 -0.9358939 -0.67921126 -0.93698186 2.3815017 -1.2227502 0.92805696 1.7994184
-1.2147771 1.5254976 -1.1949835 -0.88633287 -2.2197142 -1.4866393 1.2614745 -1.0964082
-1.2151444 -0.588165 -1.575008 -0.38480797 2.051733 -1.6823362 -1.5537245 -1.2390046
1.6663764 1.9706644 -0.3748504 1.4220065 -1.0856217 2.685706 -1.4061127 2.3334122
1.0189431 1.1623049 -0.61927074 -0.7680156 1.342498 -0.2988957 -1.9381468 1.4675272
-1.9247798 -1.8264388 1.9478399 -2.3424485 1.4329789 0.9752466 -1.7098956 -1.3986032
-0.9645579 -2.7222598 -1.612736 1.6536871 1.9171637 0.50384337 1.4633504 1.2883108
-0.61770993 -0.551499 -1.1209399 0.944744 -1.6913035 -2.4869483 0.46353453 1.234258
-0.5596364 0.9019785 -0.7774383 -0.55145496 -1.4661279 0.48360023 0.35458934 0.3711544
00000000: e80b a8bf a13a c3bf 3a4b 72bf a4ab ed3f
00000010: a98a 49bf 089a 56bf ab54 69bf 9645 ad3f
00000020: 49fb ec3f 1bff d6bf 101b e0bf 8654 d53f
00000030: f114 5b3f d184 aa3f d1cf 7d3f 0858 b1bf
00000040: 2f24 0b3f 1f1c 453f aafc a13f ce23 2f3f
00000050: dd11 8a3f a309 6bbf 31d7 a23f 647d e6bf
00000060: 8a3e c23e 58f0 ea3f c3dc bb3f b4c0 9e3e
00000070: 15a8 e53f c7be 943f a666 aebf 0185 823f
00000080: 8a8e 183f 59be c0bf 6a52 24bf 06e9 bbbf
00000090: fcb0 8bbf 8f6b 34bf 6358 6dbf 3844 4c3f
000000a0: 56d5 013f 8687 c73f 0232 553f b63d 773f
000000b0: fe23 8bbf 4e50 0640 650b 80bf 08c5 c3bf
000000c0: 3d02 8d3f 26e8 bd3f c47d 86bf c122 003f
000000d0: a4e1 443f fd75 a7bf cc0c ae3f a7b0 01c0
000000e0: 582a ca3f c89e 1840 820f d3be e3bc 3dbf
000000f0: 4180 813f b99b a03f 7ec1 a83f a9a6 1c3f
00000100: c365 e3be 6ab0 56bf 9c0a 89bf 3765 1140
00000110: 1b20 8c3f 40d6 963f 93f7 763f 4027 ef3e
00000120: b1a3 2440 d465 b03f 1180 c3bf 7fae aebe
00000130: 52da 0440 5062 ab3f 2b30 bd3f cc34 acbe
00000140: d59c fcbf 0edf 2a3f b0a8 1ec0 ce25 8e3f
00000150: da35 4e3f 28c8 6e3f c34e 543e b4a6 31bf
00000160: c1cf b33f d71a f43e c96d 963f d151 0240
00000170: 3aad 10c0 880b 19c0 3b39 343f 30eb 81bf
00000180: 2420 ae3f 5129 053f 7bcc 793f 9d53 263f
00000190: d899 16c0 7934 9c3f 9292 2ec0 00db 2ec0
000001a0: 7ea3 9bbf ce5e b8bf c4d7 e0bf 3f94 d83f
000001b0: 7c43 90bf 8d37 98bf 0f46 6fbf dd57 31bf
000001c0: 48f9 90bf b2fe aabf 013d 5bbf 9359 29c0
000001d0: f1f8 abbf f36e 4d3f 8e17 ecbf df6d 32c0
000001e0: 065b bebf 7703 143f a666 6ebf 90ce 963f
000001f0: 7432 55bf c4ab 00c0 69ea aabf a68d babf
00000200: 5a1d 07bf 23ba 61bf b786 e5bf 3a91 2abf
00000210: be20 e4bf 5df3 a8bf 8b2e e0bf b7c7 683f
00000220: a2ed d0bf 6ebc c53f e70d d8bf b541 f03f
00000230: 184b 3e3f eb4d 933f 87a8 70bf ece3 283f
00000240: 3b78 a3bf 06fe e03f 4d8c 1fbf 3c79 0bc0
00000250: 2753 c8bf 6cd4 53bf 68f4 babe 3f44 8fbf
00000260: 36e2 d03f c0e4 0a3f bb4b 1e3f 61e5 813f
00000270: 3ae0 f93f 51b5 70be 8cb3 cdbf 62ae 89bf
00000280: a632 4f3f 03eb 6bbf a67b 1240 0424 49bf
00000290: e706 aa3f 0930 c43f 4db5 eebf c7ee 0040
000002a0: 318a c0bf bfb3 923f fce3 30c0 492f babf
000002b0: d211 8d3f c2a5 0b3f 4f7a a23f ab3b a43f
000002c0: 439f b4bf f72c 5d3f 6d8c bbbf 7784 fc3f
000002d0: e412 06c0 4ea5 db3f bc9f 07bf b868 01c0
000002e0: 9310 3e3f be96 6fbf cae0 2dbf 0bde 6fbf
000002f0: 866a 1840 1483 9cbf 2495 6d3f 5853 e63f
00000300: d17d 9bbf 8143 c33f 38f5 98bf b6e6 62bf
00000310: cc0f 0ec0 324a bebf ff77 a13f 1b57 8cbf
00000320: da89 9bbf fb91 16bf dd99 c9bf 8d05 c5be
00000330: 984f 0340 cb56 d7bf 72e0 c6bf b497 9ebf
00000340: d24b d53f bb3e fc3f 64ec bfbe 4f04 b63f
00000350: a7f5 8abf 9be2 2b40 80fb b3bf a056 1540
00000360: ba6c 823f 68c6 943f 8788 1ebf ac9c 44bf
00000370: f9d6 ab3f db08 99be 3215 f8bf eed7 bb3f
00000380: 2f5f f6bf bfc8 e9bf d152 f93f adea 15c0
00000390: da6b b73f c3a9 793f dcdd dabf 6e05 b3bf
000003a0: 44ed 76bf 8139 2ec0 226e cebf 05ac d33f
000003b0: 9f65 f53f e1fb 003f 114f bb3f 5ee7 a43f
000003c0: 3d22 1ebf 0a2f 0dbf f57a 8fbf beda 713f
000003d0: a27c d8bf 292a 1fc0 6654 ed3e 2bfc 9d3f
000003e0: 5544 0fbf 10e8 663f 3206 47bf 272c 0dbf
000003f0: 14aa bbbf 739a f73e bc8c b53e f307 be3e
