trained_models/WGANCPgenerator_epoch100.pth (torch, 909560 bytes, 22 tensors)

latent_to_features.0.weight f4 [512, 100]
0	0xbdbbbbb0	-0.09166658
1	0x3cd4a2eb	0.025956592
2	0xbd5a008f	-0.05322319
3	0xbcc599c0	-0.024121165
4	0x3d2022d6	0.039095722
5	0xbb5d847a	-0.0033800886
6	0x3c9c327b	0.01906704
7	0xbdbe8d51	-0.09304298
8	0xbd0ee187	-0.03488305
9	0xbda02eae	-0.078214034
10	0x3c4813b5	0.01221173
11	0x3daeff0b	0.08544739
12	0xbc09b7ac	-0.008405607
13	0xbc09e5fa	-0.008416647
14	0xbe09a48f	-0.1344168
15	0x3dd46a38	0.10371822
16	0x3e081674	0.13289815
17	0xbd611d08	-0.054959327
18	0xbe0a3b46	-0.13499174
19	0x3df37876	0.118882105
20	0xbe17425a	-0.14771405
21	0xbc08e892	-0.00835623
22	0x3cf97767	0.030452443
23	0x3d302e20	0.04301274
24	0xbd0ee35b	-0.03488479
25	0xbd1df41a	-0.03856287
26	0x3cc2c2ef	0.023774592
27	0x3e042035	0.12902911
28	0x3d8897b5	0.06669561
29	0x3de7ee51	0.11324752
30	0x3c746d60	0.014918655
31	0x3e18c459	0.1491865
32	0xbaf50b51	-0.0018695389
33	0x3d214acb	0.03937797
34	0x3e0bc374	0.13648778
35	0x3dee6560	0.116404295
36	0xbdc99d36	-0.09844439
37	0xbd83c9fe	-0.06435011
38	0xbd2b3300	-0.041796684
39	0x3947ded5	0.0001906113
40	0x3ca83178	0.020531401
41	0xbcc38fca	-0.023872275
42	0x3dccc55c	0.09998581
43	0xba2bb33f	-0.0006549842
44	0xbc01358c	-0.007886302
45	0x3d76044c	0.06006269
46	0x3dd44bec	0.103660434
47	0x3d6b52b3	0.057451915
48	0xbd1b925d	-0.03798138
49	0x3db57d9b	0.08861848
50	0x3caa6f51	0.020805033
51	0xba88fef1	-0.0010451955
52	0x3bfabb15	0.0076516964
53	0x3c8b55db	0.017008713
54	0x3d75057a	0.059819676
55	0xbd902182	-0.07037641
56	0x3e0173a4	0.1264177
57	0x3e442ccd	0.19157715
58	0xbbcb70a9	-0.0062084985
59	0x3c1c3094	0.009533066
60	0xbd8e83fc	-0.06958768
61	0xbcd70d0b	-0.026251337
62	0xbd00179f	-0.031272527
63	0xbd53e8ef	-0.051735815
64	0xbc8307ee	-0.015994992
65	0xbd38e3a7	-0.04513898
66	0x3debdeab	0.1151708
67	0xbd7e4a58	-0.06208262
68	0xbe1ae8ae	-0.15127823
69	0x3d41854e	0.04724627
70	0x3d4949cb	0.04914264
71	0xbcc02ff2	-0.023460362
72	0x39e8c422	0.0004439662
73	0x3e0b9954	0.13632709
74	0xbd329ef6	-0.04360863
75	0x3d57d4d2	0.052693196
76	0xbd06ac58	-0.032879204
77	0xbd84d690	-0.06486237
78	0xbd753712	-0.059866972
79	0xbc621786	-0.013799554
80	0xbdad90e4	-0.08474901
81	0xbe2f6c39	-0.17131127
82	0x3b9ae98e	0.004727549
83	0xbd15bd17	-0.036557283
84	0x3d68cfe5	0.05683889
85	0xbd32f1a1	-0.043687467
86	0xbd111532	-0.035420604
87	0x3da5de33	0.08099022
88	0xbd6983b9	-0.057010386
89	0xbce2be38	-0.027678594
90	0x3de63066	0.112397
91	0x3cd11a94	0.025525369
92	0x3e4ea31d	0.2017941
93	0xbd4636a0	-0.04839194
94	0x3e1a7f20	0.15087557
95	0x3d4e0c84	0.050304905
96	0xbdfb2c2b	-0.12264284
97	0xbcf3ae77	-0.029746277
98	0xbe6a14a3	-0.22859435
99	0xbcdbb059	-0.026817488
100	0x3e058363	0.13038401
101	0x3d47113f	0.04860043
102	0x3dc4eeb3	0.09615841
103	0x3c0c3c32	0.008559274
104	0x3e0d69f3	0.13809948
105	0x3e050d57	0.1299337
106	0xbcdcadb6	-0.0269383
107	0xbd68649d	-0.056736577
108	0xbcfa0f50	-0.03052488
109	0xbbd95ab2	-0.006633126
110	0x3cd68fc4	0.0261916
111	0x3ccd07a6	0.025028061
112	0xbcf7a10b	-0.030228158
113	0x3e2c1d46	0.16808042
114	0xbdb16c97	-0.0866329
115	0x3e11a138	0.14221656
116	0x3d9760bd	0.07391498
117	0x3e11af09	0.14226927
118	0xbe363914	-0.17795211
119	0xbe217e4e	-0.15770838
120	0xbde8a0a4	-0.11358765
121	0xbe5d2349	-0.21595491
122	0xbd9eb5dc	-0.07749531
123	0x3c83f484	0.016107805
124	0xbe2bba5f	-0.16770314
125	0xbdd02e58	-0.10165089
126	0xbd9b79ed	-0.07591615
127	0x3bb8b16e	0.0056363856
128	0x3d8e45a2	0.06946875
129	0xbda40fc1	-0.08010817
130	0xbd00cea4	-0.031447068
131	0x3e0cb510	0.13740945
132	0x3d947696	0.07249181
133	0x3d2e81a8	0.04260412
134	0xbced8069	-0.028991895
135	0x3e0cfac5	0.13767536
136	0xbd013ab1	-0.031550113
137	0x3d96bda5	0.073603906
138	0x3d93652d	0.07197032
139	0xbcdc366b	-0.026881417
140	0xbde7d505	-0.11319927
141	0x3cfdb9b2	0.030972335
142	0x3d405c67	0.04696312
143	0xbd53b260	-0.051683784
144	0x39b73329	0.00034942597
145	0x3da6fb81	0.08153439
146	0x3e4fd8ce	0.20297548
147	0x3d7c2889	0.061562095
148	0xbdae6b1b	-0.085165225
149	0x36e3d59c	6.7899946e-06
150	0x3c294aba	0.010332758
151	0xbda540cc	-0.08069
152	0xbdcef8c9	-0.10106046
153	0x3d947761	0.07249332
154	0xbc47d15b	-0.01219591
155	0xbd3fb545	-0.04680373
156	0xbc8d279d	-0.017230803
157	0xbdec30c4	-0.11532739
158	0x3d3d0ecf	0.0461567
159	0x3e2e4346	0.1701785
160	0x3a61d6f7	0.0008615101
161	0xbe2da20e	-0.1695635
162	0xbd967c31	-0.073479064
163	0xbd6985e1	-0.057012442
164	0xbe0527fd	-0.13003536
165	0x3da812ff	0.08206748
166	0x3cefbd34	0.029265024
167	0xbe322018	-0.17395055
168	0xbd33c68f	-0.043890532
169	0xbe0a95e2	-0.13533738
170	0x3d23c838	0.039985865
171	0x3dcd580a	0.10026558
172	0xbca62eb4	-0.020285942
173	0x3df0ac4d	0.11751614
174	0xbe459b39	-0.19297494
175	0x3ccf381d	0.025295312
176	0xbe14a47e	-0.14515874
177	0x3dc43146	0.09579711
178	0xbdb1463e	-0.08655976
179	0x3d5d1496	0.05397471
180	0xbcfad74d	-0.030620242
181	0xbe0e1098	-0.13873518
182	0xbc7cfad2	-0.01544066
183	0xbe1e323b	-0.15448849
184	0xbd9f9749	-0.07792527
185	0xbc78ae51	-0.015178279
186	0x3db0d748	0.08634812
187	0xbdb825d0	-0.08991587
188	0xbd3094e5	-0.043110747
189	0x3d704f02	0.058669098
190	0x3d14f69f	0.03636801
191	0x3caa7adc	0.020810537
192	0x3e31a4b9	0.17347993
193	0xbdf5a6b4	-0.11994687
194	0xbdeaff5f	-0.114744894
195	0xbdbd095a	-0.09230299
196	0xbe116674	-0.14199239
197	0xbda075c8	-0.07834965
198	0xbd9a7805	-0.07542423
199	0xbd0021f3	-0.031282376
200	0xbe5a290a	-0.21304718
201	0x3d8310d8	0.06399697
202	0x3e23ab3a	0.15983286
203	0xbd0c5832	-0.034263797
204	0xbcdcbf34	-0.026946642
205	0x3dd494af	0.10379922
206	0x3de45702	0.11149408
207	0xbe2607b9	-0.16213883
208	0xbdbba1df	-0.09161734
209	0x3d9afe70	0.07568061
210	0x3d9fa3f2	0.07794942
211	0x3d395ced	0.045254637
212	0xbbbd44e6	-0.0057760356
213	0x3dced66c	0.100994915
214	0xbda58d12	-0.08083548
215	0x3e08922b	0.13337009
216	0x3d354690	0.044256747
217	0x3c57700d	0.013149274
218	0xbd8abc4e	-0.067741975
219	0xbbc2e012	-0.0059471214
220	0x3d9eb8de	0.07750104
221	0x3e47d728	0.1951567
222	0x3ca3f875	0.020015934
223	0xbe062549	-0.1310016
224	0x3d6e0051	0.05810577
225	0xbcc97349	-0.024591105
226	0x3bcd890f	0.006272442
227	0x3d39902e	0.045303516
228	0x3d2a71b9	0.04161236
229	0x3e42adca	0.19011608
230	0x3dbad05e	0.09121774
231	0xbc855bf4	-0.016279198
232	0x3ca8d996	0.020611566
233	0xbdb2e46a	-0.08734973
234	0x3d9476aa	0.07249196
235	0x3d90a5ac	0.070628494
236	0xbd3548d8	-0.044258922
237	0x3d39ce6e	0.045362882
238	0xbd8202cf	-0.06348192
239	0xbd395009	-0.045242343
240	0xbdfd53fd	-0.12369535
241	0x3daaa7d2	0.083327904
242	0xbc20c871	-0.009813414
243	0x3d146347	0.03622749
244	0xbe09a4cb	-0.1344177
245	0xbec88591	-0.39164403
246	0x3e1d3281	0.15351297
247	0xbd9985d0	-0.07496226
248	0xbd1611ef	-0.036638197
249	0xbdaa92ec	-0.083288044
250	0x3d899d20	0.06719422
251	0xbcc78be2	-0.024358694
252	0x3d7dc908	0.061959296
253	0xbe60e9c2	-0.21964172
254	0xbc214095	-0.009842058
255	0xbd4eb0a6	-0.050461434

latent_to_features.0.bias f4 [512]
0	0xbe911f75	-0.28344312
1	0xbbf0c87c	-0.0073481183
2	0x3dba33f1	0.09091938
3	0x3c828acd	0.015935326
4	0xbb38f80d	-0.0028224022
5	0xbe736a12	-0.23770931
6	0xbdf76127	-0.12079077
7	0xbdf6d94b	-0.12053164
8	0x3dcf345c	0.10117409
9	0xbd4b85a6	-0.049688004
10	0x3d5d3072	0.05400128
11	0xbded6ddb	-0.11593219
12	0xbe49f973	-0.19724064
13	0xbe689420	-0.22712755
14	0xbdf397ff	-0.11894225
15	0x3cad1934	0.021130182
16	0xbdc21c68	-0.09478074
17	0xbdc65adf	-0.09685301
18	0xbde31151	-0.11087287
19	0xbe1fb768	-0.15597308
20	0x3cf4821c	0.029847197
21	0x3e648708	0.22317135
22	0x3ccf71a5	0.025322745
23	0x3d4fbaf1	0.05071539
24	0x3cd89865	0.026439855
25	0x3d4ac185	0.04950096
26	0xbddcd1e4	-0.10782221
27	0xbe26942d	-0.16267462
28	0xbd7f7540	-0.062367678
29	0xbe3a7adb	-0.18210928
30	0xbcd66040	-0.026168942
31	0xbdab74ed	-0.08371911
32	0xbe342404	-0.17591864
33	0xbdcfc379	-0.10144705
34	0xbe369087	-0.1782857
35	0xbe8575ca	-0.26066428
36	0xbce4743a	-0.027887452
37	0xbd624a1c	-0.055246457
38	0x3cfa4e00	0.030554771
39	0xbe4329d8	-0.19058931
40	0xbdd4ea6f	-0.10396277
41	0xbe7d0e3a	-0.24712458
42	0xbdc6f327	-0.097143464
43	0xbdc0c4ee	-0.09412561
44	0x3e403398	0.18769681
45	0x3e3d674c	0.18496436
46	0x3cff7ff0	0.031188935
47	0x3d9e029b	0.07715341
48	0xbe020665	-0.12697752
49	0xbe7ba89c	-0.24576038
50	0xbe225094	-0.1585105
51	0xbdc1b6cf	-0.09458696
52	0xbde7daed	-0.11321054
53	0xbde8aa56	-0.11360614
54	0xbd39e555	-0.045384724
55	0xbe801b06	-0.25020617
56	0xbdcf6164	-0.10125998
57	0xbdf453e5	-0.11930064
58	0xbc834625	-0.016024658
59	0xbc5c22d7	-0.013436041
60	0xbd4a7734	-0.049430087
61	0x3d296fb8	0.04136631
62	0xbd91db22	-0.071218744
63	0x3d80732a	0.06271966
64	0xbdc9e5bc	-0.098582715
65	0xbe6642fe	-0.22486493
66	0xbe01167d	-0.12606235
67	0xbe198c0e	-0.14994833
68	0xbd05af9f	-0.03263819
69	0xbe20dee7	-0.1571003
70	0xbd95d742	-0.07316448
71	0xbe8114a6	-0.25211066
72	0xbe6286d9	-0.22121753
73	0x3d103aba	0.035212256
74	0xbe058f47	-0.13042937
75	0xbded9fe3	-0.116027616
76	0x3d8db82e	0.06919895
77	0xbd953ff2	-0.07287587
78	0x3d7cc6c2	0.061712988
79	0xbd9c3294	-0.076268345
80	0x3d5e575b	0.054282527
81	0xbe295990	-0.16538072
82	0xbdbadc07	-0.09123998
83	0xbda4e20e	-0.08050929
84	0xbdfbaabf	-0.122884266
85	0x3d92b72f	0.07163846
86	0xbc9064d8	-0.017626211
87	0xbe3f9d22	-0.18712285
88	0xbd7357b0	-0.059409797
89	0x3c82896a	0.015934665
90	0x3d0d6418	0.034519285
91	0x3d12dcb9	0.03585503
92	0xbe64e112	-0.22351483
93	0xbd9325eb	-0.07184967
94	0xbd14ff4b	-0.03637628
95	0xbe937791	-0.2880216
96	0xbe1c9178	-0.15289867
97	0xbe11832f	-0.14210199
98	0xbe3c3872	-0.18380907
99	0x3d28f9a6	0.04125371
100	0x3de0e9c5	0.10982088
101	0x3d7fa921	0.062417153
102	0xbe7ff914	-0.2499736
103	0xbddc389e	-0.10752986
104	0xb9e43d5b	-0.00043533262
105	0xbd4d981d	-0.050193895
106	0xbe4a2aef	-0.1974294
107	0xbd9e2c58	-0.07723302
108	0x3d081010	0.033218443
109	0x3d852486	0.06501107
110	0xbdc03d4a	-0.0938669
111	0xbe2e6434	-0.17030412
112	0xbc669f0b	-0.014076005
113	0xbe43473c	-0.19070143
114	0xbda74b15	-0.08168618
115	0x3d5f8f2c	0.0545799
116	0xbe2a24ba	-0.16615573
117	0xbe5bb1ab	-0.21454494
118	0xbe808e29	-0.2510846
119	0xbe3f6431	-0.18690564
120	0xbdd50305	-0.104009666
121	0xbe28e352	-0.16492966
122	0xbd0d61c8	-0.03451708
123	0xbe27ff92	-0.16406086
124	0xbe353c66	-0.17698821
125	0xbe22dfa4	-0.15905625
126	0xbe663e86	-0.22484788
127	0xbcc4008a	-0.023926038
128	0xbd4cfd3e	-0.050046198
129	0xbe13e8b8	-0.14444244
130	0xbd2fa705	-0.04288389
131	0xbe22e7a6	-0.1590868
132	0xbe6a4418	-0.22877538
133	0xbd208b83	-0.03919555
134	0xbd06b204	-0.032884613
135	0xbe568aec	-0.20951432
136	0xbc07cff9	-0.008289331
137	0x3db0e564	0.08637503
138	0x3ddfdcbc	0.109307736
139	0xbd798fd5	-0.060928185
140	0xbd827a2d	-0.063709594
141	0xbe0f9b36	-0.14024052
142	0xbe1abbd5	-0.15110715
143	0xbe10174c	-0.14071387
144	0xbe67dd35	-0.22642978
145	0xbd90443f	-0.07044267
146	0xbd913686	-0.07090478
147	0xbe16f0de	-0.14740321
148	0xbd001d48	-0.031277925
149	0xbda65114	-0.08120933
150	0xbd30eb6c	-0.043193266
151	0xbe123c6e	-0.14280865
152	0x3d946bf6	0.072471544
153	0xbdd0ec04	-0.102012664
154	0xbe38ed8a	-0.18059364
155	0xbe09f538	-0.1347245
156	0xbe1d0728	-0.15334761
157	0xbdb69073	-0.0891427
158	0x3d5c8859	0.05384097
159	0xbd887cd1	-0.06664432
160	0x3da3221e	0.07965492
161	0x3d2ff2ef	0.04295629
162	0xbcbd6b07	-0.023122324
163	0x3df99fe7	0.12188702
164	0xbdde558c	-0.108561605
165	0x3d740c0b	0.059581798
166	0xbe161cce	-0.14659426
167	0xbe0c5c3a	-0.13707057
168	0xbe06ef2c	-0.13177174
169	0xbd609509	-0.05482963
170	0xbc8b6e5b	-0.017020395
171	0x3d3b4145	0.045716543
172	0xbe839db7	-0.25706264
173	0xbd9ed446	-0.07755332
174	0xbca0d316	-0.019631904
175	0xbe78b037	-0.2428597
176	0xbc73ac9f	-0.014872699
177	0xbdb02552	-0.08600868
178	0xbd45e3c2	-0.04831291
179	0xbe226f13	-0.15862684
180	0xbdba4ea6	-0.09097032
181	0xbdad0a76	-0.08449261
182	0xbd52dd57	-0.051480617
183	0xbdb21694	-0.08695713
184	0xbe11d984	-0.14243132
185	0xbd1069fb	-0.03525732
186	0x3ceae5bf	0.028674005
187	0xbb8d28df	-0.0043078507
188	0x3d9d2bc9	0.07674367
189	0xbdf58d29	-0.11989815
190	0xbe34d483	-0.17659192
191	0xbe7ce310	-0.24695992
192	0xbe430671	-0.19045426
193	0xbdc6baf3	-0.097036265
194	0xbe0b58c5	-0.13608082
195	0xbe03e24c	-0.12879294
196	0xbdbd00f4	-0.092286974
197	0xbdc7bbe8	-0.09752637
198	0xbe095231	-0.1341026
199	0xbe0e08e7	-0.13870583
200	0xbe504474	-0.20338613
201	0x3cd16d9d	0.025564963
202	0xbe120f03	-0.14263539
203	0xbe367a93	-0.17820196
204	0xbe5acf75	-0.21368201
205	0x3cce59e5	0.02518935
206	0xbdc0b983	-0.094103836
207	0x3d9ff740	0.07810831
208	0x3d4c46bf	0.049872156
209	0x3d72b875	0.059257943
210	0xbd84d3e3	-0.06485727
211	0xbaaca7cf	-0.001317257
212	0xbe9d72a8	-0.30751538
213	0xbe19023b	-0.14942257
214	0xba1f1b0a	-0.0006069398
215	0xbdea27fd	-0.114334084
216	0xbdf814ca	-0.1211334
217	0xbe23837e	-0.15968129
218	0xbd897474	-0.06711665
219	0xbea039ff	-0.31294248
220	0xbe2f64e9	-0.17128338
221	0x3cee7007	0.029106153
222	0xbd0182c7	-0.03161886
223	0xbdf6e8c2	-0.12056114
224	0xbdfeb38f	-0.12436592
225	0xbd7917af	-0.060813602
226	0xbe3d81c1	-0.18506528
227	0xbd917763	-0.07102849
228	0x3de7d13a	0.11319204
229	0xbe4cf6db	-0.20016043
230	0xbe2fe793	-0.17178182
231	0xbe0ef21a	-0.13959542
232	0x3c66c893	0.014085907
233	0xbe665a8a	-0.22495475
234	0x3d703e8e	0.058653407
235	0xbd179f4d	-0.037017155
236	0xbd844d00	-0.06459999
237	0xbe65819e	-0.22412726
238	0xbd8ed7c0	-0.06974745
239	0xbea44b0f	-0.32088515
240	0x3dd2be1a	0.10290165
241	0xbd772693	-0.06033952
242	0x3e12d2cd	0.14338227
243	0xbdb20fa3	-0.08694389
244	0xbe1f0499	-0.15529098
245	0xbe21eff8	-0.15814197
246	0xbc5990bc	-0.013279136
247	0xbe5a20bc	-0.2130155
248	0x3ba18003	0.0049285903
249	0xbd3b3625	-0.045705933
250	0xbdbd9911	-0.09257711
251	0xbdb5e015	-0.08880631
252	0x3df3b6b3	0.119000815
253	0xbda0da04	-0.07854083
254	0xbd5046d9	-0.050848816
255	0xbd2819f2	-0.04104037

features_to_image.0.weight f4 [128, 64, 4, 4]
0	0xbbba3955	-0.005683104
1	0xbe1d7947	-0.15378295
2	0xbc0555ce	-0.008138133
3	0xbc6a02c3	-0.014282885
4	0xbd1b4dba	-0.037915923
5	0x3ca49053	0.02008835
6	0x3ca1fe69	0.019774633
7	0xbb9f48b2	-0.004860961
8	0x3b3c77f5	0.0028758023
9	0xbe0cd741	-0.13753988
10	0xbc89b156	-0.016808193
11	0xbdd5625c	-0.10419151
12	0xbc61533a	-0.013752753
13	0xbd68322c	-0.056688473
14	0xbc8707d4	-0.016483225
15	0x3bf06cbf	0.0073371823
16	0x3d79ba50	0.060968697
17	0xbc18b900	-0.009321451
18	0xbd917c78	-0.07103819
19	0xbce3b8e8	-0.027798131
20	0xbdd38731	-0.1032852
21	0xbc91d448	-0.017801419
22	0xbda76b94	-0.08174816
23	0xbc837571	-0.016047211
24	0x3c6a8557	0.014314017
25	0xbd27de0c	-0.040983245
26	0xbbbbdb23	-0.0057329102
27	0xbd547eaa	-0.05187861
28	0xbd1d9084	-0.0384679
29	0xbc4f81a1	-0.012665183
30	0x3da22518	0.07917231
31	0xbcf1e157	-0.029526396
32	0xbd055cdc	-0.03255926
33	0xba9adc72	-0.0011814965
34	0xbccc661b	-0.024951031
35	0xbd05c780	-0.03266096
36	0xbdea6001	-0.114440925
37	0xbd05a2b5	-0.032625873
38	0xbdbb6a59	-0.091511436
39	0xb9094bb9	-0.00013093547
40	0x3d14d2f1	0.036333982
41	0x3a8dce77	0.0010818978
42	0xbd89f667	-0.06736451
43	0xbc71f495	-0.014767786
44	0x3db5ea73	0.08882608
45	0xbc4d4e62	-0.012530895
46	0xbbbcdde3	-0.0057637556
47	0x3b3f16df	0.002915792
48	0x3dd3b0ca	0.10336454
49	0xbd75b544	-0.05998732
50	0xbd90972f	-0.07060086
51	0xbd8f05e4	-0.069835454
52	0x3d779a7f	0.060450073
53	0x3cb1835c	0.021669082
54	0x3d7e56d9	0.062094543
55	0xbdc52c0a	-0.096275404
56	0x3d46acbc	0.048504576
57	0xbe06d910	-0.1316874
58	0xbd13cfb8	-0.036086768
59	0xbc487214	-0.01223423
60	0xbd1377f1	-0.036003057
61	0xb99ae716	-0.0002954534
62	0xbd2f384f	-0.04277831
63	0xbdf8b00b	-0.121429525
64	0x3c8c8f14	0.017158069
65	0xbcf2385a	-0.029567886
66	0x3c8d95fb	0.01728343
67	0xbda32096	-0.079652
68	0xbc6d05cc	-0.014466714
69	0x3c737f53	0.014861899
70	0xbd1e6147	-0.03866699
71	0xbbf59a0d	-0.007495171
72	0x3b28d185	0.002575965
73	0x3b249682	0.0025114124
74	0x3c6576ad	0.014005345
75	0x3b4bf3cf	0.0031120663
76	0xbb03b520	-0.0020096973
77	0xbe212181	-0.15735437
78	0xbca9959f	-0.020701228
79	0xbdbb8bb3	-0.09157505
80	0xbc8505a5	-0.016238043
81	0x3b72bd4d	0.0037039102
82	0x3b3529a1	0.002764322
83	0x3c340e88	0.010989793
84	0xbdacb879	-0.08433623
85	0x3dc74dfc	0.09731671
86	0x3df45afc	0.119314164
87	0xbb2ef3ed	-0.0026695684
88	0x3c0aca6b	0.008471112
89	0xbcd6a32b	-0.026200851
90	0xbc7241ed	-0.014786226
91	0xbd351505	-0.0442095
92	0xbcc94f6a	-0.024574
93	0xbd5b362d	-0.053518463
94	0xbda0fe9a	-0.078610614
95	0xbbe192b4	-0.0068839435
96	0xbd15a538	-0.036534518
97	0xbdc1b319	-0.09457988
98	0xbd6e2f98	-0.058150858
99	0xbdb9451d	-0.090463854
100	0xbdb5150d	-0.08841906
101	0xbcccf8d5	-0.025020996
102	0xbdf14086	-0.11779885
103	0x3c7096a8	0.014684357
104	0xbd7f6c7b	-0.062359314
105	0xbda61514	-0.08109489
106	0xbd8c8c3a	-0.068626836
107	0xbda61cc1	-0.08110953
108	0xbe0bc4ee	-0.13649341
109	0xbcfb70a2	-0.030693356
110	0xbd2c15f3	-0.04201312
111	0x3b7aa214	0.0038243579
112	0x3d34c33d	0.044131506
113	0xbc2dab44	-0.010599915
114	0xbd562eb7	-0.052290644
115	0xbdb8588c	-0.09001264
116	0xbe0001d0	-0.12500691
117	0xbd8c5235	-0.06851617
118	0xbbba7c78	-0.0056911074
119	0xbe5e137f	-0.21687125
120	0x3c1e266f	0.009652718
121	0xbe4f252f	-0.20229028
122	0xbcc1380e	-0.0235863
123	0x3d03c3d3	0.032169174
124	0x3ce41ed1	0.027846726
125	0xbe1103aa	-0.14161554
126	0xba9b86ae	-0.0011865699
127	0xbdbc28ed	-0.091874935
128	0xbccb88c6	-0.024845492
129	0xbd07f6fe	-0.033194534
130	0xbcd58468	-0.026064113
131	0x3d01c359	0.03168044
132	0xbcc0133f	-0.023446677
133	0xbcda2306	-0.026628029
134	0xbca36100	-0.019943714
135	0x3d63fc14	0.055660322
136	0xbc6227b2	-0.013803409
137	0xbdf529f4	-0.119708925
138	0x3bee56c8	0.0072735287
139	0xbe0d49ac	-0.13797635
140	0xbcaa73e2	-0.02080721
141	0x3c0ea1f3	0.008705604
142	0xbbcdbeaa	-0.0062788324
143	0xb9c2f7b6	-0.00037187123
144	0xbc0d60a5	-0.008628999
145	0x3e1284b9	0.14308442
146	0xbd383014	-0.044967726
147	0x3d07f9d7	0.03319725
148	0xbdc18c51	-0.09450591
149	0x3c1792a6	0.009251272
150	0xbcf4eaf9	-0.0298972
151	0xbc4d0ea5	-0.012515699
152	0xbde95746	-0.11393599
153	0xbd69cc2e	-0.057079487
154	0x3d268c1c	0.040660962
155	0x3cacb335	0.021081546
156	0xbd2d3bfd	-0.042293537
157	0xbcf62512	-0.030046973
158	0xbd5273b9	-0.051379893
159	0xbbcd37fc	-0.0062627774
160	0xbd707276	-0.05870291
161	0x3b437ae1	0.002982788
162	0xbe021cfb	-0.12706368
163	0xbcf8dfa0	-0.03038007
164	0xbd4183f0	-0.047244966
165	0xbd556d66	-0.052106284
166	0xbd562b33	-0.05228729
167	0xbe00a9fd	-0.12564845
168	0xbd3c1218	-0.045915693
169	0xb9790121	-0.00023746911
170	0xbc2202ef	-0.009888395
171	0xbc3c0af9	-0.011477225
172	0xbd832a37	-0.06404536
173	0x3b408da7	0.0029381306
174	0x3d22022b	0.03955285
175	0x3d28f36c	0.04124777
176	0x3c855387	0.01627518
177	0xbdcc9d46	-0.09990935
178	0xbd0aa356	-0.033847176
179	0xbe02f336	-0.1278809
180	0xbd8f7c52	-0.07006134
181	0xbc49dcc8	-0.012320705
182	0x3db7dafd	0.089773156
183	0x3b9dc24e	0.0048144227
184	0x3d39de89	0.04537824
185	0xbd4fc102	-0.050721176
186	0xbbef972f	-0.0073117237
187	0xbe463fe4	-0.1936031
188	0x3c25f108	0.010128267
189	0x3ba44cb5	0.005014027
190	0x3d435b6b	0.047694605
191	0x3bb29298	0.0054496042
192	0x3dd8a807	0.10578924
193	0xb981a01e	-0.00024724094
194	0x3cc21015	0.02368931
195	0x3b928024	0.004470842
196	0xbc4be7f3	-0.012445438
197	0xbd8e15f7	-0.06937783
198	0xbcc746ba	-0.024325717
199	0x3d8a7871	0.067612536
200	0xbcf830ab	-0.030296644
201	0xbd19b502	-0.037526138
202	0x3be15087	0.0068760547
203	0x3d2ac770	0.041694105
204	0x3db5371e	0.088484034
205	0x3d8888a2	0.06666686
206	0xbbd87207	-0.00660539
207	0xbd2d75e0	-0.042348742
208	0x3d85592e	0.0651115
209	0x3c339cbc	0.010962661
210	0xbcc1208a	-0.023575086
211	0xbc225521	-0.009907992
212	0xbaeabcb3	-0.001790902
213	0x3d1eec95	0.03879984
214	0x3d75f27c	0.060045704
215	0x3aa52eeb	0.0012602484
216	0xbc041c50	-0.008063391
217	0xbbc342e8	-0.0059589036
218	0xbc075962	-0.008261057
219	0x3c5d1ae6	0.013495183
220	0x3deabf4a	0.11462267
221	0xbcff0e96	-0.031134885
222	0x3d03fcbb	0.032223444
223	0x3c2bd496	0.010487696
224	0x3d8f3378	0.06992239
225	0x3c3f0f2e	0.011661334
226	0x3da538bc	0.08067462
227	0xbc32c077	-0.010910145
228	0x3d060bbc	0.032726035
229	0xbd33250e	-0.04373651
230	0xbd5f6add	-0.054545272
231	0xbc93293c	-0.017963998
232	0x3d1b902d	0.037979294
233	0xbbe3e3a4	-0.006954627
234	0xbd86e173	-0.0658597
235	0x3cc7b2bb	0.024377218
236	0xbe621a83	-0.22080426
237	0xbcaf2aeb	-0.02138277
238	0x3dc6fee4	0.09716585
239	0xbd08cbd7	-0.03339752
240	0xbd8af0d2	-0.06784214
241	0xbd71e5a2	-0.059056886
242	0x3d364a69	0.044504557
243	0xbdbe4201	-0.09289933
244	0x3dea134f	0.11429464
245	0x3c8c1f11	0.017104657
246	0xbcea75f7	-0.028620703
247	0x3d22a1bd	0.039705027
248	0x3db3bb7e	0.08775996
249	0x3d973238	0.07382625
250	0x3c481bf3	0.012213695
251	0x3dc28ee8	0.094999135
252	0xbc385130	-0.011249825
253	0x3db40384	0.08789733
254	0x3d5bd7c1	0.053672556
255	0x3a400739	0.0007325295

features_to_image.0.bias f4 [64]
0	0xbd199e7d	-0.03750466
1	0x3dfe142b	0.124061905
2	0xbe1512a3	-0.1455789
3	0xbe19862d	-0.1499259
4	0xbdb57540	-0.08860254
5	0xbdb7c669	-0.089733906
6	0xbd3e75e6	-0.046499155
7	0xbc964b42	-0.018346433
8	0xbb6065e0	-0.003424041
9	0xbda094ff	-0.07840919
10	0xbd279b67	-0.040919688
11	0xbd3e3f62	-0.046447165
12	0x3defe6e4	0.11713961
13	0xbe0b1a3e	-0.1358423
14	0x39d22991	0.0004008529
15	0x3de14ad0	0.110005975
16	0xbd07ebaa	-0.03318373
17	0xbe192b00	-0.1495781
18	0xbccac9b7	-0.024754388
19	0x3ac78c13	0.001522424
20	0xbdfda806	-0.123855636
21	0x3dc04e63	0.09389951
22	0xbdb2ccf9	-0.08730502
23	0x3dc4b7a8	0.09605342
24	0xbd098bf2	-0.033580728
25	0x3e3e1788	0.18563664
26	0xbe11bc63	-0.1423202
27	0xbe1e3c95	-0.15452798
28	0x3d776d04	0.0604067
29	0x3c80055f	0.015627561
30	0xba96069a	-0.0011446059
31	0xbdd1f428	-0.10251647
32	0x3dd14273	0.10217752
33	0x3dc7f0e8	0.09762746
34	0xbd813367	-0.06308632
35	0xbdbb0f0e	-0.09133731
36	0x3d33d6cf	0.04390603
37	0x3d35e56e	0.044408254
38	0x3cde45d4	0.027132906
39	0xbdacdb63	-0.08440282
40	0x3cf91a51	0.030408056
41	0x3e3cbbf7	0.18431078
42	0xbe000279	-0.12500943
43	0x3d5d8e8c	0.05409102
44	0x3e50f505	0.20405968
45	0xbd6f689b	-0.05844937
46	0xbe15f358	-0.1464361
47	0xbcd0e985	-0.025501976
48	0xbcb0520a	-0.021523494
49	0xbd1aa197	-0.03775176
50	0xbded2ac6	-0.11580424
51	0xbc2bdac7	-0.010489172
52	0xbd9f3749	-0.07774217
53	0xbd4217cd	-0.04738598
54	0xbdd5228e	-0.104069814
55	0x3df7bc25	0.120964326
56	0x3e2c0ee3	0.16802554
57	0xbe06bc3d	-0.13157745
58	0xbe411258	-0.18854654
59	0x3c990603	0.018679624
60	0xbd951d67	-0.07280999
61	0xbe2f59c8	-0.17124093
62	0xbdf15b09	-0.11784942
63	0x3cc75d24	0.024336405

features_to_image.2.weight f4 [64]
0	0x3f9eb7c4	1.2399831
1	0x3f537236	0.8259615
2	0x3f869d33	1.0516723
3	0x3f80526a	1.0025151
4	0x3f87ab9d	1.0599247
5	0x3fa5d4d2	1.2955573
6	0x3f845b48	1.0340357
7	0x3f86d6b2	1.053427
8	0x3f79a557	0.97517914
9	0x3f73ae96	0.9518827
10	0x3f6e9004	0.931885
11	0x3f786e71	0.9704352
12	0x3f65aace	0.8971375
13	0x3f8ea582	1.1144259
14	0x3f6cb0cd	0.92457277
15	0x3f5b0f08	0.8556981
16	0x3f837754	1.0270791
17	0x3f8651df	1.0493735
18	0x3f8b3bf8	1.0877676
19	0x3f5789c2	0.84194577
20	0x3fa5f54b	1.2965482
21	0x3f4d16b3	0.8011276
22	0x3fa01bff	1.2508544
23	0x3f4ffe2c	0.8124721
24	0x3f5edf44	0.87059426
25	0x3f77083f	0.9649696
26	0x3f853524	1.0406842
27	0x3f85d8a9	1.0456744
28	0x3f568ef4	0.8381188
29	0x3f4b11b9	0.7932392
30	0x3f8eb9f7	1.1150502
31	0x3f77ef80	0.96849823
32	0x3f5e50d4	0.86842084
33	0x3f80285a	1.0012314
34	0x3fa50cdc	1.2894549
35	0x3f8785cf	1.058771
36	0x3f673ed7	0.9033026
37	0x3f6f14b8	0.9339099
38	0x3f792008	0.973145
39	0x3f86cb92	1.0530875
40	0x3f7e148e	0.99250114
41	0x3f664828	0.8995385
42	0x3f8448e3	1.0334743
43	0x3f614ce7	0.8800797
44	0x3f7c8ed2	0.98655427
45	0x3f9277e7	1.1442841
46	0x3f941b22	1.157078
47	0x3f4db09a	0.803476
48	0x3f70f70d	0.9412697
49	0x3f5ed5e7	0.8704514
50	0x3fb9d798	1.4518919
51	0x3f8d7b0b	1.1053175
52	0x3f703250	0.9382677
53	0x3f80f6b6	1.007529
54	0x3f9dd7c4	1.2331471
55	0x3f6b5251	0.9192248
56	0x3f760f5c	0.96117187
57	0x3f9d2f54	1.2280068
58	0x3f7f94f4	0.9983666
59	0x3f6cb128	0.9245782
60	0x3f874271	1.0567151
61	0x3f731693	0.9495632
62	0x3f673220	0.9031086
63	0x3f7d483b	0.9893834

features_to_image.2.bias f4 [64]
0	0xbe6dbecf	-0.23217319
1	0x3e744444	0.23854166
2	0xbc14c5fc	-0.009080406
3	0xbb48de71	-0.0030650164
4	0xbd0d14b8	-0.034443587
5	0xbe3d3a86	-0.18479356
6	0x3e2c24d9	0.16810931
7	0x3df1eeeb	0.11813148
8	0x3daa37e9	0.08311445
9	0xbd80be5a	-0.06286307
10	0x3d2e43c3	0.04254509
11	0x3d1010fb	0.035172444
12	0x3e321c5a	0.17393628
13	0xbe23adf6	-0.1598433
14	0x3e28bb96	0.16477808
15	0x3e85de66	0.2614624
16	0x3d77c225	0.060487885
17	0xbd0beca4	-0.034161225
18	0xbcbb0863	-0.022831148
19	0x3e2469b4	0.16055948
20	0xbe09bf1b	-0.13451807
21	0x3e5fb2d3	0.2184556
22	0xbe7c2f5c	-0.24627441
23	0x3e331ac6	0.17490682
24	0x3e0d90c1	0.1382475
25	0x3ea7dd0d	0.32785836
26	0xbdab3365	-0.08359412
27	0xbc6ec420	-0.014573127
28	0x3e9757d1	0.29559186
29	0x3e72d4c7	0.2371398
30	0x3e36706f	0.17816328
31	0x3d87e4ba	0.06635423
32	0x3e48067f	0.19533728
33	0x3e475bf1	0.19468667
34	0xbe7ecd88	-0.24883091
35	0x3dae3a35	0.08507196
36	0x3e916d48	0.28403687
37	0x3e6c378d	0.23068066
38	0x3e0e3b2c	0.1388976
39	0x3caf8184	0.021424063
40	0x3de58a78	0.112080514
41	0x3e85f492	0.26163155
42	0xbcd441a6	-0.02591021
43	0x3e84882b	0.25885138
44	0x3e81c234	0.25343478
45	0xbd82f969	-0.063952275
46	0xbd91efcf	-0.07125818
47	0x3e674e63	0.22588496
48	0x3dcf91f1	0.10135258
49	0x3d00432c	0.03131406
50	0xbe9ecff8	-0.31018043
51	0xbdaa0dc8	-0.0830341
52	0x3d8d9190	0.069125295
53	0x3de248e0	0.11049056
54	0xbe1b8c94	-0.15190345
55	0x3e7074df	0.23482083
56	0x3e57a0ec	0.2105748
57	0xbe47013d	-0.19434066
58	0xbdafb06c	-0.08578572
59	0x3e0d5444	0.13801676
60	0x3d39926d	0.045305658
61	0x3b9cecf6	0.00478899
62	0x3cc2679c	0.023731045
63	0x3e17d627	0.14827786

features_to_image.2.running_mean f4 [64]
0	0x3dce5033	0.100738905
1	0x3e99c2e4	0.30031502
2	0x3ea9fcff	0.33200833
3	0x3e75687e	0.23965642
4	0x3e23133c	0.15925306
5	0x3e20a502	0.15687945
6	0x3dc85dcb	0.097835146
7	0x3e81b6d3	0.25334796
8	0x3e6e3cc7	0.23265372
9	0x3e56ae73	0.20964985
10	0x3e9e559c	0.3092469
11	0x3ee59c47	0.44845793
12	0x3ed5c3df	0.41751
13	0x3e3879d2	0.18015221
14	0x3eb6ecf4	0.35727656
15	0x3ea20426	0.3164379
16	0x3ea4dcfe	0.32199854
17	0x3e592808	0.21206677
18	0x3dde7120	0.10861421
19	0x3e553c3a	0.20823756
20	0x3e540b7c	0.20707506
21	0x3e9b7f91	0.30370763
22	0x3e2f7e69	0.17138065
23	0x3ebe9316	0.37221593
24	0x3ea5b996	0.32368153
25	0x3e38233e	0.17982194
26	0x3e9b13a8	0.30288434
27	0x3e3c8b42	0.18412498
28	0x3e9def1a	0.30846483
29	0x3e93d29b	0.28871617
30	0x3e85c7fa	0.26129133
31	0x3e8b9b45	0.272669
32	0x3ec8e440	0.3923664
33	0x3eca0694	0.39458144
34	0x3e3ddc4d	0.1854107
35	0x3e39d10c	0.18146151
36	0x3e9e1c46	0.30880946
37	0x3e677dd9	0.22606601
38	0x3e8409fb	0.25788864
39	0x3e7b9f65	0.24572523
40	0x3e8f749f	0.28018662
41	0x3ebb3247	0.36561796
42	0x3e9893cb	0.29800257
43	0x3e223a88	0.1584264
44	0x3ed8992b	0.42304358
45	0x3e745f4c	0.23864478
46	0x3e5e5222	0.21711019
47	0x3e9691ab	0.2940801
48	0x3e756c5c	0.23967117
49	0x3e965513	0.2936178
50	0x3e2ea051	0.17053343
51	0x3e694eb7	0.22783934
52	0x3ea65e9f	0.32494065
53	0x3e421d7a	0.18956557
54	0x3e2ff2ff	0.1718254
55	0x3e8ed0d3	0.27893695
56	0x3eb96616	0.36210698
57	0x3dc9df4c	0.098570436
58	0x3e702304	0.23450857
59	0x3ecdbdb0	0.40183783
60	0x3e8d1c48	0.2756064
61	0x3eacc460	0.33743572
62	0x3e740006	0.23828134
63	0x3ea69f71	0.3254352

features_to_image.2.running_var f4 [64]
0	0x3d112e7e	0.03544473
1	0x3dd510e1	0.1040361
2	0x3e7847ca	0.24246135
3	0x3e2409e1	0.16019394
4	0x3dace104	0.08441356
5	0x3dc4af0d	0.09603701
6	0x3cee20f2	0.029068444
7	0x3e2010b9	0.15631379
8	0x3dd2c0ad	0.10290656
9	0x3dbcb58f	0.09214317
10	0x3e060789	0.13088812
11	0x3e6cb4cc	0.23115844
12	0x3e5cc077	0.21557795
13	0x3d9647ee	0.07337938
14	0x3e3cc11d	0.18433042
15	0x3e59d58d	0.2127287
16	0x3deab666	0.11460571
17	0x3e241068	0.16021883
18	0x3d2d58f8	0.042321175
19	0x3d8e8799	0.06959457
20	0x3e1e7a63	0.15476374
21	0x3e5ae429	0.21376099
22	0x3dd2e71d	0.102979876
23	0x3e37c4ee	0.17946216
24	0x3e3bc02f	0.18335031
25	0x3db3e397	0.08783644
26	0x3e09480c	0.1340639
27	0x3de4f13e	0.11178826
28	0x3e0c9c0d	0.13731404
29	0x3dcef93b	0.10106131
30	0x3e157e76	0.14599022
31	0x3e650f11	0.22369029
32	0x3e262901	0.16226579
33	0x3e3d5ade	0.18491694
34	0x3d7728ad	0.060341526
35	0x3de8d088	0.11367899
36	0x3e3c0303	0.18360524
37	0x3e49e9da	0.19718114
38	0x3e232915	0.1593364
39	0x3e4bc2f0	0.19898582
40	0x3e1ce93d	0.15323348
41	0x3e637d51	0.22215773
42	0x3e694263	0.22779231
43	0x3d9f2a43	0.07771733
44	0x3e2c3cec	0.16820115
45	0x3dd0685a	0.101761535
46	0x3e1907a7	0.14944325
47	0x3e30816c	0.1723687
48	0x3e574eb5	0.21026118
49	0x3e3eec1b	0.18644755
50	0x3d8c5c7f	0.0685358
51	0x3df576df	0.119855635
52	0x3e5f7f0d	0.2182581
53	0x3e16cac5	0.14725788
54	0x3d8bb927	0.068224244
55	0x3e24b0be	0.16083047
56	0x3e315217	0.17316471
57	0x3d0a8ac7	0.033823755
58	0x3e0d49a7	0.13797627
59	0x3e817025	0.25280872
60	0x3e4326f0	0.19057822
61	0x3e60929f	0.21930932
62	0x3dc38d79	0.09548468
63	0x3e2eebf7	0.17082201

features_to_image.3.weight f4 [64, 32, 4, 4]
0	0x3c13ab70	0.009013042
1	0x3d8b9694	0.0681583
2	0x3d81b7b9	0.063338704
3	0xbdce37ed	-0.10069261
4	0xbd0db958	-0.034600586
5	0x3e2ebce0	0.17064238
6	0x3e224f38	0.15850532
7	0xbdcb06f8	-0.099134386
8	0x3d10bfce	0.03533917
9	0x3dbfc1a8	0.09363109
10	0x3e7f056c	0.24904412
11	0x3de1b428	0.1102069
12	0xbd1db23e	-0.038500063
13	0x3d2b2c62	0.041790374
14	0x3db16c55	0.08663241
15	0xbd1940b6	-0.03741523
16	0x3dceb16b	0.100924335
17	0x3de9a21f	0.11407875
18	0xbdf4d02c	-0.11953768
19	0xbd3991e6	-0.045305155
20	0x3d34f71d	0.044180978
21	0x3e046de8	0.12932551
22	0x3db65493	0.0890285
23	0x3e0a1115	0.13483079
24	0x3dfc3f32	0.12316741
25	0x3d612c4c	0.054973885
26	0x3d6c4026	0.057678364
27	0x3b07cff8	0.0020723324
28	0x3e20dbe0	0.15708876
29	0x3dad86bc	0.08472964
30	0xbbe446ec	-0.0069664624
31	0xbdf58c70	-0.11989677
32	0xba31e19e	-0.0006785634
33	0x3da26d77	0.07931035
34	0xbdacf6cb	-0.084455095
35	0xbc076b97	-0.0082653975
36	0x3d1fe2f8	0.039034814
37	0x3d868814	0.065689236
38	0x3e03bd32	0.12865141
39	0x3c8a1597	0.016855998
40	0x3e359c7b	0.17735474
41	0x3dc70553	0.097178124
42	0x3e1ee4be	0.15516946
43	0x3c869d93	0.01643256
44	0xbd31490e	-0.04328256
45	0x3bba72b4	0.005689943
46	0x3e028591	0.12746264
47	0xbe54f294	-0.20795661
48	0xbc24c8e0	-0.010057658
49	0xbd70efc1	-0.058822397
50	0xbddb07fd	-0.10694883
51	0xbda5702c	-0.08078036
52	0xbd5522ec	-0.052035257
53	0xbdc50238	-0.09619564
54	0xbd9be01f	-0.07611107
55	0xbe9491e5	-0.2901756
56	0x3df781d2	0.12085308
57	0xbca0513e	-0.01956999
58	0x3db13ee9	0.08654577
59	0xbe5c2185	-0.21497162
60	0xbe160466	-0.14650115
61	0x3d46c3c5	0.048526544
62	0x3d86b66e	0.065777645
63	0xbda595fe	-0.08085249
64	0x3bfa6ae3	0.0076421364
65	0xbc063eca	-0.008193681
66	0x3d76abc6	0.06022241
67	0x3d38597c	0.045007214
68	0x3cc73c97	0.024320884
69	0x3d70937d	0.058734406
70	0x3df41cd9	0.11919565
71	0xbc945c2c	-0.018110357
72	0x3cb8fedb	0.022582462
73	0x3db1da8a	0.08684261
74	0xbbdf138a	-0.006807749
75	0x3d80c8fb	0.06288334
76	0xbd184046	-0.03717067
77	0xbdbda04a	-0.09259088
78	0xbcbfb3f8	-0.023401245
79	0x3cc2c5a0	0.023775876
80	0x3e1ea6a7	0.1549326
81	0x3c8f1db1	0.017470213
82	0x3db34f39	0.08755345
83	0xbde8cc61	-0.11367107
84	0x3d612288	0.054964572
85	0xbc63442a	-0.013871232
86	0x3dbc4899	0.091935344
87	0xbda4e1b8	-0.08050865
88	0x3d8077f0	0.06272876
89	0xbbc45058	-0.005991023
90	0x3c81465b	0.015780618
91	0x3e32c3f7	0.17457567
92	0x3d6a8ccf	0.05726319
93	0xbdd22e9a	-0.10262795
94	0x3de5f7c7	0.112289004
95	0xbd0d9a99	-0.034571264
96	0x3e0590f9	0.13043584
97	0xbd1d3147	-0.038377073
98	0xbdebc425	-0.11512021
99	0x3bed8982	0.007249058
100	0x3d85e0a3	0.06536987
101	0xbdea3e38	-0.114376485
102	0x3c757bce	0.014983131
103	0xbd96383f	-0.07334947
104	0x3de673bc	0.11252543
105	0xbdc198d8	-0.09452981
106	0xbe2e80c9	-0.17041315
107	0xbe5e54f8	-0.217121
108	0x3dbe5aaf	0.0929464
109	0xbd50579c	-0.0508648
110	0xbd0c8311	-0.034304682
111	0xbdadeee1	-0.08492828
112	0xbcc5c1cc	-0.024140261
113	0xbe06d09c	-0.13165516
114	0xbe5620d1	-0.20910956
115	0xbe8822fd	-0.26589194
116	0x3dd36404	0.10321811
117	0xbeab54d4	-0.33463156
118	0x3e276895	0.16348489
119	0xbe8bc5c5	-0.27299324
120	0xbb5d583d	-0.0033774518
121	0xbe82e532	-0.25565487
122	0xbe8bd997	-0.27314445
123	0xbe888823	-0.26666364
124	0x3dc4016b	0.09570583
125	0xbe5d7f02	-0.21630481
126	0x3cf726be	0.03016984
127	0xbdf2e6f8	-0.1186046
128	0x3dea5101	0.114412315
129	0x3ddee5b3	0.108836554
130	0x3d97552e	0.073892936
131	0xbda849e9	-0.08217222
132	0xbd312312	-0.043246336
133	0x3dc53c46	0.09630637
134	0xbea92022	-0.33032328
135	0x3e274b47	0.1633731
136	0x3e0cdce4	0.13756138
137	0x3d0bb36a	0.03410665
138	0xbce0c2a2	-0.027436558
139	0x3e0bdf5c	0.13659424
140	0x3e080e66	0.13286743
141	0x3d53a714	0.05167301
142	0xbeae431e	-0.3403558
143	0x3d5c5d96	0.053800188
144	0x3dc5d540	0.09659815
145	0x3dfd766a	0.12376101
146	0x3d92b6d0	0.07163775
147	0x3cd5ca8b	0.026097557
148	0x3d2affc7	0.041747835
149	0x3e17f512	0.1483958
150	0x3e29b835	0.16574176
151	0x3e133d6b	0.14378898
152	0x3dd9c326	0.10632925
153	0x3e1f5d22	0.15562871
154	0x3e82d92e	0.2555632
155	0x3e94b7bd	0.2904643
156	0x3d5a9afe	0.05337047
157	0x3e57d9a5	0.21079119
158	0x3e366f67	0.17815934
159	0x3d3a36c2	0.045462377
160	0x3d883775	0.066512026
161	0xbe29b7d9	-0.16574039
162	0xbdb287b7	-0.08717292
163	0x3c7ce005	0.01543427
164	0x3d9ef3d1	0.07761348
165	0x3db1189a	0.086472705
166	0xbce27943	-0.027645713
167	0x3d92f681	0.07175923
168	0xbb078f36	-0.0020684726
169	0x3d9c294d	0.07625065
170	0x3d7eba5d	0.06218945
171	0xbcf910ee	-0.03040358
172	0xbd9f9692	-0.07792391
173	0x3d8f6b4b	0.070028864
174	0x3d4cd813	0.050010752
175	0x3c98e0f3	0.018661952
176	0x3e326011	0.17419459
177	0xbd8d586d	-0.069016315
178	0x3dd0033e	0.101568684
179	0x3e278822	0.16360524
180	0x3d8426e2	0.06452729
181	0xbdb6d46b	-0.08927234
182	0x3d8b72a6	0.06808977
183	0x3da7c97e	0.081927285
184	0x3e144d77	0.14482675
185	0x3de64bf1	0.112449534
186	0xbd061d45	-0.032742757
187	0x3d7a6e60	0.061140418
188	0x3d792ae9	0.060831938
189	0x3e07dcb4	0.13267785
190	0x3d2c1f72	0.042022176
191	0xbba03112	-0.004888662
192	0xbca4bac1	-0.020108582
193	0x3d8a3978	0.067492425
194	0xbcef3cf8	-0.029203877
195	0xbc197e83	-0.009368542
196	0x3d48f044	0.04905726
197	0x3e1c340f	0.15254234
198	0xbe1dc180	-0.15405846
199	0xbe4484ab	-0.19191234
200	0x3dc50b3b	0.09621283
201	0x3e09a631	0.13442303
202	0xbdfdcd0e	-0.12392627
203	0x3da69059	0.08133001
204	0xb9f70c09	-0.00047120478
205	0x3cb6d515	0.022318402
206	0xbd30bb22	-0.043147214
207	0xbde15d82	-0.11004163
208	0xbcd1f07e	-0.02562737
209	0x3df79fa3	0.12090995
210	0x3d347459	0.04405627
211	0x3e3f0070	0.1865251
212	0x3d53cb0f	0.051707324
213	0x3e0b1cd0	0.1358521
214	0xbb384c49	-0.0028121641
215	0x3e089481	0.133379
216	0xbb876c73	-0.004132801
217	0x3dfe5703	0.1241894
218	0x3d36f1d0	0.044664204
219	0x3dc862b4	0.09784451
220	0x3c1285aa	0.008943001
221	0x3dfc1533	0.12308731
222	0x3d140b26	0.036143444
223	0x3cf38b73	0.02972958
224	0x3cd12334	0.025529481
225	0x3e435d83	0.1907864
226	0x3d740f52	0.059584923
227	0x3d80629e	0.0626881
228	0x3d7e09e3	0.062021147
229	0x3e19dca6	0.15025577
230	0x3d18b3b5	0.037280757
231	0xbd6ef63b	-0.058340292
232	0x3d3876f7	0.04503533
233	0x3db57b06	0.088613555
234	0x3e24f174	0.16107732
235	0x3c679a2e	0.01413588
236	0xbc8c6aa0	-0.017140687
237	0xbd17b538	-0.037038058
238	0x3d979191	0.074008115
239	0x3c80e1cd	0.01573267
240	0x3b89617d	0.0041925297
241	0xbd50d65e	-0.050985686
242	0x3d931807	0.07182317
243	0xbd72760f	-0.05919462
244	0xbc295c60	-0.010336965
245	0x3d86df61	0.06585575
246	0x3d90609b	0.07049676
247	0xbded0939	-0.11574025
248	0x3c4cbe7a	0.012496585
249	0x3d1a63c4	0.0376928
250	0xbb0f190c	-0.0021834997
251	0xbd9ce216	-0.0766031
252	0x3cfe067a	0.031008948
253	0xbca1b8b9	-0.019741403
254	0x3accd060	0.0015626065
255	0xbe582357	-0.21107231

features_to_image.3.bias f4 [32]
0	0x3bb4df48	0.0055197813
1	0xbe02dd21	-0.12779666
2	0xbe35979a	-0.17733613
3	0xbbe1d7f4	-0.0068921987
4	0x3d1c4254	0.038149193
5	0xbe041f0d	-0.1290247
6	0x3ca3e2bf	0.020005582
7	0xbd34d5af	-0.044149097
8	0xbd74b1e4	-0.059739962
9	0xbe046285	-0.12928207
10	0x3cbcf98e	0.023068216
11	0xbe3e7559	-0.18599452
12	0xbe1d8f04	-0.15386587
13	0xbea3e40b	-0.3200992
14	0xbd183d9d	-0.037168134
15	0xbc342cac	-0.010996979
16	0xbd8ecdf3	-0.069728754
17	0xbd8d0463	-0.06885602
18	0xbe73f2a8	-0.23823035
19	0xbd87893b	-0.066179715
20	0xbe7cb2ac	-0.24677533
21	0x3d8df2bc	0.069310635
22	0xbd3d257e	-0.046178333
23	0xbd0c7d05	-0.034298915
24	0xbdba05b5	-0.0908312
25	0x3d5e2b9a	0.0542408
26	0xbe429342	-0.19001487
27	0xbee31a9f	-0.44356248
28	0xbdc97502	-0.098367706
29	0xbf079653	-0.5296375
30	0xbf126a77	-0.571937
31	0xbe16520b	-0.14679734

features_to_image.5.weight f4 [32]
0	0x3f7e53ef	0.9934682
1	0x3f3ccd8b	0.73751134
2	0x3f735b88	0.9506154
3	0x3f53570d	0.82554704
4	0x3f803975	1.0017534
5	0x3f6940fb	0.9111478
6	0x3fb60834	1.4221253
7	0x3f8d41fb	1.1035761
8	0x3fa1886e	1.261976
9	0x3f6f7c76	0.9354929
10	0x3f7dbe69	0.9911867
11	0x3f93fb6c	1.1561103
12	0x3f5658a2	0.8372899
13	0x3fb8ff0e	1.4452837
14	0x3f7a34c8	0.9773679
15	0x3f611522	0.8792287
16	0x3f8c7715	1.0973841
17	0x3f835c22	1.0262492
18	0x3f5c731e	0.86113155
19	0x3f724a5f	0.9464473
20	0x3f98b341	1.1929704
21	0x3f7a6ea3	0.9782507
22	0x3f810d1a	1.0082123
23	0x3f807136	1.0034549
24	0x3f68b7d7	0.9090552
25	0x3f619251	0.88113886
26	0x3fa4aba6	1.2864883
27	0x3fa93d8d	1.3221909
28	0x3f66724a	0.9001814
29	0x3fe96fc3	1.8237232
30	0x40032637	2.0492074
31	0x3f5d92fe	0.8655242

features_to_image.5.bias f4 [32]
0	0xbd747d68	-0.05968991
1	0xbcd8fd1d	-0.026487881
2	0xbe0b8704	-0.13625723
3	0xbded00a3	-0.11572387
4	0xbe255d36	-0.16148838
5	0xbe4d54a7	-0.20051824
6	0xbd89c201	-0.067264564
7	0x3ebaea66	0.36506957
8	0x3d5a08f8	0.05323121
9	0xbda8bc64	-0.08239058
10	0xbd9d8eb9	-0.07693238
11	0xbd2f5291	-0.04280335
12	0xbd5d92ec	-0.054095194
13	0xbdf2ae78	-0.118496835
14	0xbe4dbb4b	-0.20090978
15	0xba8ff22a	-0.0010982205
16	0x3e9a6b0d	0.30159798
17	0xbcef0ffc	-0.029182427
18	0xbe328150	-0.17432141
19	0xbd04f315	-0.032458384
20	0xbe5bf4d5	-0.21480115
21	0xbc518e9e	-0.01279035
22	0xbd6ee97a	-0.05832813
23	0x3cb11ecf	0.021621136
24	0xbd7402bb	-0.059572916
25	0x3cd8e1ec	0.026474915
26	0xbe922d86	-0.28550357
27	0xbe2f1263	-0.17096858
28	0xbe41fdf8	-0.18944538
29	0xbd45f2cf	-0.048327263
30	0xbd8ad094	-0.06778064
31	0xbdde5b48	-0.10857254

features_to_image.5.running_mean f4 [32]
0	0x3eb69ae5	0.3566505
1	0x3e94069f	0.28911301
2	0x3f0f7096	0.5603117
3	0x3f188dd0	0.5959139
4	0x3f00886c	0.50208163
5	0x3eb3e1b2	0.3513313
6	0x3e8823d7	0.26589844
7	0x3ee214cb	0.4415649
8	0x3ec10fed	0.37707463
9	0x3f0c78c7	0.5487179
10	0x3f0339c9	0.5126005
11	0x3ed090ff	0.40735623
12	0x3eebf6b7	0.46086666
13	0x3c720ff3	0.01477431
14	0x3efff0dc	0.4998845
15	0x3ee85101	0.453743
16	0x3ecaa369	0.39577797
17	0x3f25d9c2	0.647854
18	0x3f0405a1	0.5157109
19	0x3f354368	0.7080598
20	0x3a878666	0.0010339736
21	0x3ebe907d	0.3721961
22	0x3f177a08	0.5917058
23	0x3ec15c67	0.3776581
24	0x3ebccdf7	0.3687589
25	0x3ee3df68	0.44506383
26	0x3edcbd8c	0.43113363
27	0x3a1c2f01	0.0005957932
28	0x3f089cad	0.5336407
29	0x3af9af35	0.0019049408
30	0x3b716830	0.0036835782
31	0x3ed296b3	0.411306

features_to_image.5.running_var f4 [32]
0	0x3e5c4b4b	0.21513097
1	0x3e35d709	0.1775781
2	0x3f042cc1	0.5163079
3	0x3ef8ed6a	0.48618633
4	0x3eda731d	0.4266595
5	0x3ea9539c	0.330716
6	0x3de536e0	0.11192107
7	0x3ec80d2c	0.3907255
8	0x3e940e9e	0.28917402
9	0x3edc2c7b	0.43002686
10	0x3f287341	0.65800864
11	0x3f2335bc	0.6375387
12	0x3ede69b9	0.43440035
13	0x3b7ba8e9	0.003840024
14	0x3e9b34e1	0.3031378
15	0x3e97461c	0.29545677
16	0x3e938e4e	0.28819507
17	0x3f6dc627	0.9288048
18	0x3f0c4587	0.5479359
19	0x3f64c880	0.8936844
20	0x38f19a7c	0.000115205505
21	0x3e7a5d55	0.24449666
22	0x3f1be391	0.60894114
23	0x3e545c63	0.20738368
24	0x3e551a9c	0.20810932
25	0x3eb0b1a8	0.3451054
26	0x3eb86c76	0.3602025
27	0x384d895b	4.900373e-05
28	0x3f02b62a	0.5105921
29	0x39850c04	0.0002537669
30	0x3a1eff7c	0.0006065292
31	0x3ec11443	0.3771077

features_to_image.6.weight f4 [32, 16, 4, 4]
0	0xbd051cfe	-0.032498352
1	0xbcef7790	-0.029231817
2	0xbdef81b1	-0.116946585
3	0xbd93a83b	-0.07209822
4	0xbdba15d8	-0.090861976
5	0xbd209520	-0.039204717
6	0xbdc8e14a	-0.098085955
7	0xbd4fff8b	-0.050780814
8	0xbde24dd0	-0.11049998
9	0xbe1ddfcd	-0.15417404
10	0xbe64922d	-0.22321387
11	0xbe24bdaa	-0.16087976
12	0xbd53083d	-0.05152153
13	0xbc123e49	-0.008925983
14	0xbe2e9621	-0.17049457
15	0xbc989352	-0.018624935
16	0x389c509f	7.4536765e-05
17	0xbd45c06a	-0.048279203
18	0xbcc834e1	-0.024439277
19	0xbbe3fc96	-0.006957601
20	0xbdb989cf	-0.09059488
21	0xbc232d99	-0.009959602
22	0xbec8008f	-0.39062926
23	0xbca0d721	-0.019633831
24	0xbbb5e0aa	-0.0055504637
25	0xbab403d6	-0.0013734053
26	0xbc155bf0	-0.009116158
27	0x3aba71da	0.0014224604
28	0xbc4024df	-0.011727541
29	0x3bda131b	0.0066551096
30	0x3cbb8e7c	0.02289509
31	0x3b9363c4	0.004497977
32	0xbc3ba708	-0.011453398
33	0xbdb383dc	-0.087653846
34	0xbc9f0b4c	-0.019414566
35	0xbd40dca7	-0.04708543
36	0xbda0ff83	-0.07861235
37	0xbbb3d6cc	-0.0054882523
38	0xbdcd8be4	-0.10036448
39	0x3c84c0a1	0.016205134
40	0xbca894ad	-0.020578707
41	0xbeb41c6f	-0.35177943
42	0x3bcdb508	0.006277684
43	0xbe61cd35	-0.22050937
44	0x3a3650db	0.00069547974
45	0xbb24a88e	-0.002512488
46	0xbdf38d99	-0.11892242
47	0x3b63bc24	0.0034749592
48	0xbc71efe9	-0.014766672
49	0xbccbf987	-0.024899257
50	0xbc3fadc1	-0.011699141
51	0xbcb1b301	-0.021691801
52	0xbd21e345	-0.03952338
53	0x3c0b8d74	0.008517612
54	0xbd5a5635	-0.05330487
55	0xbce32837	-0.027729137
56	0x3c8eb7db	0.017421653
57	0xbdeacaaf	-0.1146444
58	0xbc112075	-0.008857836
59	0xbda7c718	-0.08192271
60	0xbd16c969	-0.036813173
61	0x3a96cacc	0.001150453
62	0xbdb5eca5	-0.08883027
63	0xbc61ddef	-0.013785823
64	0xbc9c84f9	-0.019106375
65	0xbe2938f4	-0.16525632
66	0xbe0f8328	-0.14014876
67	0x3d412ece	0.047163777
68	0xbe76d94b	-0.24106328
69	0xbf363aae	-0.7118329
70	0xbf004775	-0.50109035
71	0xbe4262e3	-0.18983035
72	0xbee3429f	-0.44386765
73	0xbf720895	-0.94544345
74	0xbf841a6c	-1.0320563
75	0xbe8631cd	-0.2620987
76	0xbe1be1b0	-0.15222812
77	0xbec3a6d2	-0.3821321
78	0xbeac1cf5	-0.33615842
79	0xbdb5ec1a	-0.088829234
80	0x3c1df255	0.009640296
81	0xbcd02c5e	-0.02541178
82	0xbba1bda4	-0.004935937
83	0x3c207f14	0.009795923
84	0xbd2a36b1	-0.041556064
85	0xbde635e2	-0.11240746
86	0xbd468612	-0.048467703
87	0x3d26ed92	0.04075391
88	0xbd3533ba	-0.044238783
89	0xbd467d45	-0.04845931
90	0xbde630c6	-0.112397715
91	0xbd4ddccd	-0.0502594
92	0x3c9a6ea8	0.018851593
93	0xbdb3fbcc	-0.08788261
94	0xbdd2ae21	-0.10287119
95	0xbd58d2e9	-0.052935515
96	0xbde6fac2	-0.11278297
97	0xbdcf114c	-0.10110721
98	0xbbf85542	-0.007578523
99	0x3bc1c928	0.0059138723
100	0xbda787ca	-0.081801966
101	0x3b9adedd	0.0047262744
102	0xbe2a3bd5	-0.16624387
103	0xbcf3bdd7	-0.029753609
104	0xbdd70c0f	-0.10500347
105	0xbea26139	-0.317148
106	0xbc9f35ed	-0.019434894
107	0xbdb827ba	-0.08991952
108	0xbde1cf25	-0.11025838
109	0xbc5c0592	-0.013429062
110	0xbdd53cec	-0.104120106
111	0xbdae0868	-0.08497697
112	0xbab75af2	-0.0013988896
113	0xbe0f424b	-0.13990133
114	0x39a07e5f	0.00030611732
115	0xbb3a29e0	-0.0028406307
116	0xbdc10fac	-0.09426817
117	0xbe8d6ee5	-0.27623668
118	0xbeeabb17	-0.45845863
119	0xbd9e3107	-0.07724195
120	0xbb992d4d	-0.0046745897
121	0xbf7d01e9	-0.9883104
122	0x3c063f70	0.008193836
123	0xbeb8877e	-0.36040872
124	0xbe326e0e	-0.17424795
125	0xbe1d8bf1	-0.15385415
126	0xbedd58dc	-0.43231857
127	0xbd63a4a9	-0.055576954
128	0xbdc57101	-0.096406944
129	0xbd79efd4	-0.061019734
130	0xbe1c5a0b	-0.15268724
131	0xbddd8308	-0.10816008
132	0xbc9840ef	-0.01858565
133	0xbea5a7a6	-0.32354468
134	0xbd4c62a7	-0.04989877
135	0xbe5d42f1	-0.21607567
136	0xbe69587b	-0.22787659
137	0xbe75b4d9	-0.23994769
138	0xbeadcda6	-0.3394596
139	0xbeb520e9	-0.3537667
140	0xbcb8787e	-0.022518393
141	0xbbd25b12	-0.006419548
142	0xbd1b02ff	-0.037844654
143	0xbda6c46e	-0.08142935
144	0xbc4182c2	-0.01181096
145	0xbbaea081	-0.005329192
146	0x3bd282e1	0.0064242934
147	0x39f22fb3	0.00046193376
148	0xbbec91d1	-0.007219531
149	0x3bebc881	0.007195533
150	0x3a08fe36	0.00052258687
151	0xbc82d863	-0.015972322
152	0x3c3ddcc1	0.011588276
153	0x3bc5acec	0.006032577
154	0xbc10bc88	-0.008834012
155	0xbb5b46fc	-0.0033459058
156	0xbb9607b6	-0.004578556
157	0x3c81694f	0.015797285
158	0xbbcb28c5	-0.0061999285
159	0x3bddea74	0.0067723338
160	0xbde291a3	-0.11062934
161	0xbecf69ab	-0.40510306
162	0xbeaff54a	-0.34366828
163	0xbc46d73e	-0.012136279
164	0xbec91c87	-0.39279577
165	0xbf8122b1	-1.0088712
166	0xbf6a55db	-0.91537255
167	0xbe67d35b	-0.2263922
168	0xbeb42d34	-0.35190737
169	0xbf446645	-0.7671855
170	0xbf3248c7	-0.696423
171	0xbe0ed35f	-0.13947819
172	0xbc245c84	-0.010031823
173	0xbe2eba44	-0.17063242
174	0xbd9335ad	-0.07187972
175	0x3d605153	0.054765057
176	0xbdaf0f2e	-0.08547817
177	0xbead4a84	-0.33845913
178	0xbe17b2f8	-0.14814365
179	0xbd0bf1df	-0.034166213
180	0xbbff8b1d	-0.007798566
181	0xbd89a5fa	-0.06721111
182	0xbd09e201	-0.0336628
183	0xbda47bff	-0.08031463
184	0xbd6abd6b	-0.05730955
185	0xbeb09708	-0.34490228
186	0xbdccc087	-0.09997659
187	0xbdbaab70	-0.0911473
188	0xbbb23418	-0.005438339
189	0xbc69a24b	-0.014259885
190	0xba83e855	-0.0010063747
191	0xbc43d920	-0.011953622
192	0xbc6e015d	-0.014526692
193	0xbe03e398	-0.12879789
194	0xbdb875bb	-0.0900683
195	0xbd8737da	-0.0660245
196	0xbedd00f0	-0.43164778
197	0xbeedc791	-0.4644132
198	0xbf103723	-0.5633413
199	0xbedaae84	-0.4271127
200	0xbcbfd2a5	-0.023415873
201	0xbe338034	-0.17529374
202	0xbe4ea098	-0.20178449
203	0xbe03c9b9	-0.1286992
204	0x3c069c11	0.00821592
205	0x3c4f344c	0.012646746
206	0xbdcf7a62	-0.101307645
207	0xbcbd2c32	-0.023092363
208	0x3d53afd5	0.05168136
209	0x3bc083e1	0.005875096
210	0xbe94f0df	-0.2909002
211	0x3b2a796f	0.0026012321
212	0x3b530a4a	0.0032202178
213	0xbead9d17	-0.33908913
214	0x3bdd3b5f	0.0067514624
215	0xbe434ac3	-0.19071488
216	0xbdac0522	-0.083994165
217	0x3c22cd0e	0.009936584
218	0xbf139c22	-0.57660115
219	0x3bb50ec9	0.005525444
220	0x3c973f35	0.018462757
221	0xbd3c3824	-0.045951977
222	0xbaaa7957	-0.0013006133
223	0xbd4a6535	-0.049412925
224	0xbc69a6a1	-0.014260919
225	0xbccc4265	-0.024934003
226	0xbd5c092d	-0.05371969
227	0x3d0b3ed3	0.03399546
228	0xbda5c432	-0.08094062
229	0xbd717fa1	-0.058959607
230	0xbdcf7916	-0.10130517
231	0xbd1541b5	-0.036439616
232	0xbd0728f1	-0.03299803
233	0xbe3e5303	-0.18586354
234	0xbd5953fc	-0.05305861
235	0xbd4abb3b	-0.049494963
236	0xbb2494e3	-0.0025113157
237	0xbd4f0dcb	-0.050550263
238	0xbd7ad5ec	-0.061239168
239	0xbd1c1499	-0.03810558
240	0xbd492ae8	-0.049113184
241	0xbdf5d4a0	-0.120034456
242	0xbda72b92	-0.08162607
243	0xbc550fe7	-0.01300428
244	0xbe16850e	-0.14699194
245	0xbdf14f3b	-0.1178269
246	0xbea2f303	-0.31826028
247	0xbd7f0b5e	-0.0622667
248	0xbdbadbeb	-0.09123977
249	0xbec9f2b4	-0.3944298
250	0xbdfae8f6	-0.12251465
251	0xbde4b3a1	-0.11167074
252	0xbce26f50	-0.027640969
253	0xbcee9581	-0.029124023
254	0xbe67a37e	-0.22620961
255	0xbccd26a0	-0.025042832

features_to_image.6.bias f4 [16]
0	0xbe11554d	-0.14192696
1	0xbe241088	-0.16021931
2	0x3e412b62	0.18864205
3	0x3e43eb54	0.1913274
4	0x3d9fb5a9	0.07798321
5	0xbe263c08	-0.16233838
6	0xbdda0892	-0.10646166
7	0x3d93074c	0.07179126
8	0xbe100e42	-0.14067939
9	0x3e763bf7	0.24046312
10	0x3e5e150c	0.21687716
11	0x3e1de2e0	0.15418577
12	0xbe191084	-0.14947706
13	0x3e361927	0.17783032
14	0xbe112238	-0.1417321
15	0x3de07ce9	0.10961325

features_to_image.8.weight f4 [16]
0	0x3f9e52f5	1.2369066
1	0x3f6e4bcd	0.9308441
2	0x3f7d0895	0.9884122
3	0x3f64efeb	0.89428586
4	0x3fa7dd33	1.311438
5	0x3f912088	1.1338053
6	0x3fa0b8bb	1.2556375
7	0x3f92fc07	1.1483163
8	0x3f983f22	1.1894267
9	0x3f4e0040	0.8046913
10	0x3fa928a9	1.3215533
11	0x3f8cdbcf	1.100458
12	0x3fa43318	1.2828093
13	0x3f5c6aed	0.86100656
14	0x3f8b2467	1.0870484
15	0x3f9ad565	1.2096373

features_to_image.8.bias f4 [16]
0	0xbeabbcee	-0.3354258
1	0xbec00e31	-0.37510827
2	0x3ec0d454	0.37661994
3	0x3e80295f	0.25031564
4	0x3ea9b3a0	0.33144855
5	0xbea2da11	-0.31806996
6	0xbea383d4	-0.31936514
7	0x3ea19bcc	0.31564176
8	0xbe9a8cf2	-0.30185658
9	0x3e97804c	0.2959007
10	0x3eba26dc	0.36357772
11	0x3ecc9d10	0.3996358
12	0xbea82189	-0.32838085
13	0x3ec6e6bc	0.3884791
14	0xbe999d1c	-0.30002677
15	0x3ec1b2d2	0.37831742

features_to_image.8.running_mean f4 [16]
0	0x3e12f59a	0.14351502
1	0x3d879174	0.0661954
2	0x3e97c0ec	0.29639375
3	0x3e9825e2	0.29716402
4	0x3e8a6e1a	0.27037126
5	0x3d536459	0.05160937
6	0x3deb54a3	0.114907525
7	0x3e88a5b4	0.2668892
8	0x3e0454bb	0.12922947
9	0x3eb10822	0.34576517
10	0x3e8796c7	0.2648222
11	0x3e91faed	0.28511754
12	0x3debfd5a	0.11522932
13	0x3e93f67b	0.28898987
14	0x3d9178eb	0.071031414
15	0x3e8b3fe2	0.27197176

features_to_image.8.running_var f4 [16]
0	0x3dc2c323	0.095098756
1	0x3d8a507f	0.06753635
2	0x3d0dd9b6	0.034631453
3	0x3cfd384f	0.03091064
4	0x3d6ba0e8	0.0575265
5	0x3d8c1874	0.068406016
6	0x3db2848a	0.08716686
7	0x3d4d4281	0.05011225
8	0x3dae350a	0.0850621
9	0x3d0024a0	0.03128493
10	0x3d5cd858	0.05391726
11	0x3ce43615	0.02785782
12	0x3db810d0	0.08987582
13	0x3d0fa748	0.03507164
14	0x3d6cfba5	0.057857174
15	0x3d06077d	0.032721985
